cnn.onnx (onnx, 284428 bytes, 8 tensors)

conv1.0.weight f4 [16, 1, 5, 5]
00000000: ffe2 333e e166 9dbd 4923 9b3e 2318 6b3d
00000010: 7046 103e cbe9 1d3e 0252 433e 4c3e 603e
00000020: cac4 3abe 3cae e43d c4e3 f83d 79f8 90be
00000030: 4371 2fbe 084b f3bc 6f3e 3cbe 843a 1ebf
00000040: e4b8 f4be 17b2 933d 61af 133e b8f0 753e
00000050: 141d 38be 0f1b 83be 2a26 853e 9a5a 153e
00000060: a8cd 00be 5651 763e b8ca 69be f14a d53c
00000070: 1250 c1be ae91 653d 6bcb 49be 97af a63e
00000080: f307 403e b756 3e3e cd12 c23b c85b be3b
00000090: 53c5 803d 0610 40be 4fe5 133d e03b 9abe
000000a0: aa0e c7be 3ec3 c1bd 570d 893e 1f61 45be
000000b0: 5867 b33d 84a3 38be e165 86bd bea7 70be
000000c0: b280 f4be 48a6 44be 2cf7 5d3e 5c8b 593e
000000d0: 8e3b 0f3e 6bb8 603e d31a 133e 88c9 d6bd
000000e0: f0db 87be 1db0 a2be c8b5 81be 5d2a 19be
000000f0: 7ee4 273e c592 20be 7551 c2be c2e3 44bd
00000100: 7491 a7bd 1221 aabe 4f75 0b3f 5995 9abe
00000110: ba95 b6be fb38 4a3e c3df 3fbe 7ae6 a3be
00000120: e106 ea3d bdb1 d2be 93d2 973d ccf9 23bd
00000130: 4de9 a3bd 68a7 09bd 587e a93e 0687 99be
00000140: 02cd 3c3e 16af 5b3d ece9 4dbe ac03 9a3d
00000150: 4166 e1be 33c5 5bbe 5389 c73e d9d0 ddbd
00000160: cb4d 583e 1850 d5bd ec7f f83d bb1e 15be
00000170: 28e8 923e 2985 49be 1911 9c3e 5704 673e
00000180: 4ed3 c6be 49c5 ee3d 4c05 263e f950 433e
00000190: 1879 423c 21ed 823e f608 07be b063 853e
000001a0: 2353 0b3d 50f4 74bd 9696 d6bc b055 a93e
000001b0: 30ce 263e 0426 423d 0f00 403e bfe9 0c3e
000001c0: a966 6b3e 3c0b 613e e718 a5be 4b51 453e
000001d0: e1cd 7e3d 9156 2a3e 8752 773e f18c 9bbd
000001e0: 1520 923e db6c eabc a17e fcbd e79f 67be
000001f0: 3205 b53c df0d 4c3e 8931 c93d d88c 9bbe
00000200: 2af6 11be a4fb a63e e2f2 033d 1481 5cbd
00000210: 5324 5ebe a66a adbe 465c 623d 35f8 173e
00000220: 56be 883e 6f8c d43d 1dfc e13d d01f d1bd
00000230: 38b2 e5bb d4ca f5bd dc92 ac3e 3b62 74bd
00000240: 38be b03e a641 cc3d e2dd c7be 1687 fb3d
00000250: 36c3 463e 2d14 b63e acbe 573e 0199 163e
00000260: 6cc1 a63d c3f3 ea3d a447 8fbe c784 2d3d
00000270: 6e70 6ebc cefa f23c e8ae be3d 7afd b0bd
00000280: 49c8 a4bd b8f2 6bbe 4dee bfbd 877a a93e
00000290: cfc2 403e 944f ac3d b08d 523d 7c01 803d
000002a0: c11a 9b3d 12f3 6d3e c1a3 f7ba 1cac 63bc
000002b0: 316e d63d cbba 253e 4733 b13e 0867 6d3e
000002c0: 4d4a b63d d6a6 083d d02e 60be 48a0 4ebe
000002d0: c0fb 54bd 02e8 3cbc 6fae f8bd 3ddd 99bd
000002e0: e6e9 e0be 5ab3 4eb9 5fef 473e ab31 c33d
000002f0: 4afd cf3d 1a23 42be 023e 9bbe 3a93 01be
00000300: 949d 85bd 19a5 903e d31d 3a3e e253 8abe
00000310: 4fee a53d e309 90bd c970 78bd 6eb7 ab3e
00000320: 0052 a7be 2dad f1be 1456 263d 3054 733d
00000330: 32f5 15be 7fe4 0abe 4299 f43d 4305 3b3e
00000340: 3ead 093d 15a1 8abe 8dba 48be 5597 453e
00000350: f522 76be 7c6b 863d dd31 693e 19ca 613e
00000360: 1afc a5bd 9027 a3be 8e52 c13e 21e1 2dbe
00000370: 82d3 cbbd c02d 87bd bb3d 363c 2b39 553e
00000380: 365f 3a3d 1751 51be 67dc 603e 609b 043d
00000390: 5a45 d63d 9409 9bbe 1227 97be 3f4b 5bbe
000003a0: 99dd 0bbe 79ae 243e 9b77 cd3d eecd 12be
000003b0: 5f42 29be 0372 05be 85ab d4be 19a9 02be
000003c0: 5f56 553e 53a0 ea3d 7d67 953e 6b3e f63d
000003d0: e127 2abd 2aaf b43d f89a cbbd 67cf 0b3e
000003e0: 6204 413e 7622 4d3d bed3 14be d088 a1bc
000003f0: 08b0 74be a821 81be 0f97 1ebe da4b ba3d
0.17567061 -0.07685638 0.30300358 0.057396065 0.1408937 0.15421216 0.19074252 0.21898764
-0.18239132 0.11166045 0.12152818 -0.2831457 -0.1713305 -0.029698864 -0.18383192 -0.6180804
-0.4779731 0.07211702 0.1442237 0.24017608 -0.17979842 -0.25606582 0.2600568 0.14585343
-0.12578452 0.24054465 -0.22831237 0.026036711 -0.377564 0.056047134 -0.19706504 0.3255584
0.18753032 0.18587767 0.0059226514 0.005809281 0.062876366 -0.18756112 0.036107358 -0.30123806
-0.38878375 -0.094610676 0.2676799 -0.1927533 0.08759946 -0.18031126 -0.065624006 -0.23501489
-0.47754437 -0.19204056 0.2167632 0.21244568 0.13987562 0.2194535 0.14365701 -0.10487658
-0.26534986 -0.3177499 -0.25334 -0.14957567 0.16395757 -0.15680988 -0.37952772 -0.04806877
-0.0818204 -0.33228356 0.54475874 -0.30192068 -0.35661107 0.19748299 -0.18737702 -0.32011777
0.11427093 -0.4115123 0.07413211 -0.040033147 -0.08003483 -0.033606917 0.33104205 -0.29985827
0.1843758 0.05363377 -0.20108765 0.075202316 -0.44023326 -0.21461944 0.38971958 -0.1083085
0.21123426 -0.10415667 0.12133774 -0.14562504 0.28692746 -0.19679703 0.30481794 0.2256025
-0.38833088 0.11658723 0.16212958 0.19073857 0.011869691 0.2557154 -0.13187012 0.26052618
0.034014832 -0.059803307 -0.026194852 0.33073187 0.16289592 0.047399536 0.18750022 0.13761042
0.2298838 0.21976942 -0.3224556 0.19269292 0.06220806 0.16634585 0.24152575 -0.07595242
0.28540102 -0.02861636 -0.1232884 -0.22619592 0.022097204 0.19927166 0.09823901 -0.30380893
-0.1425406 0.32613862 0.032214053 -0.053834036 -0.21693544 -0.3387043 0.05526378 0.14840777
0.26707715 0.10378348 0.11034415 -0.10211146 -0.0070097707 -0.12001577 0.33705795 -0.059663992
0.34520125 0.09973459 -0.3903647 0.12281625 0.19410405 0.35562268 0.2106883 0.14706804
0.08142361 0.11472275 -0.27984345 0.042362954 -0.0145531725 0.029660609 0.093107045 -0.08642097
-0.08046014 -0.23041809 -0.09371624 0.33101293 0.18824314 0.08413616 0.051404655 0.06250283
0.07573462 0.23237255 -0.0018893407 -0.013896015 0.10470236 0.16184537 0.34609434 0.23183835
0.089008905 0.033362232 -0.21892858 -0.2017833 -0.0519979 -0.011529924 -0.121426456 -0.07512901
-0.4392845 -0.00019712505 0.19524907 0.09530958 0.10155733 -0.18958703 -0.30320746 -0.12653819
-0.06524196 0.2825096 0.1817544 -0.27017123 0.081020944 -0.07033136 -0.060654435 0.33538383
-0.3267975 -0.47202435 0.040609434 0.05940646 -0.14644316 -0.13563727 0.11943294 0.18263726
0.033612482 -0.2707602 -0.19602413 0.1929601 -0.24036773 0.0656347 0.22772928 0.2204975
-0.08104725 -0.3186612 0.37758297 -0.16980411 -0.09952451 -0.06600523 0.011123116 0.20822589
0.045500956 -0.2044109 0.21959077 0.03237474 0.104624465 -0.30280745 -0.29521996 -0.21415423
-0.13658752 0.16082181 0.100325786 -0.14336368 -0.16529225 -0.13031773 -0.4153711 -0.12759818
0.20833729 0.11456361 0.29180518 0.12023624 -0.041541938 0.088224724 -0.09941667 0.13653336
0.18849328 0.050081693 -0.14533898 -0.019718558 -0.23895276 -0.2522099 -0.15487312 0.09096499

conv1.0.bias f4 [16]
00000000: 0504 16bd 9de2 53bc 4675 0a3b 6bb1 70bb
00000010: cb19 4abe 8e94 abbd baec b43b f5a3 fd3b
00000020: b93b 82bc 31ac 523d be98 8dba 6777 a53d
00000030: 73ba 2ebd 1d79 e1bb b339 be3b 7c80 35bc
-0.036624927 -0.012932447 0.002112703 -0.0036726843 -0.19736402 -0.08377944 0.005521384 0.0077404925
-0.015897619 0.051433746 -0.0010802967 0.08079415 -0.04265828 -0.006880893 0.005805218 -0.011077996

conv2.0.weight f4 [32, 16, 5, 5]
00000000: e09b 4abd 8a8f dbbb 0f4f 143c 74d9 18ba
00000010: 2d8c d5bc 77d2 9e3c 2ea1 55bd 10da 023d
00000020: 1ff9 263c 8054 163b 737f f3bc 0525 5c3c
00000030: c975 e2bc 6811 dcba 3861 9039 222e 1f3d
00000040: 5ffc 98bb d45d 313d 3514 79bb 944c 48bd
00000050: b6ff d3bb 2c95 9f3c 9657 b63c 5927 f0bc
00000060: 7c52 2bbd 15d6 76bd ffbe 1bbd 2978 d5bc
00000070: 23ac b43b 2c4b 7dbd 7cdb 56bd ad3a 933c
00000080: 9804 b33c d66d 0339 ca04 6bbd 5fe0 03bc
00000090: 865c 53bc 47f5 023d 4851 97bc ac2a a4bb
000000a0: 7116 1c3d 20e4 0ebd ed5c 2fbd d697 f33c
000000b0: 3779 0a3d 3366 d8bc 40a3 13bd 2ec7 60bd
000000c0: 226a ecbc fed0 32bc 30da 56bd 75ae 2cbd
000000d0: 4856 dfbb 5cb3 c93c b639 c43c 220d debc
000000e0: eb87 f73b d7a6 0d3d 07d2 b5ba 5a06 4dba
000000f0: 7e78 74bd c3c4 c8bc 4e40 afbc 84f4 eabc
00000100: ebec 34bd 9cde 2e3b a8cb 60bd c708 e7bc
00000110: b65a 15bb 4c55 1fbd 351c 12bd d3ce 12bc
00000120: eb1c ffbc 8e67 403c 15d5 6ebd 7be5 813b
00000130: 4985 50bd eba5 183c 8fae 1fbd c8fe 99bc
00000140: a4da 5ebd c1b9 3dbd 532b a1bc e236 59bd
00000150: 1ef4 62bc af03 50bd abc0 d2bc d7a8 8f3b
00000160: 3024 853c cd2e 223c 2c70 aa3c 81c1 b5bc
00000170: 5f3a a93b 7922 b53c 99cf d3bc 6427 e53c
00000180: c47f 443c ce1e 273d 359d c7bc 973d 14bd
00000190: caa9 e63c 1d78 0cbd 6834 14bd 9da0 58bc
000001a0: 4271 c33c 2ca2 843c acdf f33a 8cf4 fabb
000001b0: 1857 72bc 7656 4abd 0f68 cd3b ac45 34bd
000001c0: ff89 24bd a871 1ebd 8016 2ebd a8be 62bd
000001d0: b125 0b3d 3c80 afbc 4659 223c 18c8 363d
000001e0: 58d7 153d a31a c43c fad0 06bc a38b 9cbc
000001f0: adf4 41bc 022e a0bc 7e09 08bd 5310 333c
00000200: 40f9 053c 3d12 5cbd 7827 e13c 3df6 07bc
00000210: d239 bbbc baf4 3f3d a63d a3bc ca76 49bc
00000220: 67cf 9d3c c439 64bd 7610 49bd 4857 d6bb
00000230: 46d2 d5bc 2f83 f43c b07d 69bd 03ee 35bd
00000240: 737d 7a3c 0dcd 0dbd 684a 37bd 15b5 b5bc
00000250: 9657 49bd 33f8 18bd 218b 893c 86ea 52bd
00000260: 40b5 603c 5947 973c 1832 79bc b2aa 7a3c
00000270: d591 40bd 2fc5 0a3d 1054 8c3b 4b02 0cbd
00000280: 93e2 20bd 582e 48bd 392d 74bc 3842 003d
00000290: 7f1f 61bb 3602 8b3c 87d3 013d 2e4a 1abd
000002a0: fe31 cd3c 40b3 46bc cb1d 7e3b 24a1 34bd
000002b0: 32a9 033c 77a7 debb f360 1bbd 1c88 0ebd
000002c0: 551f 6c3b 0629 05bc 4129 063d 86aa bcbc
000002d0: 103c 26bc 95d6 31bd a48f 01bd 2587 dabc
000002e0: da66 9fbc 5d16 a8bc c432 043d 6fcc 4d3b
000002f0: 3e8d 4cbd 9fba f8bc d65a c8bc b8ce 273d
00000300: 806d c7bc 1f22 5bbd e925 05bd a992 e4bc
00000310: 2b20 a93b 7d47 073c 17a2 f63b 6c7b 8fbc
00000320: b4fe c3bb 335d 55bd e929 40bd 480b 1e3d
00000330: 6989 8cbd 2327 44bd e08e 1b3c 64c1 e53b
00000340: c3b0 c93c 10e6 653b 0bab 033d 89cc 82bb
00000350: b9aa 0ebd f0ac 78bd c9f4 133d 3c87 6ebd
00000360: 538e 51bc 1171 483c 1480 473c 384d 2cbd
00000370: dcf6 243d a49f 1f3d 2752 573b a3bb babc
00000380: ff12 07bd 4752 a03c edf5 033d 0e08 e53b
00000390: 3e97 88bb ba53 6bbd 52d3 49bd 3f7b abba
000003a0: f8d7 4bbd 4ee1 81bc 8a74 bebc 755c c63c
000003b0: 76b2 3ebd 62bf 35bd 1b6c 82bb 85ca d73c
000003c0: 8dd4 fd3c e53d 8dbb b9ae e03c 6b10 95bc
000003d0: e5b7 b63c 77d1 37bc b7e9 0a3d 278f b5bc
000003e0: 26c1 3ebd 4987 f2bc 25f8 94bb 00c4 c23c
000003f0: 18d5 eb3c af18 173b 1eb8 dd3c 993a c23c
-0.04946506 -0.006700461 0.009052052 -0.0005830743 -0.026067818 0.019387467 -0.052155666 0.03194624
0.010191231 0.002293855 -0.029723858 0.0134365605 -0.027644055 -0.0016789855 0.00027538254 0.038862355
-0.004668757 0.043302372 -0.003800643 -0.048901156 -0.006469692 0.01948031 0.022258561 -0.029315637
-0.04182671 -0.06026276 -0.038023945 -0.026058273 0.0055136844 -0.061839268 -0.05245541 0.017972315
0.021852776 0.0001253405 -0.057377614 -0.0080491 -0.012900477 0.031972196 -0.018471375 -0.0050099697
0.03810734 -0.034885526 -0.04281323 0.029735487 0.033807006 -0.02641592 -0.03604436 -0.054877453
-0.028859202 -0.010914085 -0.052454174 -0.042158563 -0.0068157054 0.024621658 0.0239533 -0.027105872
0.0075540445 0.03458294 -0.0013871797 -0.0007821076 -0.059685223 -0.024507886 -0.021392968 -0.028681047
-0.044171255 0.0026682978 -0.05488172 -0.028202428 -0.0022789664 -0.038899705 -0.03567143 -0.008960444
-0.031141719 0.011743439 -0.05830868 0.003964124 -0.05090836 0.009316902 -0.03898483 -0.018798247
-0.05440773 -0.046319727 -0.019673979 -0.053030856 -0.013852147 -0.050784763 -0.025726637 0.004384141
0.016252607 0.0098988535 0.02080544 -0.022186996 0.005164429 0.022111164 -0.025855826 0.027972884
0.011993352 0.040800862 -0.024366954 -0.03619155 0.028157134 -0.034294236 -0.03618279 -0.013221887
0.023857716 0.01619061 0.0018606088 -0.007658547 -0.014791273 -0.04939886 0.0062685083 -0.044011757
-0.040170666 -0.03868261 -0.042501926 -0.055357605 0.033971492 -0.021423452 0.00990898 0.044624418
0.03658232 0.023938483 -0.008228535 -0.019109553 -0.01183812 -0.019553188 -0.033212177 0.010929185
0.008177102 -0.05372833 0.02748464 -0.008298454 -0.02285472 0.04686425 -0.019926857 -0.012296388
0.019263936 -0.055719152 -0.049087964 -0.0065411665 -0.026101243 0.02984771 -0.05700463 -0.04441644
0.0152886985 -0.03461938 -0.044748694 -0.022181073 -0.049155794 -0.037346076 0.016789975 -0.05149319
0.013715088 0.018466638 -0.015209697 0.015299486 -0.047014076 0.033879455 0.004282482 -0.034181874
-0.039278578 -0.04887232 -0.01490336 0.03131315 -0.0034351049 0.016968828 0.03169587 -0.0376684
0.025048252 -0.0121276975 0.0038775082 -0.04409899 0.008035945 -0.0067948657 -0.037934255 -0.034797773
0.0036029418 -0.0081274565 0.032754187 -0.02303053 -0.010146156 -0.043417532 -0.031631127 -0.02667577
-0.019458223 -0.020518476 0.032274976 0.003140237 -0.049939387 -0.030362425 -0.024457376 0.040968627
-0.024344206 -0.053499337 -0.032506857 -0.027901964 0.0051613054 0.00825679 0.007526647 -0.017514907
-0.0059812907 -0.052090835 -0.04691497 0.038584977 -0.068621464 -0.047888886 0.009494513 0.0070115793
0.02462042 0.0035079755 0.03214554 -0.0039916676 -0.034830783 -0.0607118 0.036122117 -0.05823444
-0.01279028 0.012233988 0.012176532 -0.04206583 0.040274486 0.038970605 0.0032855363 -0.02279455
-0.0329771 0.019570483 0.032216955 0.0069894856 -0.00416842 -0.057452895 -0.049273796 -0.0013082995
-0.04976651 -0.015854504 -0.02324893 0.024214009 -0.046556912 -0.04437197 -0.0039801723 0.026341686
0.030985141 -0.004310357 0.027427064 -0.018196305 0.022304485 -0.011219374 0.033914294 -0.022162987
-0.04657092 -0.029605525 -0.0045461827 0.0237751 0.028788134 0.0023055484 0.027065333 0.023709582

conv2.0.bias f4 [32]
00000000: af24 debc 47be 523d bfc7 c83c aaed 36bd
00000010: ab93 573d 184c 8a3d 3154 abbd 14b8 4ebd
00000020: ebc7 a73b 0d66 19bd 0cce 913d 425b 3ebc
00000030: e96a 3cbd efaf 4e3c bf8a 563d c5d6 21bd
00000040: 7000 7abd 70dc ecbb 7f0c 8b3b 32ac 813d
00000050: c645 f93b 16eb 193d 41fc aa3c c33c 7ebc
00000060: bbf3 503d f958 433d c47e 843d 3372 733d
00000070: 7e8d a5bc 87d5 ba3c c577 143d 5993 ab3c
-0.027117101 0.051450994 0.024509309 -0.044660248 0.05263106 0.06752795 -0.083656676 -0.05046852
0.0051202676 -0.03745084 0.071193784 -0.011618437 -0.046000395 0.012615188 0.052378412 -0.03951146
-0.061035573 -0.0072284266 0.004243433 0.06331672 0.0076071946 0.03757771 0.020872237 -0.015517416
0.05101369 0.047692273 0.06469491 0.05943508 -0.02020907 0.022806896 0.036247034 0.020944284

conv3.0.weight f4 [64, 32, 5, 5]
00000000: 9877 07bc d46d f53c 3d9c 55bc 12c0 b4bc
00000010: 7b57 cd3c 4339 e63b 2ba7 cebc 656d 663a
00000020: 90cc d7bb 8cc9 8bbc f689 c33c ae10 a6bc
00000030: 838e 483c 9672 d1ba 7e4c 82bc ba19 07bd
00000040: c213 b0bc 71df ddbc 081d 6a3c caf3 dfbc
00000050: 51f5 33bc 14dc 8bbc 4771 5c3b 100a 68bb
00000060: 3b53 e83c ab76 eb3c 18a1 cebc 1118 10bd
00000070: d5b8 db3c d6ca fb3b 4253 893c 4868 c9bc
00000080: b104 27bc 59d9 3bbd 5c0f 39bd 2a90 0ebd
00000090: a502 2939 7c8e e63c ac80 6e3c 2abc 5bbc
000000a0: 93a9 133b ef83 b13c 33c7 8cbc 866c 3c3c
000000b0: 7f2c da3c d8e7 c7bc 9362 62ba b4e8 183a
000000c0: 48ae 8e3c b9c3 d73c 5354 c33c 5f2d 9bbc
000000d0: cd31 5d3c 8dc7 1c3d 9b61 28bc 8a5a 083d
000000e0: ad56 9abc 03a3 113c c6fa 9a3c 9dec c13c
000000f0: 68bc dc3c 7373 b93c d490 1fbc 6b5a 81bc
00000100: 5f34 113d 187d c03c bfc6 c73c e6a0 81bb
00000110: 83f6 25bd 6599 643c 31ca 2bbd 2b50 2bbd
00000120: 68a5 b83c c90e 1bbd fbee 10bc 2824 743c
00000130: 11e2 30bd 304f ae3c f267 f7bc 7609 f83c
00000140: 174e dfbc 4a7d 733b 4e3b 773a 5a98 53bc
00000150: 2bb0 48bd 3d2d 823c 3c0e 55bd 0cae 55bd
00000160: 3ec1 83bc 2eef 9dbc c1c3 3a3c 6e0b 80bd
00000170: 7845 dcbc 6340 b3bc 6111 51bd 0cf4 2fbc
00000180: 6720 5ebc 000d 1abc 0152 34bc 4bc1 cbbc
00000190: 5dc2 81bc fb79 74bb c7eb b3bc 8d97 1d3d
000001a0: c091 d43c 3c6e c43a 1b69 44bc b64d 25bc
000001b0: 358a 9fbc 135c a3bc d41a 10bb bace 95bc
000001c0: 028f 333c 808e 1cbb dee2 8abc 0d50 10bd
000001d0: c9f3 14bc a873 b53c a412 b53c cd55 31bd
000001e0: 9ada a2bc 45fa dbbc 6e07 9a3c f1e1 8c3c
000001f0: a982 dcbb 3790 cbbc 1e64 2dbc 7796 b4bc
00000200: 8bac b03c 5620 8fbc 1531 e0bc f368 703c
00000210: 8934 40ba 8d2d c8bc 051d 063d 5678 0bbd
00000220: 155e 1cbc 4fc1 37bc b356 3d3c e7e6 b2bc
00000230: e711 853c d4b0 fc3b 3657 9e3c 837b 1fbd
00000240: 0f17 413b 6fe8 8f3c 8b4d 2ebd 9a76 24bd
00000250: 1eef b4bc c7c1 74bc fc61 cabb 9009 683c
00000260: 2448 b3ba dabf fbbc 4281 ea3c dcf0 cc3c
00000270: 7bc9 09bd 4217 e2bc 0227 0a3b 0a03 06bc
00000280: bc0f 333c 7910 ce3b 7fae a7bc 68da e93c
00000290: 1f15 823c aba4 e43b bd36 20bd 8f6c 61bc
000002a0: 5524 52bc fb40 8e3c aa3e 8fbc f94e 093d
000002b0: ea2c e9bc 8472 1a3b c728 ebbb 6de5 853b
000002c0: bdcb 0abd 00e7 1dbc d14a 88bc f306 2a3b
000002d0: f61b e93b 0efa debc b7f9 0e3d 90ed 07bd
000002e0: a636 453c 9a94 fb3c 7473 813c f2f2 f7bc
000002f0: 8cd7 613c f5a9 b33c 8077 0a3d e71f f43c
00000300: f2ee fc3c c381 2fbc 2bec 1ebb f757 0abd
00000310: 67ca eebc 0ed4 9e3a a908 9a3c 8b2a abbc
00000320: 8108 eebb f350 eb3c b140 72bc be0e 053d
00000330: dee1 b23a 1a2e 8cbc af91 2cbd 8d2e acbc
00000340: a0b1 a9bc 2091 203d 4494 b2bb e630 31bc
00000350: 10dc 9bbc bdc1 bf3b da68 a43c c553 3f3c
00000360: 01e8 d03b 5c63 d8bb 27eb eeba 2ef3 433c
00000370: a4ff 083d 39dc 993c 8d83 cabc 4382 fa3c
00000380: 4654 ed3b fb7e 973b 6fd6 2e3c 30bc a33c
00000390: 0c97 b63c 21d1 98b9 b83b 03bd 9640 8e3c
000003a0: 0f85 87ba 80b4 23bd 0622 25bd 9cc1 c83c
000003b0: 65f1 b0bc 9e41 4a3c 6e22 1bbd 439c ecbc
000003c0: b8ed bbbc f516 723b 937c 68bc b07f a83b
000003d0: c9f1 52bb bd5f 0abd 7b64 0ebd 0e30 143c
000003e0: 9e00 dbbc 496d 273c 08de 96bc 459d d43c
000003f0: 68fd b3ba b7c9 f73c 8a10 6fbc 0771 e93c
-0.0082682595 0.029959597 -0.013037738 -0.022064243 0.025066128 0.007025869 -0.025226196 0.0008790105
-0.006585665 -0.017063878 0.023869496 -0.020271625 0.012241009 -0.0015979584 -0.015905615 -0.03298352
-0.021493796 -0.027084084 0.014289148 -0.027337927 -0.010983781 -0.017072715 0.0033636854 -0.0035406388
0.02836 0.028743109 -0.0252233 -0.0351792 0.026821533 0.007684092 0.016763333 -0.024585858
-0.01019399 -0.045861576 -0.045180663 -0.034805454 0.00016118081 0.028144114 0.014557045 -0.013411561
0.0022531494 0.021669356 -0.01718483 0.011500483 0.026632546 -0.024402544 -0.00086359045 0.00058330153
0.017417088 0.026338445 0.02384392 -0.018942533 0.013500643 0.038276244 -0.010277177 0.03328947
-0.018840158 0.008888963 0.018918406 0.023672396 0.026945308 0.022638058 -0.00973912 -0.015790185
0.035450336 0.02349715 0.024386762 -0.003955948 -0.040518295 0.013952588 -0.04194087 -0.0418245
0.02253981 -0.037855897 -0.00884604 0.014901198 -0.043184344 0.021277994 -0.030200932 0.030277949
-0.027258916 0.0037153536 0.00094311393 -0.012914741 -0.048996132 0.015890712 -0.052015528 -0.052167937
-0.016083356 -0.019279089 0.01139921 -0.0625218 -0.026888594 -0.021881288 -0.051041964 -0.010739338
-0.01355753 -0.0094025135 -0.011005879 -0.024872443 -0.01583975 -0.0037304151 -0.021963013 0.03847461
0.025948405 0.0014986466 -0.01198795 -0.0100893285 -0.019475082 -0.019941365 -0.0021988647 -0.018287051
0.010959389 -0.0023888648 -0.016953882 -0.035232592 -0.009091326 0.022149876 0.022103615 -0.043294717
-0.019879628 -0.026852736 0.01880237 0.017197581 -0.006729443 -0.02484904 -0.010582952 -0.022044403
0.02156665 -0.017471474 -0.027367154 0.014673459 -0.0007332047 -0.024435783 0.03274252 -0.03405031
-0.009543915 -0.011215522 0.011556315 -0.021838618 0.016243888 0.0077115092 0.019328695 -0.03893615
0.0029463207 0.017566888 -0.04255442 -0.04015217 -0.022086676 -0.014938778 -0.0061762314 0.014162436
-0.0013678116 -0.03073113 0.028626088 0.025017194 -0.033639412 -0.02759898 0.002108038 -0.0081794355
0.010929044 0.006288585 -0.020468948 0.028546527 0.015879212 0.0069776378 -0.039114702 -0.013758793
-0.012826045 0.01736497 -0.017485935 0.03352258 -0.0284638 0.0023566792 -0.007176492 0.0040861876
-0.033885706 -0.009637594 -0.016637238 0.0025944083 0.007113929 -0.027218845 0.034906115 -0.03318554
0.012036955 0.030710507 0.015802123 -0.030267213 0.013784301 0.021931628 0.03380537 0.029800368
0.030875657 -0.01071209 -0.0024249654 -0.033775296 -0.029149247 0.001211764 0.018802958 -0.02089431
-0.0072641973 0.028725123 -0.014785931 0.032484762 0.0013647636 -0.017111827 -0.042131122 -0.02101829
-0.020714581 0.039200902 -0.0054498035 -0.010814881 -0.019025832 0.005851953 0.020069528 0.011677687
0.0063753133 -0.0066036414 -0.001822804 0.011959834 0.033446923 0.018781768 -0.024720931 0.030579692
0.007242712 0.0046232915 0.010671242 0.019987196 0.022288822 -0.00029147512 -0.032039374 0.017364781
-0.0010339337 -0.03996706 -0.04031565 0.024506383 -0.02159948 0.012344746 -0.03787463 -0.028883105
-0.022940502 0.0036939953 -0.014189857 0.0051421747 -0.0032187572 -0.03378271 -0.034763794 0.00904466
-0.026733693 0.010218927 -0.01841642 0.025953898 -0.0013732137 0.030247552 -0.014591346 0.028496278

conv3.0.bias f4 [64]
00000000: 6165 2fbd 069f bcbc 859e b93c c246 1bbd
00000010: 5ea7 723d a093 86bc b085 913d 565f 253c
00000020: a228 623c 93e5 a53d 531a d6bc a00c 0dbd
00000030: 3cff 833d 794b 0f3c 3d9b 3fbd dce1 4fbc
00000040: 8938 cb3b 2af1 9a3d 42f6 273d fb6f 053d
00000050: 0a5b 2e3d ef5f 11bd ec78 5d3b 395e 0abd
00000060: 52d4 af3b 52dc 0e3c 14ba 8d3d 0a73 b73c
00000070: 2576 4bbd eb7c 3d3d 3e8a 573d e50b 9a3c
00000080: 7152 ccbb 0ca1 723d c2de ff3c 24b9 ed3c
00000090: bb2c 37bd 9660 853d b058 603b 5875 3a3d
000000a0: 6922 1c3d 3f09 4cbc 0de0 a53c a35c 98bc
000000b0: 9ade 273d a6e7 b83c ddd2 973d db2b 813c
000000c0: d975 463d 41a3 423d e01e 57bc 209c 353d
000000d0: c67d ed3c f39b 40bd 9808 e73c 3977 b9bc
000000e0: 9ead 9fbd 9afd 08bd acc9 8f3c 0dfb 783d
000000f0: cf4d 113d e362 ee3c 827a e6bc c698 323d
-0.04282129 -0.023025047 0.022658596 -0.037909277 0.059241645 -0.016427815 0.07105577 0.010093531
0.013803633 0.081004284 -0.0261356 -0.03443587 0.064451665 0.008746021 -0.046778906 -0.012688126
0.006201808 0.0756553 0.041006334 0.032577496 0.04256729 -0.03549188 0.0033794 -0.033781264
0.0053658867 0.008719521 0.06920257 0.022393722 -0.04967322 0.04626171 0.052622072 0.0188045
-0.0062354137 0.059235618 0.031234149 0.029018946 -0.044720393 0.06512563 0.003423255 0.045522064
0.038118754 -0.012453376 0.020248437 -0.01859886 0.040983774 0.022571396 0.07413266 0.015767982
0.048452232 0.047518972 -0.01312992 0.044338346 0.028990638 -0.047023725 0.02820234 -0.022639858
-0.07796787 -0.03344498 0.01755222 0.060786296 0.035474595 0.029099887 -0.028134588 0.043602727

out.weight f4 [2, 3136]
00000000: 86e3 853c 7572 9b3b 2323 f4ba 92d4 bc3c
00000010: 252f 813c 1cda 1dbc fb92 5ebb 5844 6abc
00000020: 81bc 6cbb e1fe c8bb 6956 c33b de87 313c
00000030: 5161 61bc 213b d23b 1cff 823c 950e 313c
00000040: 163c 493c 66e2 9e3c f066 f8bb 818a 343b
00000050: ea19 973b 265b 343c 5d69 7dbc 897a 9b3c
00000060: eed9 28bc 6e84 df3a 5e85 273c 559c 263c
00000070: 3c03 dbbb dcbe 933a db05 b63c 21ae 133c
00000080: c4d6 3b3b eefd 9bbb 03c5 393c 0a45 3a3b
00000090: 5c77 a1bb 70ec 1e3c 4ee7 e1bb ca6c b8bb
000000a0: 007e 93bb 6edc 753c 23e0 8b3c 41b3 4ebc
000000b0: 97b9 9c3b a5b6 2f3c 137e abbb c1db 343b
000000c0: a6c3 8fbc 2b05 a53c 979c d93b 7fff dcbb
000000d0: 74c5 8b3b 70d8 bfbb a5d7 c93a ece4 873c
000000e0: 86c3 3b3c 9175 5c3c 091b e9bb eb8e 053c
000000f0: 8c91 29bc 81b0 e3bb e148 7ebc 2745 02bb
00000100: d731 5e3c 4271 c839 ef76 e83b a564 bb3c
00000110: dcf1 cfba f0ab 003b 559e 9a3b 1f73 31bc
00000120: 771c 38ba 2b00 433c 4714 953b 333d 82bb
00000130: 6182 093c 37d0 bb3b dc8b 86bc 9542 9dbb
00000140: 934b 4a3c 5604 8abb 4a48 c3bb 2e06 87bc
00000150: 670c 063c 13dd 97bb 8a59 90bb 8e84 4abc
00000160: 4e82 fb3b 2e90 50bb 3783 b53b 7541 00bc
00000170: 611e eb3b 9cc9 883c 3756 113b b8d1 ea3b
00000180: b7c5 86b9 13f0 113b 08e9 48be 3713 1dbe
00000190: 75ce 393d 71fc 603e c64c ad3d bcb5 4c3d
000001a0: 5994 c83c 3dde 0b3c 8b4c c5bd 4b8d 423c
000001b0: bc43 a23d f0b1 6bbe e5fb 16be e4ba edbd
000001c0: 1fad 6c3d 5f92 e63d 2ac0 6f3c 2866 0ebe
000001d0: cecf 1f3e f890 973d ffc0 393d f4ff 8d3d
000001e0: 6ddd dd3d 418d 4c3d 7784 6dbc 17da df3c
000001f0: d005 6e39 be6e 49bc 6e33 adbd 904e abbd
00000200: 7793 f9bc fc01 57bd f1eb fd3c b439 283d
00000210: 5afb 3b3d f749 3e3b 226d dfbc 8d1d 3c3d
00000220: 6f0c b63c 8735 b03c 7cbd 8f3d 9608 523d
00000230: 9d6f 51bd a648 87bb fb68 53bb 1372 bf3a
00000240: 97ad 0f3c b27e bc3c c6eb 9e3b 9f6e 91bc
00000250: 8ec7 efbb 3838 fd3b 8c4f 88bc 8551 bf3b
00000260: 61c3 dcbb 2515 83bc da9b 573c 014b d13b
00000270: 7acd 24bc c53b 613c de2e 8a3c e7d7 293c
00000280: 3c13 86bb 307b 203c 61bb c6bb b7a5 0fbb
00000290: d369 8f3b 6e99 2a3c 9cdd 053b 61ab 753c
000002a0: 9373 433c 93de 2cbb f79f 06bb ae44 dabb
000002b0: 388e 7abb ccb7 10bc 5a58 913c ec86 423c
000002c0: 0cfe 5b3c 3db8 903c 0079 803c 8c7d 2e3c
000002d0: c345 7c3c 455b 08bc 770c 37bb 6eeb cc39
000002e0: 2567 5abc ee03 30bc 2527 0a3a 2e21 57bc
000002f0: 975e 59bc 1a96 4e3c 6a23 7c3c b3c6 803b
00000300: 4756 113c 9f46 83bc 653c 06bb 01f1 3bba
00000310: 313e 8d3c 4749 553d 33d8 d9bd 6dcb 81be
00000320: b80e dd3d a534 033c 5ea0 b8bc a1d0 b3bd
00000330: 0c6d 4f3c 12c4 fc3d 7bb0 a03d c883 b1bc
00000340: 6511 823b df01 453c 8187 e4bd def1 44bd
00000350: 2f46 8fbb 25ee 27bc 0f19 493c ab29 a13c
00000360: 2c50 80bc d54a d1bd 6ec7 42bd 7796 723d
00000370: ba38 463d ec2f 1fbb cad1 1cbc c739 dcbc
00000380: e92e 493d a193 623c 8aca ddbc 5982 3dbc
00000390: 4788 43bb 5ce7 bebc 5a60 80bc 7f37 1f3d
000003a0: 52ef 873c bd6b efba 8a1c 17bc 0e3b f2bb
000003b0: 3319 233c 9ebe 283b a365 3e3d c791 263d
000003c0: 51c3 8f3c b1b7 5e3c 6cc3 9e3c 6125 9b3c
000003d0: 475c a638 72ce 54bd 8b52 57bc 80d4 50bd
000003e0: d2fa b7bc 1a81 4a3d df94 13bd 6142 e7bc
000003f0: 4440 9abd b42d 74bd 1dd1 7abc d422 ee3c
0.016343843 0.004743869 -0.0018626194 0.02305058 0.01576955 -0.009634521 -0.003396212 -0.014298521
-0.00361231 -0.0061338996 0.0059612286 0.010835616 -0.013756112 0.00641574 0.015990786 0.010806699
0.012282392 0.019395065 -0.0075806305 0.0027548375 0.0046112435 0.01100806 -0.015467015 0.018979328
-0.010305865 0.0017053017 0.010224668 0.010169108 -0.006683735 0.001127209 0.022219589 0.009013684
0.0028661946 -0.0047604954 0.011338475 0.0028422498 -0.004927559 0.009699926 -0.0068940287 -0.005628203
-0.0045011044 0.015006168 0.01707465 -0.01261598 0.004782866 0.010724698 -0.005233535 0.0027596804
-0.017549347 0.020144066 0.0066409814 -0.0067443247 0.0042654816 -0.005854659 0.001539935 0.01658865
0.011460191 0.013455764 -0.0071138185 0.00815175 -0.0103496425 -0.006948531 -0.015520305 -0.0019877644
0.013561687 0.00038231356 0.007094256 0.02287514 -0.0015864926 0.0019633733 0.0047185817 -0.01083067
-0.00070232846 0.0119018955 0.0045495364 -0.0039745807 0.008392901 0.0057316083 -0.016424112 -0.004799197
0.01234712 -0.0042119427 -0.0059595453 -0.016482439 0.008181668 -0.0046345084 -0.004405205 -0.012360705
0.0076754456 -0.003182422 0.0055393237 -0.007828106 0.0071752523 0.016697697 0.0022176632 0.0071661137
-0.0002570578 0.002226834 -0.19620144 -0.15339361 0.04536291 0.21971299 0.08461909 0.049978003
0.0244848 0.008536872 -0.0963374 0.011874507 0.079230756 -0.23017097 -0.14744528 -0.11607912
0.05778229 0.11258387 0.014633218 -0.13906157 0.15606615 0.074006975 0.04535007 0.06933585
0.10833249 0.049939398 -0.014496914 0.027325673 0.00022699614 -0.012294469 -0.08457075 -0.08364594
-0.030465825 -0.052492127 0.030996295 0.041070655 0.045894004 0.0029035786 -0.027273718 0.04592662
0.022222726 0.021509899 0.07018563 0.05127772 -0.051131833 -0.0041285334 -0.0032258618 0.001460614
0.008769414 0.023009632 0.0048498837 -0.017752944 -0.00731749 0.007727649 -0.016639493 0.0058385753
-0.006737158 -0.016001293 0.0131597165 0.006387115 -0.010058755 0.01374716 0.016868051 0.010366417
-0.0040916484 0.009794995 -0.006064818 -0.0021918842 0.004376629 0.010412557 0.002042628 0.014994473
0.0119294105 -0.0026377782 -0.0020542124 -0.0066610193 -0.0038231742 -0.008832883 0.017742325 0.011872988
0.013427269 0.017665977 0.015682697 0.01065005 0.015397492 -0.008322542 -0.0027931014 0.0003908532
-0.013330256 -0.010743124 0.0005270115 -0.013130469 -0.013267181 0.012609029 0.015389303 0.003929937
0.008870668 -0.016024886 -0.0020482775 -0.0007169396 0.01724157 0.052071836 -0.1063694 -0.25350514
0.10793823 0.008008157 -0.022537407 -0.08780027 0.012660276 0.12342085 0.07846161 -0.021669284
0.0039693587 0.012024372 -0.11158658 -0.048082225 -0.00437238 -0.010249649 0.012274041 0.01967319
-0.015663229 -0.10219351 -0.047553472 0.059225526 0.048393942 -0.0024290038 -0.009571502 -0.02688302
0.049117003 0.013829143 -0.027074117 -0.011566722 -0.0029835866 -0.02330368 -0.015670944 0.038871285
0.016593609 -0.0018266361 -0.009223113 -0.007392294 0.009954738 0.0025748382 0.046483647 0.040666368
0.017549189 0.0135936 0.019380294 0.018938722 7.932685e-05 -0.051954694 -0.013142238 -0.050983906
-0.022458468 0.049439527 -0.036030646 -0.028229894 -0.07531789 -0.0596139 -0.015308646 0.029069342

out.bias f4 [2]
00000000: c3af d03c b228 33bd
0.025474435 -0.043739982
