model.ckpt (torch, 71029 bytes, 14 tensors)

layer1.0.weight f4 [16, 1, 5, 5]
0	0x3a9a94c6	0.0011793606
1	0xbe6acdb9	-0.2293004
2	0xbd85b6a1	-0.06528974
3	0xbee460a2	-0.44604975
4	0xbe734613	-0.237572
5	0x3e13b1f6	0.14423355
6	0x3d5bc0fa	0.053650834
7	0xbdb744fb	-0.08948704
8	0xbe5d238a	-0.21595588
9	0x3d8846fc	0.06654164
10	0xbdd34d50	-0.103174806
11	0x3e14969e	0.14510581
12	0x3e0995ee	0.134361
13	0x3c8251c0	0.015908122
14	0xbd54c63d	-0.051946867
15	0x3ec2c6bb	0.38042244
16	0x3eabd3bb	0.33559975
17	0xbe9053a4	-0.28188813
18	0xbe4572aa	-0.19282022
19	0xbd103018	-0.035202116
20	0x3d9d8e5b	0.07693168
21	0xbd33b039	-0.04386923
22	0xbe2e2c8f	-0.17009185
23	0xbbb180b9	-0.0054169563
24	0x3d3cda04	0.046106353
25	0xbe5cbf23	-0.21557288
26	0x3e04f5a7	0.12984334
27	0xbdb7625c	-0.089543074
28	0x3e28c43b	0.16481106
29	0x3dea0aaa	0.11427815
30	0x3e4e8b8a	0.20170417
31	0x3e20c43d	0.15699859
32	0x3dcf74cf	0.10129701
33	0xbe66895c	-0.22513336
34	0xbbb63282	-0.00556022
35	0xbe8908ec	-0.2676462
36	0xbdb6fa7f	-0.08934497
37	0x3e059cf6	0.13048157
38	0x3e1658da	0.14682332
39	0xbe325f68	-0.17419207
40	0xbbca03c8	-0.0061650015
41	0xbec9403a	-0.39306813
42	0x3e8ac961	0.27106765
43	0x3db93216	0.09042756
44	0xbeb7732b	-0.35830054
45	0x3d7864ba	0.060642935
46	0x3d3faab1	0.046793643
47	0x3e61882b	0.220246
48	0xbe796057	-0.24353157
49	0xbeda7cbf	-0.426733
50	0xbd24c1f2	-0.040224023
51	0x3dedbd1d	0.11608336
52	0x3db9c769	0.090712376
53	0xbd7a223c	-0.061067805
54	0x3db719b2	0.08940448
55	0xbe138ae0	-0.14408445
56	0xbddc4dab	-0.107570015
57	0x3e32091f	0.17386292
58	0x3de372dc	0.11105892
59	0xbe8945ec	-0.2681116
60	0x3e04e983	0.12979703
61	0xbd84ab3b	-0.06477972
62	0xbdcb2106	-0.09918408
63	0xbd2a9d9c	-0.041654214
64	0x3e36b9de	0.1784434
65	0x3efb1d72	0.49045902
66	0x3e00458c	0.1252653
67	0x3ecafe95	0.39647356
68	0xbe1c07d9	-0.15237369
69	0x3e42b5f9	0.1901473
70	0xbcded126	-0.02719934
71	0xbf157ce2	-0.5839368
72	0xbe8c8d70	-0.27451658
73	0xbd3605e2	-0.044439204
74	0x3e81e539	0.25370196
75	0xbe5e2c0e	-0.21696493
76	0x3e2fd746	0.17171964
77	0x3d89d1ec	0.067294925
78	0xbd22ace2	-0.039715655
79	0x3e123b8e	0.14280531
80	0xbd6851c4	-0.056718603
81	0x3e068ecd	0.13140412
82	0xbe256b1f	-0.16154145
83	0x3e1c9459	0.15290965
84	0xbd2c12e7	-0.042010214
85	0xbe0747ae	-0.13210937
86	0xbd22a866	-0.03971138
87	0xbe0a33b6	-0.13496289
88	0x3ea91144	0.33020985
89	0x3d25fabf	0.040522333
90	0x3f0ea585	0.5572131
91	0x3cadb79c	0.021205716
92	0xbe49d469	-0.19709934
93	0x3e97db30	0.29659414
94	0xbec9f236	-0.39442605
95	0x3e52894d	0.20560189
96	0xbea57b88	-0.3232081
97	0xbf12bc16	-0.57318246
98	0xbd86eece	-0.06588517
99	0xbe488a8b	-0.195841
100	0xbe4f6462	-0.20253137
101	0xbe8f48c4	-0.27985203
102	0xbd9bf647	-0.07615333
103	0x3de9b9d2	0.114123955
104	0x3dc15f92	0.09442057
105	0x3d9801e5	0.07422236
106	0xbdbd4c90	-0.09243119
107	0x3e1db260	0.15400076
108	0xbe07c92a	-0.13260332
109	0x3d9b2500	0.075754166
110	0x3d0b058d	0.03394084
111	0xbe127e2b	-0.14305942
112	0xbea66bb4	-0.32504046
113	0x3e3e0a75	0.18558677
114	0x3e4514b5	0.1924618
115	0x3c85eb4d	0.016347552
116	0xbd6ac018	-0.0573121
117	0x3d6a441f	0.05719387
118	0x3db7b7e0	0.08970618
119	0x3e7bad70	0.2457788
120	0xbdc8a105	-0.09796337
121	0xbe7ef3df	-0.24897717
122	0x3f1b995a	0.6078087
123	0x3dd7f59a	0.10544892
124	0x3dc7cc80	0.09755802
125	0x3e34bef3	0.17650966
126	0x3c6cd096	0.014454028
127	0x3dc09267	0.09402924
128	0x3df4dcde	0.119561896
129	0xbda0782b	-0.0783542
130	0xbe8f2a46	-0.2796194
131	0xbdf7664a	-0.12080057
132	0x3d517784	0.05113937
133	0xbc2a240e	-0.010384573
134	0x3d4dd0c1	0.05024791
135	0xbeb13401	-0.34609988
136	0xbb0a92f5	-0.0021144722
137	0x3e007333	0.12543945
138	0xbe0f68c4	-0.14004809
139	0xbe80ab4c	-0.2513069
140	0x3e273e67	0.16332398
141	0xbeaa8033	-0.33300933
142	0x3ee62009	0.44946316
143	0xbd520844	-0.051277414
144	0xbddea773	-0.10871782
145	0xbda39106	-0.079866454
146	0x3e91920e	0.28431743
147	0x3ea8bba3	0.32955655
148	0x3db6f462	0.08933331
149	0x3e341f26	0.17590007
150	0x3da36af3	0.07979383
151	0xbdc53d8b	-0.09630879
152	0xbe88670e	-0.26641124
153	0xbe368140	-0.17822742
154	0x3ea06fc8	0.31335282
155	0xbe4d4b4d	-0.20048256
156	0x3e487782	0.19576839
157	0x3e2e8ff4	0.17047101
158	0x3e08e980	0.13370323
159	0x3c855c25	0.01627929
160	0xbe63047b	-0.22169678
161	0x3d74730f	0.05968004
162	0xbd152986	-0.036416553
163	0x3e49e3f4	0.19715863
164	0x3db15742	0.08659221
165	0xbebaf5e6	-0.3651573
166	0xbe8b1828	-0.27166867
167	0x3ca497ab	0.020091852
168	0x3e4b2879	0.19839658
169	0x3e86ce62	0.26329333
170	0x3eaf0937	0.34186718
171	0xbd83f12b	-0.064424835
172	0xbdadf5e5	-0.08494166
173	0x3c2a98c6	0.010412401
174	0xbe66adca	-0.22527233
175	0xbe093559	-0.13399257
176	0x3da7c3ee	0.081916675
177	0x3df5288a	0.11970623
178	0xbe850572	-0.25980717
179	0x3e7ae7f4	0.24502546
180	0xbde331e4	-0.110935
181	0x3b4da6dd	0.0031379976
182	0xbd7de60a	-0.06198696
183	0xbd803ed5	-0.06261984
184	0xbeb35b9b	-0.35030827
185	0x3df6081d	0.12013266
186	0xbe813301	-0.25234225
187	0x3e23fbbd	0.16014
188	0x3dacc5e4	0.08436182
189	0x3d137d3e	0.036008112
190	0x3d801274	0.0625352
191	0xbe157225	-0.14594324
192	0xbe393ec3	-0.18090348
193	0x3e8ee8f9	0.2791212
194	0xbe1d3813	-0.15353422
195	0x3d31d22b	0.043413322
196	0x3ed683b5	0.4189736
197	0x3dc6c973	0.09706392
198	0x3df00aa6	0.11720781
199	0xbd2c5cd7	-0.042080726
200	0xbd098b7b	-0.033580285
201	0x3e7b1d3e	0.24522874
202	0xbe35249f	-0.17689751
203	0x3cc605a3	0.02417261
204	0x3de2c250	0.110722184
205	0x3def771c	0.1169264
206	0x3dd047b6	0.10169928
207	0x3df4f07a	0.1195993
208	0xbea3e756	-0.32012433
209	0xbe80de83	-0.25169763
210	0x3e3503f3	0.17677288
211	0x3da63e38	0.08117336
212	0x3e0a6a0f	0.1351702
213	0x3e0ddc14	0.13853484
214	0x3e658c1f	0.22416733
215	0xbee8cc54	-0.4546839
216	0x3d197c45	0.03747203
217	0x3e2fff05	0.17187126
218	0x3ed4c3ff	0.41555783
219	0xbce54fd7	-0.027992172
220	0x3e1a59ca	0.15073314
221	0x3e3c0d0a	0.18364349
222	0x3e04bf11	0.12963511
223	0x3e80cb62	0.2515517
224	0x3e79c9e2	0.24393418
225	0xbe600017	-0.21875034
226	0x3e762d07	0.24040614
227	0xbe37f56d	-0.17964716
228	0x3e2d4c75	0.16923697
229	0xbea0999a	-0.3136719
230	0xbde774d1	-0.11301578
231	0xbe8186db	-0.252982
232	0xbe158c88	-0.1460439
233	0x3d5c1802	0.053733833
234	0xbde12b28	-0.109945595
235	0xbc89b3cf	-0.016809372
236	0x3da87303	0.08225062
237	0x3b9fa593	0.004872033
238	0xbcdc6283	-0.026902443
239	0x3ebda8ce	0.3704285
240	0x3e982a7a	0.29719907
241	0xbdde0e54	-0.108425766
242	0xbdf8d6dc	-0.12150356
243	0x3e46235e	0.19349429
244	0x3e8fca02	0.28083807
245	0x3d1ab666	0.037771605
246	0x3deca3fb	0.11554714
247	0xbcc5c550	-0.024141937
248	0x3e3f9d5f	0.18712376
249	0xbd0eb9bc	-0.0348451
250	0xbe2745b2	-0.1633518
251	0xbd250822	-0.04029096
252	0x3d2d65be	0.042333357
253	0x3e129f8f	0.1431868
254	0x3e66edf9	0.22551717
255	0xbded88de	-0.11598371

layer1.0.bias f4 [16]
0	0x3d3e4428	0.046451718
1	0xbd709aa1	-0.058741216
2	0x3de1dbee	0.110282764
3	0xbe15412b	-0.14575641
4	0xbeae5491	-0.34048894
5	0xbe7a8b9a	-0.24467316
6	0xbd94497d	-0.07240579
7	0xbdc0016a	-0.0937527
8	0xbe8fc7dc	-0.28082168
9	0xbe7f98c2	-0.24960616
10	0x3e4d0667	0.20021974
11	0x3e10bd2a	0.1413466
12	0xbd3e7ff0	-0.04650873
13	0xbc2afdd8	-0.010436498
14	0x3e12e661	0.14345695
15	0xbd183a18	-0.037164778

layer1.1.weight f4 [16]
0	0x3f848ea3	1.0356029
1	0x3f890c1f	1.0706824
2	0x3f76f0e3	0.96461314
3	0x3f712577	0.9419779
4	0x3f846a60	1.0344963
5	0x3f70a9f8	0.9400935
6	0x3f8d5f55	1.1044718
7	0x3f85c872	1.0451796
8	0x3f81d8b3	1.0144256
9	0x3f6f396e	0.93447006
10	0x3f809d5e	1.0048025
11	0x3f6f9797	0.9359068
12	0x3f7f3a4e	0.9969834
13	0x3f9302a5	1.1485182
14	0x3f85d0a0	1.0454292
15	0x3f784ef0	0.9699545

layer1.1.bias f4 [16]
0	0x3d7690ae	0.06019657
1	0x3d17f64e	0.03710013
2	0x3cc49f96	0.024001878
3	0xbd0f40cb	-0.0349739
4	0x3d61ea3f	0.055155035
5	0x3dc5bc65	0.09655074
6	0x3d7f871f	0.06238472
7	0xbd7c74c7	-0.061634805
8	0x3d806090	0.06268418
9	0x3d7d8788	0.06189683
10	0xbdac4710	-0.084119916
11	0xbccc6b61	-0.024953546
12	0xbc24aa09	-0.010050305
13	0x3de6380f	0.11241161
14	0x3dc6e9b5	0.09712545
15	0x3e4634bf	0.19356059

layer1.1.running_mean f4 [16]
0	0x3d3f888b	0.046761077
1	0xbd71948a	-0.05897955
2	0x3de2cf63	0.11074712
3	0xbe163a4e	-0.14670679
4	0xbeae49bd	-0.34040633
5	0xbe7b5c04	-0.2454682
6	0xbd93549b	-0.071938716
7	0xbdbe725a	-0.092991546
8	0xbe8fb637	-0.28068706
9	0xbe7f7d1b	-0.24950068
10	0x3e4d6069	0.20056309
11	0x3e120e16	0.14263186
12	0xbd42306d	-0.047409464
13	0xbc3953e1	-0.011311502
14	0x3e1390ba	0.14410678
15	0xbd15b5c4	-0.0365503

layer1.1.running_var f4 [16]
0	0x3b1b9dd7	0.0023745203
1	0x3b1cc7e3	0.0023922853
2	0x3ad23ea6	0.0016040399
3	0x3b0e01e5	0.002166861
4	0x3b222c93	0.0024745807
5	0x3b1a717e	0.0023566182
6	0x3b272c3d	0.0025508546
7	0x3b0e953e	0.0021756436
8	0x3b1f39d2	0.0024295938
9	0x3b3188d1	0.0027089606
10	0x3b3646bd	0.002781316
11	0x3b11d2b8	0.0022250842
12	0x3b122b01	0.0022303464
13	0x3b0122e0	0.0019704625
14	0x3b242a7c	0.0025049737
15	0x3b346a5b	0.0027529213

layer2.0.weight f4 [32, 16, 5, 5]
0	0x3d1fa044	0.0389712
1	0x3d22a452	0.03970749
2	0x3daa9ca4	0.08330658
3	0x3d4c8ae8	0.04993716
4	0xbe40191e	-0.18759581
5	0xbd8b91d1	-0.06814922
6	0x3de4f214	0.11178985
7	0x3e01a2df	0.12659787
8	0xbdb59859	-0.08866949
9	0x3d5ac939	0.053414557
10	0xbddcc796	-0.107802555
11	0xbe6e1969	-0.2325188
12	0xbe00ff6b	-0.12597434
13	0xbe1eb1b3	-0.15497474
14	0xbe18d314	-0.1492427
15	0x3d9f31f7	0.07773202
16	0x3e30aa72	0.1725252
17	0x3e162008	0.14660656
18	0xbcf66952	-0.030079518
19	0x3e7b049a	0.24513474
20	0x3dc21af0	0.09477794
21	0x3e0a6d69	0.13518299
22	0x3e892f6b	0.2679399
23	0xbdd8473c	-0.10560462
24	0x3d1804be	0.037113898
25	0x3d409a9c	0.047022447
26	0xbec3cd6a	-0.38242656
27	0xbd36f9a8	-0.044671685
28	0xbdb1d9e4	-0.086841375
29	0x3e972d6f	0.2952685
30	0xbe42bea2	-0.19018033
31	0xbd14083c	-0.036140665
32	0x3de5c661	0.112194784
33	0xbdfd30ba	-0.123628095
34	0x3db95eb2	0.09051265
35	0xbdb0839e	-0.08618854
36	0x3d1c9df9	0.038236592
37	0xbd6edd3b	-0.05831645
38	0xbde36a35	-0.11104242
39	0xbd62091a	-0.05518446
40	0x3d68754f	0.0567525
41	0xbcb7fd58	-0.02245967
42	0x3e8d5bf4	0.27609217
43	0x3a3a7ba0	0.00071137585
44	0x3d9d455a	0.076792434
45	0x3e41af66	0.18914565
46	0x3db37465	0.08762435
47	0xbd27c607	-0.040960338
48	0xbc063af7	-0.008192769
49	0x3f0ad04b	0.5422408
50	0x3d2987a7	0.041389134
51	0x3d7ed9ed	0.06221955
52	0x3d69e6ca	0.057104863
53	0x3ea8260d	0.3284153
54	0xbe39c618	-0.18141973
55	0x3d9bb37e	0.07602595
56	0xbe208c06	-0.15678415
57	0x3e216355	0.15760548
58	0xbe34a2ea	-0.17640272
59	0x3e165adf	0.14683102
60	0xbe14cbdc	-0.14530891
61	0xbc680a58	-0.014162622
62	0x3c951e3b	0.018202892
63	0xbde99bb3	-0.114066504
64	0x3dbd8b76	0.09255116
65	0xbe2995a6	-0.16560993
66	0xbd960ed8	-0.0732705
67	0x3d7f0e1e	0.062269323
68	0x3e2a1c2b	0.16612308
69	0xbda9e0ee	-0.08294855
70	0x3decad28	0.115564644
71	0xbd9d9127	-0.07693701
72	0xbccd81bb	-0.025086274
73	0xbd89b41d	-0.06723807
74	0xbe1cc53a	-0.15309611
75	0x3e20d7c2	0.15707305
76	0xbe1c5145	-0.15265377
77	0x3ce8ecda	0.028433252
78	0x3e4afc2b	0.19822757
79	0x3e0cf2fa	0.13764563
80	0xbca3de18	-0.020003363
81	0xbe51461f	-0.20436905
82	0x3df8ddc7	0.12151676
83	0x3d5b6f42	0.0535729
84	0xbdb07bb0	-0.086173415
85	0xbcd1c1df	-0.02560514
86	0x3e73d4d0	0.2381165
87	0xbdf24054	-0.11828676
88	0x3db6b3ef	0.08921038
89	0xbdaedc8a	-0.08538158
90	0xbe11c249	-0.1423427
91	0xbd89a9cd	-0.0672184
92	0xbe14c898	-0.14529645
93	0xbba22d38	-0.004949238
94	0x3cb9a8e4	0.022663541
95	0xbe4f2972	-0.20230654
96	0x3e905b2a	0.28194553
97	0x3cfb865b	0.030703714
98	0x3edb32b8	0.42812133
99	0x3e340401	0.17579652
100	0xbc88837b	-0.016664257
101	0x3e1d9b2a	0.15391222
102	0xbd851626	-0.06498365
103	0x3dd461d7	0.10370224
104	0xbd8317d3	-0.064010285
105	0xbcaf0a0b	-0.021367094
106	0x3cd9fa68	0.02660866
107	0xbe12b63e	-0.14327332
108	0x3d8c2c7c	0.06844422
109	0xbea56c76	-0.32309312
110	0x3c8fd36b	0.017556867
111	0x3e45c08c	0.19311732
112	0xbd801c3c	-0.06255385
113	0xbdbccd8e	-0.09218894
114	0x3dc96abb	0.0983481
115	0xbdfe9cbc	-0.124322385
116	0x3e3a228b	0.1817724
117	0xbe0b8f4b	-0.1362888
118	0xbdf495d1	-0.11942638
119	0x3ce91a9f	0.028455077
120	0xbd14adcd	-0.03629856
121	0xbe038e8d	-0.12847348
122	0x3e93dd31	0.28879693
123	0x3e9278c9	0.28607777
124	0x3e80be84	0.25145352
125	0x3d51b23e	0.051195376
126	0x3c146149	0.009056398
127	0x3db57f23	0.0886214
128	0x3e7f4d3c	0.24931806
129	0xbd120321	-0.035647515
130	0xbe4fd05a	-0.20294324
131	0x3dc6adbf	0.09701108
132	0xbb926b9a	-0.0044683935
133	0xbdf4a38d	-0.11945257
134	0x3dd74ef0	0.10513103
135	0xbe8c135f	-0.2735853
136	0x3d2c3996	0.042047106
137	0xbe535adb	-0.20640127
138	0x3a847b2c	0.0010107509
139	0xbe162c9a	-0.14665452
140	0x3d262693	0.04056413
141	0x3daeb717	0.08531015
142	0x3cf4a0f8	0.029861912
143	0xbcda8a60	-0.02667731
144	0x3cca6ca6	0.02471001
145	0x3ca5a122	0.020218436
146	0x3db991b6	0.09060995
147	0x3d2f5830	0.04280871
148	0xbd313c0b	-0.043270152
149	0xbe973d71	-0.29539064
150	0x3d9b4983	0.075823806
151	0xbe5aea91	-0.21378542
152	0x3d1e6d7d	0.038678635
153	0xbd893a57	-0.067005806
154	0xbdcaa369	-0.09894449
155	0xbacc8382	-0.0015603157
156	0x3e2045a6	0.15651569
157	0xbc6280f7	-0.013824693
158	0xbd92dcce	-0.071710214
159	0x3dcf2270	0.1011399
160	0x3dc52b88	0.096274436
161	0x3df1f9c4	0.11815217
162	0x3e14d6b5	0.14535029
163	0xbdf904d2	-0.121591225
164	0xbdd15c17	-0.10222643
165	0xbe09db09	-0.13462462
166	0xbd8aa52a	-0.06769784
167	0xbe62502c	-0.22100896
168	0x3c712d2d	0.014720243
169	0x3e656da1	0.22405101
170	0xbd1c49b7	-0.038156237
171	0x3ef245bf	0.47318837
172	0x3e75db4a	0.24009433
173	0x3e8d6aa3	0.2762042
174	0x3e950b88	0.2911036
175	0x3e0efae9	0.13962902
176	0x3c9e5125	0.019325802
177	0xbc134369	-0.00898824
178	0x3e76de8d	0.24108334
179	0xbe1bc110	-0.15210366
180	0xbd8e7445	-0.069557704
181	0xbd0a0932	-0.033700176
182	0xbb928dfb	-0.004472492
183	0x3da7199a	0.0815918
184	0xbde9f20d	-0.11423121
185	0x3df4cc04	0.119529754
186	0x3dfce9b8	0.12349266
187	0x3d9b7adb	0.07591792
188	0x3bd17c43	0.006392987
189	0x3dea2417	0.11432665
190	0xbeaab7f2	-0.33343464
191	0xbe5c6552	-0.21523026
192	0x3c86b4e0	0.01644367
193	0xbda0b160	-0.078463316
194	0x3ed48785	0.41509643
195	0xbd8f4547	-0.069956355
196	0x3e0723c5	0.13197239
197	0x3e912d87	0.28355047
198	0xbd27cb88	-0.040965587
199	0xbdbe9c34	-0.09307137
200	0xbc88bbe4	-0.016691156
201	0xbd88ca42	-0.066792026
202	0x3d9faa38	0.077961385
203	0xbb5fc1fc	-0.0034142723
204	0x3df6f685	0.120587386
205	0x3e02935a	0.12751523
206	0x3df6cce8	0.120508015
207	0x3dd4847d	0.10376833
208	0x3dc22b51	0.09480918
209	0xbe12443c	-0.14283842
210	0xbb6cbc33	-0.0036122918
211	0xbcc01af6	-0.023450356
212	0xbd8bff1b	-0.06835767
213	0xbd956136	-0.07293932
214	0x3ca1e877	0.019764168
215	0x3e7bb49e	0.24580619
216	0x3cd08d94	0.025458135
217	0xbe1080fd	-0.14111705
218	0xbd8db2ab	-0.06918844
219	0xbdb02d78	-0.086024225
220	0x3e49b35b	0.19697325
221	0xbe6f18cf	-0.23349307
222	0x3dc0d386	0.09415345
223	0x3e351bdd	0.1768641
224	0x3e642e04	0.22283179
225	0x3d8a4814	0.06752029
226	0xbe9907eb	-0.29888853
227	0xbd3fe58a	-0.046849765
228	0xbe6a22a4	-0.22864777
229	0xbeac4e9b	-0.3365372
230	0xbd27d0fa	-0.04097078
231	0xbd9f8bb6	-0.077903196
232	0x3bc119a3	0.0058929487
233	0x3c9107bc	0.017703883
234	0x3e4908a0	0.19632196
235	0xbda689a3	-0.08131721
236	0xbd6bef6b	-0.057601374
237	0x3db4b3b4	0.08823338
238	0xbe6101c4	-0.2197333
239	0x3ce0d658	0.027445957
240	0xbcebd650	-0.028788716
241	0x3bd13804	0.0063848514
242	0xbd35eb7f	-0.04441404
243	0x3e052a34	0.1300438
244	0x3e6ea0a2	0.23303464
245	0x3c239f3b	0.009986694
246	0x3dc68444	0.096931964
247	0xbcd8a967	-0.026447965
248	0x3f005179	0.5012432
249	0xbe493958	-0.19650781
250	0xbe34a655	-0.17641576
251	0x3dd70483	0.104989074
252	0x3bf51f99	0.0074805734
253	0x3cdf24d7	0.027239246
254	0x3d0bf73f	0.03417134
255	0xbc053219	-0.00812962

layer2.0.bias f4 [32]
0	0xb9829fdc	-0.00024914637
1	0x3cbd86d6	0.023135584
2	0x3d8d0431	0.06885565
3	0xbc0ff91e	-0.0087874215
4	0xbccbc2fa	-0.024873246
5	0x3cef0678	0.02917789
6	0x3c3482c7	0.011017508
7	0x3df2c2ec	0.11853585
8	0xbd873016	-0.066009685
9	0xbb0985b9	-0.0020984246
10	0xbceed96a	-0.029156405
11	0x3d84fcc2	0.06493522
12	0xbd4f75a7	-0.05064931
13	0xbc34988c	-0.011022698
14	0xbbb2fbc8	-0.0054621436
15	0x3cb58d13	0.022161996
16	0xbd3d5b8b	-0.04622988
17	0xbc51343a	-0.012768799
18	0x3d4708cc	0.048592374
19	0xbced5f38	-0.028976068
20	0xbd3c048a	-0.045902766
21	0xbd630564	-0.055425063
22	0x3d344b28	0.044016987
23	0x3d871919	0.06596584
24	0x3c5ed2ec	0.013600092
25	0xbcae6799	-0.021289634
26	0x3cece23f	0.028916476
27	0x3d0a1935	0.033715446
28	0x3d1e65bd	0.038671244
29	0x3c2cd249	0.010548183
30	0x3d47ec49	0.048809323
31	0x3db1dbfa	0.08684535

layer2.1.weight f4 [32]
0	0x3fc4abb3	1.5364898
1	0x3fca3b89	1.5799419
2	0x3fa3f8b2	1.2810271
3	0x3fd1f08f	1.6401538
4	0x3feac218	1.8340483
5	0x3f8e6a82	1.1126254
6	0x3fce2e1c	1.6107821
7	0x3fb26b9b	1.3939089
8	0x3fc80293	1.5625786
9	0x3fb7d5b5	1.4362093
10	0x3fc16bc4	1.5111012
11	0x3f9c9497	1.2232846
12	0x3fa963d4	1.323359
13	0x3fcbedc4	1.5931935
14	0x3fcb3f55	1.5878702
15	0x3fbbe7b3	1.4680084
16	0x3fec3a3e	1.8455274
17	0x3fe8a95a	1.8176682
18	0x3fcaabe4	1.5833707
19	0x3f9907c3	1.1955494
20	0x3f89996d	1.0749947
21	0x3fbd6ea2	1.4799387
22	0x3fd4195b	1.6570238
23	0x3fd074c1	1.628563
24	0x3fabd168	1.3423281
25	0x3f9aeeba	1.2104104
26	0x3faf9be0	1.3719444
27	0x3fea86f5	1.8322436
28	0x3fbfa5b6	1.4972446
29	0x3f8d3e3a	1.1034615
30	0x3fdb3f85	1.712876
31	0x3f9d752c	1.2301383

layer2.1.bias f4 [32]
0	0xbecd56de	-0.40105337
1	0xbeaa213f	-0.3322849
2	0xbe5e1d35	-0.21690829
3	0xbebae649	-0.3650382
4	0xbe7e66ce	-0.24843904
5	0xbe93430c	-0.2876209
6	0xbe0cc713	-0.13747816
7	0xbde7f04f	-0.11325132
8	0xbe77f36e	-0.24213955
9	0xbcd08d06	-0.02545787
10	0xbe0f2119	-0.1397747
11	0xbdfff244	-0.124973804
12	0xbe23bfcd	-0.15991135
13	0xbe982212	-0.29713494
14	0xbed67ba5	-0.41891208
15	0x3d869789	0.06571872
16	0xbedc24b0	-0.4299674
17	0xbe687b67	-0.22703324
18	0xbe7f0fa2	-0.24908307
19	0xbec00ca4	-0.37509644
20	0xbe000dfd	-0.12505336
21	0xbe7e8264	-0.24854428
22	0xbe45b7c9	-0.1930839
23	0xbf2aa455	-0.66657
24	0xbe68151c	-0.22664303
25	0xbe86f7bf	-0.2636089
26	0xbe96a496	-0.29422444
27	0xbecc4bbb	-0.39901528
28	0xbe081441	-0.13288976
29	0xbded2043	-0.11578419
30	0xbebaedfe	-0.365097
31	0xbe277151	-0.1635182

layer2.1.running_mean f4 [32]
0	0xbee35c8d	-0.44406548
1	0xbf094fd6	-0.53637445
2	0xbefddbc9	-0.49581745
3	0xbfb61b19	-1.422702
4	0xbeb17609	-0.34660366
5	0x3d928ce1	0.07155777
6	0xbd1bdbe6	-0.03805151
7	0xbf134248	-0.5752301
8	0xbee60b1a	-0.44930345
9	0xbee1efdc	-0.4412831
10	0xbedee2a4	-0.43532288
11	0xbebcb9bf	-0.36860463
12	0x3e036c6b	0.12834327
13	0xbe2f5a4c	-0.1712429
14	0xbf0bf828	-0.5467553
15	0xbefcc63c	-0.4936999
16	0xbed4f8b6	-0.41596
17	0x3c8cac41	0.01717198
18	0x3daee853	0.08540406
19	0xbec03299	-0.37538603
20	0xbdb23cd0	-0.08703005
21	0xbda04f71	-0.07827652
22	0x3e393c21	0.18089344
23	0x3b568acd	0.003273654
24	0xbca1395b	-0.01968067
25	0xbe95c568	-0.29252172
26	0xbe7c81b2	-0.2465885
27	0xbef7354b	-0.48282847
28	0xbe93c1a7	-0.28858683
29	0xbe52828c	-0.20557612
30	0x3e92dbe0	0.28683376
31	0xbf7669fb	-0.96255463

layer2.1.running_var f4 [32]
0	0x40909dc3	4.519258
1	0x405948a8	3.3950596
2	0x40651262	3.579247
3	0x40de9c91	6.956612
4	0x4011a00d	2.2753937
5	0x40403783	3.0033882
6	0x4047ade6	3.119989
7	0x40804213	4.0080657
8	0x4034a6ad	2.822673
9	0x4028b7b0	2.6362114
10	0x404c97ea	3.196772
11	0x40442559	3.0647795
12	0x405a093b	3.4068134
13	0x4075b478	3.83914
14	0x405d5cf1	3.4587977
15	0x401ba05d	2.4316628
16	0x40726d97	3.7879388
17	0x403d89b8	2.9615307
18	0x401f7a9e	2.491859
19	0x4055eccc	3.342578
20	0x404ed857	3.2319543
21	0x405cdeeb	3.4511058
22	0x4035357e	2.83139
23	0x4035157f	2.829437
24	0x4033c532	2.8089108
25	0x40508fc2	3.2587743
26	0x4017a01e	2.3691478
27	0x4033b87f	2.8081357
28	0x4045f46c	3.0930433
29	0x408f3bd5	4.4760537
30	0x400b4851	2.1762888
31	0x409b7e4a	4.859166

fc.weight f4 [2, 1568]
0	0x3d54203a	0.051788546
1	0xbe36455c	-0.17799896
2	0xbc38a8d5	-0.011270721
3	0xbdcb664f	-0.09931623
4	0x3e08f343	0.13374047
5	0xbca06ab3	-0.019582128
6	0x3eace67c	0.33769596
7	0x3d26d07d	0.040726174
8	0xbd57d041	-0.05268884
9	0xbebdf545	-0.37101188
10	0x3e2b9b0c	0.16758364
11	0xbce5fdcf	-0.028075127
12	0x3eb0506c	0.34436357
13	0x3e6d3c2a	0.23167482
14	0xbe97ae5e	-0.2962522
15	0x3e078ec5	0.13238056
16	0x3ceacadf	0.02866119
17	0xbe64e72d	-0.22353812
18	0x3d83823d	0.06421325
19	0xbbfc60c5	-0.0077019655
20	0xbc673391	-0.0141114155
21	0x3ca80247	0.020508898
22	0x3d5f3c00	0.05450058
23	0x3c8374b5	0.016046861
24	0xbcb0e90e	-0.021595504
25	0x3dcef3fb	0.10105129
26	0x3dc20ae4	0.094747335
27	0xbe1c9a07	-0.15293132
28	0xbe11fff3	-0.14257793
29	0x3d6ec1d8	0.058290333
30	0x3d1be413	0.038059305
31	0x3d03641e	0.0320779
32	0x3cba7201	0.02275944
33	0x3c999124	0.018745966
34	0xbd909e90	-0.070614934
35	0xbd2d606e	-0.04232829
36	0xbd8b7e43	-0.06811192
37	0x3d661f88	0.056182414
38	0xbd985073	-0.074372195
39	0x3c94469c	0.018100075
40	0x3cfc5b97	0.030805392
41	0xbcfe0c4b	-0.031011721
42	0x3dcc8b0b	0.09987458
43	0x3c462458	0.012093626
44	0x3d3cec11	0.046123568
45	0x3b52b1c7	0.003214942
46	0x3d80e183	0.06293013
47	0x3d057f38	0.03259203
48	0x3d97bc57	0.0740897
49	0xbcff7b87	-0.031186832
50	0xbd4fd11e	-0.05073654
51	0xba8cbd96	-0.0010737653
52	0x3e0327ed	0.12808199
53	0xbe6a73d4	-0.22895747
54	0x3ed6d923	0.41962537
55	0xbeb8d1aa	-0.3609746
56	0xbcfabfef	-0.0306091
57	0xbd1d7314	-0.038439825
58	0xbddd7dc9	-0.10815007
59	0x3d9fcb81	0.07802487
60	0x3ec942e5	0.3930885
61	0x3e5d916f	0.2163751
62	0x3b73a333	0.0037176132
63	0x3e5d714b	0.21625249
64	0xbecd6583	-0.4011651
65	0xbe9ad09b	-0.30237278
66	0x3df4dec7	0.11956554
67	0xbe8e57df	-0.27801415
68	0x3d197885	0.037468452
69	0x3dbb74cb	0.09153136
70	0x3e461c75	0.19346793
71	0xbd82bf2f	-0.063841216
72	0xbdb260b9	-0.08709855
73	0xbcf8a8e3	-0.030353969
74	0xbdb6b831	-0.089218505
75	0xbdd4c2af	-0.103886954
76	0x3d2230f0	0.03959745
77	0xbde010d0	-0.10940707
78	0x3dac5a67	0.084156804
79	0xbd781d45	-0.06057479
80	0x3d68fc98	0.056881517
81	0x3d472157	0.04861578
82	0x3cf43c99	0.029814051
83	0x3c95e43c	0.018297307
84	0xbd65dd47	-0.05611923
85	0x3ccb9fbf	0.024856446
86	0x3cf27199	0.029595183
87	0x3d854237	0.0650677
88	0x3cee6183	0.029099232
89	0xbc9adb54	-0.018903412
90	0xbca45e7c	-0.020064585
91	0x3c5c43bf	0.013443886
92	0x3d25f9e9	0.040521536
93	0x3d2e0da3	0.042493474
94	0x3d935594	0.07194057
95	0x3d1c18e6	0.038109683
96	0x3d5f23ad	0.054477382
97	0xbc4c3dd5	-0.012465914
98	0xbc15c488	-0.009141095
99	0x3d9f8e86	0.07790856
100	0x3d98103c	0.074249715
101	0x3e7c1ca4	0.246203
102	0xbe8093c6	-0.25112742
103	0xbf1d4879	-0.6143871
104	0x3d19825b	0.037477832
105	0x3b2aeb8c	0.0026080338
106	0xbe191ecf	-0.14953159
107	0xbd574490	-0.05255562
108	0x3e9e3bd6	0.30905026
109	0x3e0d4a40	0.13797855
110	0x3e690221	0.22754718
111	0x3d814508	0.06311995
112	0xbe3018dd	-0.17196985
113	0x3e86a4a4	0.26297486
114	0x3ca00e6d	0.019538129
115	0x3e9d8642	0.30766493
116	0xbb1e5fda	-0.0024166019
117	0x3d808541	0.06275416
118	0xbdd236f5	-0.102643885
119	0x3c620ba2	0.013796719
120	0x3cd955e6	0.026530217
121	0xbd74dfa4	-0.059783593
122	0x3c5d0a1a	0.013491178
123	0xbdb4d64f	-0.088299386
124	0xbd3bc4eb	-0.045842092
125	0xbbddce3c	-0.00676897
126	0x3bd4466e	0.0064781224
127	0x3c5469ba	0.01296466
128	0x3d3dffc4	0.046386495
129	0x3ce564fd	0.028002257
130	0xbd65e2c6	-0.05612447
131	0x3cafc38b	0.021455547
132	0xbac7b037	-0.0015235011
133	0xbc82b063	-0.015953248
134	0x3cb71e78	0.022353396
135	0x3d8cb07f	0.068696015
136	0x3d308715	0.043097574
137	0xbb820281	-0.0039675836
138	0x3cb6ab88	0.02229859
139	0x3ce98c8e	0.028509405
140	0xbcefb251	-0.029259833
141	0xbb936440	-0.0044980347
142	0x3cdecc00	0.027196884
143	0x3c5232f5	0.012829532
144	0xbc956373	-0.018235898
145	0xbd0f57b5	-0.034995753
146	0x3c8a5110	0.016884357
147	0xbc9866fb	-0.018603792
148	0x3c1a8c0a	0.009432802
149	0xbd854442	-0.0650716
150	0xbe98db6c	-0.29854906
151	0x3ec4e520	0.38456059
152	0x3e36cee6	0.17852363
153	0x3c59890a	0.013277302
154	0x3ed5050e	0.4160542
155	0x3e6e727c	0.2328586
156	0x3ccd6571	0.025072785
157	0xbf0b603e	-0.5444373
158	0x3d996d71	0.074915774
159	0xbf737183	-0.9509508
160	0xbd1ef5b7	-0.03880855
161	0x3d11028b	0.035402816
162	0x3ebdd660	0.37077618
163	0xbd80ef7e	-0.062956795
164	0xbda2929a	-0.07938118
165	0xbcad6120	-0.021164477
166	0x3e00af1f	0.12566803
167	0x3cdcc4f0	0.026949376
168	0xbcc2dcbe	-0.023786899
169	0xbca749cc	-0.020420931
170	0x3cea8894	0.028629579
171	0x3d85c3c7	0.06531482
172	0x3d3fd0ff	0.046830174
173	0x3c1fcad5	0.009752949
174	0xbce01f46	-0.027358662
175	0x3d540b68	0.05176869
176	0x3d1c4792	0.038154192
177	0x3d1cea8f	0.03830963
178	0x3c9cd51b	0.019144585
179	0x3d3e7d07	0.046505954
180	0x3d267ae5	0.040644545
181	0x3b07e0f6	0.0020733452
182	0x3c5bbefb	0.0134122325
183	0xbb5e987b	-0.0033965397
184	0x3cf92493	0.030412948
185	0xbcbfc7d5	-0.023410717
186	0xbd3a1ea4	-0.045439377
187	0x37aff096	2.0973657e-05
188	0xbbc501c3	-0.006012173
189	0x3ab2b1a7	0.0013633267
190	0xbb411d35	-0.0029466872
191	0x3d39c827	0.045356896
192	0x3cf7c3b0	0.030244678
193	0x3d74f516	0.059804045
194	0x3c7e6191	0.015526191
195	0x3cb5e92d	0.022205913
196	0x3be381a6	0.0069429455
197	0xbce3cefb	-0.027808657
198	0xbd4a7631	-0.049429122
199	0x3e76e87e	0.24112126
200	0xbe953d29	-0.29148224
201	0x3e18cb1a	0.14921227
202	0xbdb9a24c	-0.09064159
203	0x39ed1b1e	0.00045224366
204	0x3e31e902	0.17374042
205	0xbe5ac504	-0.21364218
206	0xbea57281	-0.32313922
207	0x3e9822a4	0.2971393
208	0x3dafc909	0.08583266
209	0x3cac982f	0.02106866
210	0xbdc2084e	-0.0947424
211	0xbe3a6c4e	-0.18205377
212	0x3d52d1d7	0.05146965
213	0x3d121cd1	0.035672013
214	0xbe6898d7	-0.22714554
215	0xbe2e5c17	-0.17027317
216	0x3e5b6683	0.21425824
217	0xbd94cc7a	-0.07265563
218	0x3e7f1e0b	0.24913804
219	0x3dabb399	0.08383865
220	0x3cfd1f59	0.030898737
221	0xbc1e1a38	-0.009649806
222	0xbdf860c6	-0.12127833
223	0x3d57987e	0.052635662
224	0xbe016497	-0.12636028
225	0xbd443a32	-0.047907062
226	0xbcb9d55a	-0.022684742
227	0x3dedee08	0.116176665
228	0x3e2d94e7	0.16951333
229	0xbe891171	-0.2677112
230	0x3da68914	0.08131614
231	0xbc185b1f	-0.009299069
232	0xbdc0168c	-0.093793005
233	0x3b16c58c	0.002300593
234	0x3e331a37	0.17490469
235	0x3bb911cc	0.0056478735
236	0x3dd4a7ba	0.10383554
237	0xbe049464	-0.12947232
238	0xbd7cae97	-0.06168994
239	0xbbe02b78	-0.0068411194
240	0x3cd1666c	0.025561534
241	0x3d2b2fca	0.041793622
242	0x3af89fdb	0.0018968539
243	0xbcd365b1	-0.025805326
244	0xbd15e988	-0.036599666
245	0x3d1b6e3a	0.037946917
246	0x3d62df51	0.055388752
247	0xbd2ed52e	-0.042683773
248	0x3d9681a3	0.07348945
249	0xbeaa658e	-0.33280605
250	0xbe041f2e	-0.12902519
251	0x3eb08709	0.34478024
252	0x3cb5c592	0.022188935
253	0xbd02a1f6	-0.03189274
254	0x3dc96310	0.09833348
255	0xbe73f1ac	-0.23822659

fc.bias f4 [2]
0	0x3dc54db6	0.09633963
1	0xbd8559a6	-0.0651124
