cnn-tf/saved_model.tflite (tflite, 286740 bytes, 8 tensors)

std.constant1 f4 [16]
00000000: 0504 16bd 9de2 53bc 4675 0a3b 6bb1 70bb
00000010: cb19 4abe 8e94 abbd baec b43b f5a3 fd3b
00000020: b93b 82bc 31ac 523d be98 8dba 6777 a53d
00000030: 73ba 2ebd 1d79 e1bb b339 be3b 7c80 35bc
-0.036624927 -0.012932447 0.002112703 -0.0036726843 -0.19736402 -0.08377944 0.005521384 0.0077404925
-0.015897619 0.051433746 -0.0010802967 0.08079415 -0.04265828 -0.006880893 0.005805218 -0.011077996

std.constant2 f4 [32]
00000000: af24 debc 47be 523d bfc7 c83c aaed 36bd
00000010: ab93 573d 184c 8a3d 3154 abbd 14b8 4ebd
00000020: ebc7 a73b 0d66 19bd 0cce 913d 425b 3ebc
00000030: e96a 3cbd efaf 4e3c bf8a 563d c5d6 21bd
00000040: 7000 7abd 70dc ecbb 7f0c 8b3b 32ac 813d
00000050: c645 f93b 16eb 193d 41fc aa3c c33c 7ebc
00000060: bbf3 503d f958 433d c47e 843d 3372 733d
00000070: 7e8d a5bc 87d5 ba3c c577 143d 5993 ab3c
-0.027117101 0.051450994 0.024509309 -0.044660248 0.05263106 0.06752795 -0.083656676 -0.05046852
0.0051202676 -0.03745084 0.071193784 -0.011618437 -0.046000395 0.012615188 0.052378412 -0.03951146
-0.061035573 -0.0072284266 0.004243433 0.06331672 0.0076071946 0.03757771 0.020872237 -0.015517416
0.05101369 0.047692273 0.06469491 0.05943508 -0.02020907 0.022806896 0.036247034 0.020944284

std.constant3 f4 [64]
00000000: 6165 2fbd 069f bcbc 859e b93c c246 1bbd
00000010: 5ea7 723d a093 86bc b085 913d 565f 253c
00000020: a228 623c 93e5 a53d 531a d6bc a00c 0dbd
00000030: 3cff 833d 794b 0f3c 3d9b 3fbd dce1 4fbc
00000040: 8938 cb3b 2af1 9a3d 42f6 273d fb6f 053d
00000050: 0a5b 2e3d ef5f 11bd ec78 5d3b 395e 0abd
00000060: 52d4 af3b 52dc 0e3c 14ba 8d3d 0a73 b73c
00000070: 2576 4bbd eb7c 3d3d 3e8a 573d e50b 9a3c
00000080: 7152 ccbb 0ca1 723d c2de ff3c 24b9 ed3c
00000090: bb2c 37bd 9660 853d b058 603b 5875 3a3d
000000a0: 6922 1c3d 3f09 4cbc 0de0 a53c a35c 98bc
000000b0: 9ade 273d a6e7 b83c ddd2 973d db2b 813c
000000c0: d975 463d 41a3 423d e01e 57bc 209c 353d
000000d0: c67d ed3c f39b 40bd 9808 e73c 3977 b9bc
000000e0: 9ead 9fbd 9afd 08bd acc9 8f3c 0dfb 783d
000000f0: cf4d 113d e362 ee3c 827a e6bc c698 323d
-0.04282129 -0.023025047 0.022658596 -0.037909277 0.059241645 -0.016427815 0.07105577 0.010093531
0.013803633 0.081004284 -0.0261356 -0.03443587 0.064451665 0.008746021 -0.046778906 -0.012688126
0.006201808 0.0756553 0.041006334 0.032577496 0.04256729 -0.03549188 0.0033794 -0.033781264
0.0053658867 0.008719521 0.06920257 0.022393722 -0.04967322 0.04626171 0.052622072 0.0188045
-0.0062354137 0.059235618 0.031234149 0.029018946 -0.044720393 0.06512563 0.003423255 0.045522064
0.038118754 -0.012453376 0.020248437 -0.01859886 0.040983774 0.022571396 0.07413266 0.015767982
0.048452232 0.047518972 -0.01312992 0.044338346 0.028990638 -0.047023725 0.02820234 -0.022639858
-0.07796787 -0.03344498 0.01755222 0.060786296 0.035474595 0.029099887 -0.028134588 0.043602727

std.constant4 f4 [2]
00000000: c3af d03c b228 33bd
0.025474435 -0.043739982

std.constant8 f4 [2, 3136]
00000000: 86e3 853c 7572 9b3b 2323 f4ba 92d4 bc3c
00000010: 252f 813c 1cda 1dbc fb92 5ebb 5844 6abc
00000020: 81bc 6cbb e1fe c8bb 6956 c33b de87 313c
00000030: 5161 61bc 213b d23b 1cff 823c 950e 313c
00000040: 163c 493c 66e2 9e3c f066 f8bb 818a 343b
00000050: ea19 973b 265b 343c 5d69 7dbc 897a 9b3c
00000060: eed9 28bc 6e84 df3a 5e85 273c 559c 263c
00000070: 3c03 dbbb dcbe 933a db05 b63c 21ae 133c
00000080: c4d6 3b3b eefd 9bbb 03c5 393c 0a45 3a3b
00000090: 5c77 a1bb 70ec 1e3c 4ee7 e1bb ca6c b8bb
000000a0: 007e 93bb 6edc 753c 23e0 8b3c 41b3 4ebc
000000b0: 97b9 9c3b a5b6 2f3c 137e abbb c1db 343b
000000c0: a6c3 8fbc 2b05 a53c 979c d93b 7fff dcbb
000000d0: 74c5 8b3b 70d8 bfbb a5d7 c93a ece4 873c
000000e0: 86c3 3b3c 9175 5c3c 091b e9bb eb8e 053c
000000f0: 8c91 29bc 81b0 e3bb e148 7ebc 2745 02bb
00000100: d731 5e3c 4271 c839 ef76 e83b a564 bb3c
00000110: dcf1 cfba f0ab 003b 559e 9a3b 1f73 31bc
00000120: 771c 38ba 2b00 433c 4714 953b 333d 82bb
00000130: 6182 093c 37d0 bb3b dc8b 86bc 9542 9dbb
00000140: 934b 4a3c 5604 8abb 4a48 c3bb 2e06 87bc
00000150: 670c 063c 13dd 97bb 8a59 90bb 8e84 4abc
00000160: 4e82 fb3b 2e90 50bb 3783 b53b 7541 00bc
00000170: 611e eb3b 9cc9 883c 3756 113b b8d1 ea3b
00000180: b7c5 86b9 13f0 113b 08e9 48be 3713 1dbe
00000190: 75ce 393d 71fc 603e c64c ad3d bcb5 4c3d
000001a0: 5994 c83c 3dde 0b3c 8b4c c5bd 4b8d 423c
000001b0: bc43 a23d f0b1 6bbe e5fb 16be e4ba edbd
000001c0: 1fad 6c3d 5f92 e63d 2ac0 6f3c 2866 0ebe
000001d0: cecf 1f3e f890 973d ffc0 393d f4ff 8d3d
000001e0: 6ddd dd3d 418d 4c3d 7784 6dbc 17da df3c
000001f0: d005 6e39 be6e 49bc 6e33 adbd 904e abbd
00000200: 7793 f9bc fc01 57bd f1eb fd3c b439 283d
00000210: 5afb 3b3d f749 3e3b 226d dfbc 8d1d 3c3d
00000220: 6f0c b63c 8735 b03c 7cbd 8f3d 9608 523d
00000230: 9d6f 51bd a648 87bb fb68 53bb 1372 bf3a
00000240: 97ad 0f3c b27e bc3c c6eb 9e3b 9f6e 91bc
00000250: 8ec7 efbb 3838 fd3b 8c4f 88bc 8551 bf3b
00000260: 61c3 dcbb 2515 83bc da9b 573c 014b d13b
00000270: 7acd 24bc c53b 613c de2e 8a3c e7d7 293c
00000280: 3c13 86bb 307b 203c 61bb c6bb b7a5 0fbb
00000290: d369 8f3b 6e99 2a3c 9cdd 053b 61ab 753c
000002a0: 9373 433c 93de 2cbb f79f 06bb ae44 dabb
000002b0: 388e 7abb ccb7 10bc 5a58 913c ec86 423c
000002c0: 0cfe 5b3c 3db8 903c 0079 803c 8c7d 2e3c
000002d0: c345 7c3c 455b 08bc 770c 37bb 6eeb cc39
000002e0: 2567 5abc ee03 30bc 2527 0a3a 2e21 57bc
000002f0: 975e 59bc 1a96 4e3c 6a23 7c3c b3c6 803b
00000300: 4756 113c 9f46 83bc 653c 06bb 01f1 3bba
00000310: 313e 8d3c 4749 553d 33d8 d9bd 6dcb 81be
00000320: b80e dd3d a534 033c 5ea0 b8bc a1d0 b3bd
00000330: 0c6d 4f3c 12c4 fc3d 7bb0 a03d c883 b1bc
00000340: 6511 823b df01 453c 8187 e4bd def1 44bd
00000350: 2f46 8fbb 25ee 27bc 0f19 493c ab29 a13c
00000360: 2c50 80bc d54a d1bd 6ec7 42bd 7796 723d
00000370: ba38 463d ec2f 1fbb cad1 1cbc c739 dcbc
00000380: e92e 493d a193 623c 8aca ddbc 5982 3dbc
00000390: 4788 43bb 5ce7 bebc 5a60 80bc 7f37 1f3d
000003a0: 52ef 873c bd6b efba 8a1c 17bc 0e3b f2bb
000003b0: 3319 233c 9ebe 283b a365 3e3d c791 263d
000003c0: 51c3 8f3c b1b7 5e3c 6cc3 9e3c 6125 9b3c
000003d0: 475c a638 72ce 54bd 8b52 57bc 80d4 50bd
000003e0: d2fa b7bc 1a81 4a3d df94 13bd 6142 e7bc
000003f0: 4440 9abd b42d 74bd 1dd1 7abc d422 ee3c
0.016343843 0.004743869 -0.0018626194 0.02305058 0.01576955 -0.009634521 -0.003396212 -0.014298521
-0.00361231 -0.0061338996 0.0059612286 0.010835616 -0.013756112 0.00641574 0.015990786 0.010806699
0.012282392 0.019395065 -0.0075806305 0.0027548375 0.0046112435 0.01100806 -0.015467015 0.018979328
-0.010305865 0.0017053017 0.010224668 0.010169108 -0.006683735 0.001127209 0.022219589 0.009013684
0.0028661946 -0.0047604954 0.011338475 0.0028422498 -0.004927559 0.009699926 -0.0068940287 -0.005628203
-0.0045011044 0.015006168 0.01707465 -0.01261598 0.004782866 0.010724698 -0.005233535 0.0027596804
-0.017549347 0.020144066 0.0066409814 -0.0067443247 0.0042654816 -0.005854659 0.001539935 0.01658865
0.011460191 0.013455764 -0.0071138185 0.00815175 -0.0103496425 -0.006948531 -0.015520305 -0.0019877644
0.013561687 0.00038231356 0.007094256 0.02287514 -0.0015864926 0.0019633733 0.0047185817 -0.01083067
-0.00070232846 0.0119018955 0.0045495364 -0.0039745807 0.008392901 0.0057316083 -0.016424112 -0.004799197
0.01234712 -0.0042119427 -0.0059595453 -0.016482439 0.008181668 -0.0046345084 -0.004405205 -0.012360705
0.0076754456 -0.003182422 0.0055393237 -0.007828106 0.0071752523 0.016697697 0.0022176632 0.0071661137
-0.0002570578 0.002226834 -0.19620144 -0.15339361 0.04536291 0.21971299 0.08461909 0.049978003
0.0244848 0.008536872 -0.0963374 0.011874507 0.079230756 -0.23017097 -0.14744528 -0.11607912
0.05778229 0.11258387 0.014633218 -0.13906157 0.15606615 0.074006975 0.04535007 0.06933585
0.10833249 0.049939398 -0.014496914 0.027325673 0.00022699614 -0.012294469 -0.08457075 -0.08364594
-0.030465825 -0.052492127 0.030996295 0.041070655 0.045894004 0.0029035786 -0.027273718 0.04592662
0.022222726 0.021509899 0.07018563 0.05127772 -0.051131833 -0.0041285334 -0.0032258618 0.001460614
0.008769414 0.023009632 0.0048498837 -0.017752944 -0.00731749 0.007727649 -0.016639493 0.0058385753
-0.006737158 -0.016001293 0.0131597165 0.006387115 -0.010058755 0.01374716 0.016868051 0.010366417
-0.0040916484 0.009794995 -0.006064818 -0.0021918842 0.004376629 0.010412557 0.002042628 0.014994473
0.0119294105 -0.0026377782 -0.0020542124 -0.0066610193 -0.0038231742 -0.008832883 0.017742325 0.011872988
0.013427269 0.017665977 0.015682697 0.01065005 0.015397492 -0.008322542 -0.0027931014 0.0003908532
-0.013330256 -0.010743124 0.0005270115 -0.013130469 -0.013267181 0.012609029 0.015389303 0.003929937
0.008870668 -0.016024886 -0.0020482775 -0.0007169396 0.01724157 0.052071836 -0.1063694 -0.25350514
0.10793823 0.008008157 -0.022537407 -0.08780027 0.012660276 0.12342085 0.07846161 -0.021669284
0.0039693587 0.012024372 -0.11158658 -0.048082225 -0.00437238 -0.010249649 0.012274041 0.01967319
-0.015663229 -0.10219351 -0.047553472 0.059225526 0.048393942 -0.0024290038 -0.009571502 -0.02688302
0.049117003 0.013829143 -0.027074117 -0.011566722 -0.0029835866 -0.02330368 -0.015670944 0.038871285
0.016593609 -0.0018266361 -0.009223113 -0.007392294 0.009954738 0.0025748382 0.046483647 0.040666368
0.017549189 0.0135936 0.019380294 0.018938722 7.932685e-05 -0.051954694 -0.013142238 -0.050983906
-0.022458468 0.049439527 -0.036030646 -0.028229894 -0.07531789 -0.0596139 -0.015308646 0.029069342

std.constant9 f4 [16, 5, 5, 1]
00000000: ffe2 333e e166 9dbd 4923 9b3e 2318 6b3d
00000010: 7046 103e cbe9 1d3e 0252 433e 4c3e 603e
00000020: cac4 3abe 3cae e43d c4e3 f83d 79f8 90be
00000030: 4371 2fbe 084b f3bc 6f3e 3cbe 843a 1ebf
00000040: e4b8 f4be 17b2 933d 61af 133e b8f0 753e
00000050: 141d 38be 0f1b 83be 2a26 853e 9a5a 153e
00000060: a8cd 00be 5651 763e b8ca 69be f14a d53c
00000070: 1250 c1be ae91 653d 6bcb 49be 97af a63e
00000080: f307 403e b756 3e3e cd12 c23b c85b be3b
00000090: 53c5 803d 0610 40be 4fe5 133d e03b 9abe
000000a0: aa0e c7be 3ec3 c1bd 570d 893e 1f61 45be
000000b0: 5867 b33d 84a3 38be e165 86bd bea7 70be
000000c0: b280 f4be 48a6 44be 2cf7 5d3e 5c8b 593e
000000d0: 8e3b 0f3e 6bb8 603e d31a 133e 88c9 d6bd
000000e0: f0db 87be 1db0 a2be c8b5 81be 5d2a 19be
000000f0: 7ee4 273e c592 20be 7551 c2be c2e3 44bd
00000100: 7491 a7bd 1221 aabe 4f75 0b3f 5995 9abe
00000110: ba95 b6be fb38 4a3e c3df 3fbe 7ae6 a3be
00000120: e106 ea3d bdb1 d2be 93d2 973d ccf9 23bd
00000130: 4de9 a3bd 68a7 09bd 587e a93e 0687 99be
00000140: 02cd 3c3e 16af 5b3d ece9 4dbe ac03 9a3d
00000150: 4166 e1be 33c5 5bbe 5389 c73e d9d0 ddbd
00000160: cb4d 583e 1850 d5bd ec7f f83d bb1e 15be
00000170: 28e8 923e 2985 49be 1911 9c3e 5704 673e
00000180: 4ed3 c6be 49c5 ee3d 4c05 263e f950 433e
00000190: 1879 423c 21ed 823e f608 07be b063 853e
000001a0: 2353 0b3d 50f4 74bd 9696 d6bc b055 a93e
000001b0: 30ce 263e 0426 423d 0f00 403e bfe9 0c3e
000001c0: a966 6b3e 3c0b 613e e718 a5be 4b51 453e
000001d0: e1cd 7e3d 9156 2a3e 8752 773e f18c 9bbd
000001e0: 1520 923e db6c eabc a17e fcbd e79f 67be
000001f0: 3205 b53c df0d 4c3e 8931 c93d d88c 9bbe
00000200: 2af6 11be a4fb a63e e2f2 033d 1481 5cbd
00000210: 5324 5ebe a66a adbe 465c 623d 35f8 173e
00000220: 56be 883e 6f8c d43d 1dfc e13d d01f d1bd
00000230: 38b2 e5bb d4ca f5bd dc92 ac3e 3b62 74bd
00000240: 38be b03e a641 cc3d e2dd c7be 1687 fb3d
00000250: 36c3 463e 2d14 b63e acbe 573e 0199 163e
00000260: 6cc1 a63d c3f3 ea3d a447 8fbe c784 2d3d
00000270: 6e70 6ebc cefa f23c e8ae be3d 7afd b0bd
00000280: 49c8 a4bd b8f2 6bbe 4dee bfbd 877a a93e
00000290: cfc2 403e 944f ac3d b08d 523d 7c01 803d
000002a0: c11a 9b3d 12f3 6d3e c1a3 f7ba 1cac 63bc
000002b0: 316e d63d cbba 253e 4733 b13e 0867 6d3e
000002c0: 4d4a b63d d6a6 083d d02e 60be 48a0 4ebe
000002d0: c0fb 54bd 02e8 3cbc 6fae f8bd 3ddd 99bd
000002e0: e6e9 e0be 5ab3 4eb9 5fef 473e ab31 c33d
000002f0: 4afd cf3d 1a23 42be 023e 9bbe 3a93 01be
00000300: 949d 85bd 19a5 903e d31d 3a3e e253 8abe
00000310: 4fee a53d e309 90bd c970 78bd 6eb7 ab3e
00000320: 0052 a7be 2dad f1be 1456 263d 3054 733d
00000330: 32f5 15be 7fe4 0abe 4299 f43d 4305 3b3e
00000340: 3ead 093d 15a1 8abe 8dba 48be 5597 453e
00000350: f522 76be 7c6b 863d dd31 693e 19ca 613e
00000360: 1afc a5bd 9027 a3be 8e52 c13e 21e1 2dbe
00000370: 82d3 cbbd c02d 87bd bb3d 363c 2b39 553e
00000380: 365f 3a3d 1751 51be 67dc 603e 609b 043d
00000390: 5a45 d63d 9409 9bbe 1227 97be 3f4b 5bbe
000003a0: 99dd 0bbe 79ae 243e 9b77 cd3d eecd 12be
000003b0: 5f42 29be 0372 05be 85ab d4be 19a9 02be
000003c0: 5f56 553e 53a0 ea3d 7d67 953e 6b3e f63d
000003d0: e127 2abd 2aaf b43d f89a cbbd 67cf 0b3e
000003e0: 6204 413e 7622 4d3d bed3 14be d088 a1bc
000003f0: 08b0 74be a821 81be 0f97 1ebe da4b ba3d
0.17567061 -0.07685638 0.30300358 0.057396065 0.1408937 0.15421216 0.19074252 0.21898764
-0.18239132 0.11166045 0.12152818 -0.2831457 -0.1713305 -0.029698864 -0.18383192 -0.6180804
-0.4779731 0.07211702 0.1442237 0.24017608 -0.17979842 -0.25606582 0.2600568 0.14585343
-0.12578452 0.24054465 -0.22831237 0.026036711 -0.377564 0.056047134 -0.19706504 0.3255584
0.18753032 0.18587767 0.0059226514 0.005809281 0.062876366 -0.18756112 0.036107358 -0.30123806
-0.38878375 -0.094610676 0.2676799 -0.1927533 0.08759946 -0.18031126 -0.065624006 -0.23501489
-0.47754437 -0.19204056 0.2167632 0.21244568 0.13987562 0.2194535 0.14365701 -0.10487658
-0.26534986 -0.3177499 -0.25334 -0.14957567 0.16395757 -0.15680988 -0.37952772 -0.04806877
-0.0818204 -0.33228356 0.54475874 -0.30192068 -0.35661107 0.19748299 -0.18737702 -0.32011777
0.11427093 -0.4115123 0.07413211 -0.040033147 -0.08003483 -0.033606917 0.33104205 -0.29985827
0.1843758 0.05363377 -0.20108765 0.075202316 -0.44023326 -0.21461944 0.38971958 -0.1083085
0.21123426 -0.10415667 0.12133774 -0.14562504 0.28692746 -0.19679703 0.30481794 0.2256025
-0.38833088 0.11658723 0.16212958 0.19073857 0.011869691 0.2557154 -0.13187012 0.26052618
0.034014832 -0.059803307 -0.026194852 0.33073187 0.16289592 0.047399536 0.18750022 0.13761042
0.2298838 0.21976942 -0.3224556 0.19269292 0.06220806 0.16634585 0.24152575 -0.07595242
0.28540102 -0.02861636 -0.1232884 -0.22619592 0.022097204 0.19927166 0.09823901 -0.30380893
-0.1425406 0.32613862 0.032214053 -0.053834036 -0.21693544 -0.3387043 0.05526378 0.14840777
0.26707715 0.10378348 0.11034415 -0.10211146 -0.0070097707 -0.12001577 0.33705795 -0.059663992
0.34520125 0.09973459 -0.3903647 0.12281625 0.19410405 0.35562268 0.2106883 0.14706804
0.08142361 0.11472275 -0.27984345 0.042362954 -0.0145531725 0.029660609 0.093107045 -0.08642097
-0.08046014 -0.23041809 -0.09371624 0.33101293 0.18824314 0.08413616 0.051404655 0.06250283
0.07573462 0.23237255 -0.0018893407 -0.013896015 0.10470236 0.16184537 0.34609434 0.23183835
0.089008905 0.033362232 -0.21892858 -0.2017833 -0.0519979 -0.011529924 -0.121426456 -0.07512901
-0.4392845 -0.00019712505 0.19524907 0.09530958 0.10155733 -0.18958703 -0.30320746 -0.12653819
-0.06524196 0.2825096 0.1817544 -0.27017123 0.081020944 -0.07033136 -0.060654435 0.33538383
-0.3267975 -0.47202435 0.040609434 0.05940646 -0.14644316 -0.13563727 0.11943294 0.18263726
0.033612482 -0.2707602 -0.19602413 0.1929601 -0.24036773 0.0656347 0.22772928 0.2204975
-0.08104725 -0.3186612 0.37758297 -0.16980411 -0.09952451 -0.06600523 0.011123116 0.20822589
0.045500956 -0.2044109 0.21959077 0.03237474 0.104624465 -0.30280745 -0.29521996 -0.21415423
-0.13658752 0.16082181 0.100325786 -0.14336368 -0.16529225 -0.13031773 -0.4153711 -0.12759818
0.20833729 0.11456361 0.29180518 0.12023624 -0.041541938 0.088224724 -0.09941667 0.13653336
0.18849328 0.050081693 -0.14533898 -0.019718558 -0.23895276 -0.2522099 -0.15487312 0.09096499

std.constant10 f4 [32, 5, 5, 16]
00000000: e09b 4abd 15d6 76bd 30da 56bd 7be5 813b
00000010: caa9 e63c 022e a0bc 218b 893c 1c88 0ebd
00000020: b4fe c3bb 4752 a03c 25f8 94bb dbdd 043d
00000030: 144e 883a 0bff 78bc c587 e83c 998b 75bc
00000040: 8a8f dbbb ffbe 1bbd 75ae 2cbd 4985 50bd
00000050: 1d78 0cbd 7e09 08bd 86ea 52bd 551f 6c3b
00000060: 335d 55bd edf5 033d 00c4 c23c 701a 1c3d
00000070: 09b2 1b3d c528 04bd e7a7 2dbd ea09 afbc
00000080: 0f4f 143c 2978 d5bc 4856 dfbb eba5 183c
00000090: 6834 14bd 5310 333c 40b5 603c 0629 05bc
000000a0: e929 40bd 0e08 e53b 18d5 eb3c 68ae c7bc
000000b0: fb24 66bb e1ee 21bd 3ac4 19bd 6375 84bc
000000c0: 74d9 18ba 23ac b43b 5cb3 c93c 8fae 1fbd
000000d0: 9da0 58bc 40f9 053c 5947 973c 4129 063d
000000e0: 480b 1e3d 3e97 88bb af18 173b c8b2 4dbb
000000f0: 2120 1bbd 7c19 29bd c2d6 15bd 1fbc 69bd
00000100: 2d8c d5bc 2c4b 7dbd b639 c43c c8fe 99bc
00000110: 4271 c33c 3d12 5cbd 1832 79bc 86aa bcbc
00000120: 6989 8cbd ba53 6bbd 1eb8 dd3c 6e52 c73c
00000130: 145d 043c 04c9 d2bb 215f 10bd ec5e a0bb
00000140: 77d2 9e3c 7cdb 56bd 220d debc a4da 5ebd
00000150: 2ca2 843c 7827 e13c b2aa 7a3c 103c 26bc
00000160: 2327 44bd 52d3 49bd 993a c23c e12c e43c
00000170: 547d 82bb a386 1b3c 48bb 223d 8f82 56bd
00000180: 2ea1 55bd ad3a 933c eb87 f73b c1b9 3dbd
00000190: acdf f33a 3df6 07bc d591 40bd 95d6 31bd
000001a0: e08e 1b3c 3f7b abba 77ab d53c cb0a 97bc
000001b0: 44d9 21bd e08a 49bc 3e9c e13c d6e7 a83b
000001c0: 10da 023d 9804 b33c d7a6 0d3d 532b a1bc
000001d0: 8cf4 fabb d239 bbbc 2fc5 0a3d a48f 01bd
000001e0: 64c1 e53b f8d7 4bbd 0227 5d3c 43d0 87bc
000001f0: bc45 1bbd ba81 27bd 354f 3abd 7cba 62bd
00000200: 1ff9 263c d66d 0339 07d2 b5ba e236 59bd
00000210: 1857 72bc baf4 3f3d 1054 8c3b 2587 dabc
00000220: c3b0 c93c 4ee1 81bc 3636 c1bc a44b 1dbd
00000230: 91f8 efbc ed9f 223d 3c52 c8bc 695e 093d
00000240: 8054 163b ca04 6bbd 5a06 4dba 1ef4 62bc
00000250: 7656 4abd a63d a3bc 4b02 0cbd da66 9fbc
00000260: 10e6 653b 8a74 bebc f1ca 223d b7a6 3dbd
00000270: 0e72 3d3c e2eb f6bc 9761 59bc 9c8f d5bb
00000280: 737f f3bc 5fe0 03bc 7e78 74bd af03 50bd
00000290: 0f68 cd3b ca76 49bc 93e2 20bd 5d16 a8bc
000002a0: 0bab 033d 755c c63c 5f69 893c 2839 c73c
000002b0: e744 a9bc ec91 21bd 330b 17bd 2a9f 54bd
000002c0: 0525 5c3c 865c 53bc c3c4 c8bc abc0 d2bc
000002d0: ac45 34bd 67cf 9d3c 582e 48bd c432 043d
000002e0: 89cc 82bb 76b2 3ebd a88e 53bd 903d 38bd
000002f0: c658 0cbd c3d1 68bd 8741 4ebc 5199 04bc
00000300: c975 e2bc 47f5 023d 4e40 afbc d7a8 8f3b
00000310: ff89 24bd c439 64bd 392d 74bc 6fcc 4d3b
00000320: b9aa 0ebd 62bf 35bd 5ffc 013d 7200 5f3a
00000330: 5430 793b 1261 423b 6666 2fbd 3fe9 cbbc
00000340: 6811 dcba 4851 97bc 84f4 eabc 3024 853c
00000350: a871 1ebd 7610 49bd 3842 003d 3e8d 4cbd
00000360: f0ac 78bd 1b6c 82bb 10e9 95bb d3d3 e93c
00000370: fb24 a33b 8752 073d 2231 44bb e617 1ebd
00000380: 3861 9039 ac2a a4bb ebec 34bd cd2e 223c
00000390: 8016 2ebd 4857 d6bb 7f1f 61bb 9fba f8bc
000003a0: c9f4 133d 85ca d73c e110 043d f104 eabc
000003b0: 0fbf 0e3d 1880 f0bc b237 fdbb d7ed 5cbc
000003c0: 222e 1f3d 7116 1c3d 9cde 2e3b 2c70 aa3c
000003d0: a8be 62bd 46d2 d5bc 3602 8b3c d65a c8bc
000003e0: 3c87 6ebd 8dd4 fd3c 7f09 97bc 2f0e a5bc
000003f0: 5a43 0bbb f796 4ebc c803 b23c 833e 81bc
-0.04946506 -0.06026276 -0.052454174 0.003964124 0.028157134 -0.019553188 0.016789975 -0.034797773
-0.0059812907 0.019570483 -0.0045461827 0.03243814 0.0010399246 -0.015197526 0.028385052 -0.014986896
-0.006700461 -0.038023945 -0.042158563 -0.05090836 -0.034294236 -0.033212177 -0.05149319 0.0036029418
-0.052090835 0.032216955 0.0237751 0.03811115 0.038011584 -0.032265443 -0.042396452 -0.021367032
0.009052052 -0.026058273 -0.0068157054 0.009316902 -0.03618279 0.010929185 0.013715088 -0.0081274565
-0.04691497 0.0069894856 0.028788134 -0.024375156 -0.0035117257 -0.039534453 -0.03754065 -0.016169256
-0.0005830743 0.0055136844 0.024621658 -0.03898483 -0.013221887 0.008177102 0.018466638 0.032754187
0.038584977 -0.00416842 0.0023055484 -0.003138708 -0.037872437 -0.04128407 -0.036581762 -0.057064172
-0.026067818 -0.061839268 0.0239533 -0.018798247 0.023857716 -0.05372833 -0.015209697 -0.02303053
-0.068621464 -0.057452895 0.027065333 0.024331298 0.008078832 -0.0064326543 -0.035246972 -0.004894128
0.019387467 -0.05245541 -0.027105872 -0.05440773 0.01619061 0.02748464 0.015299486 -0.010146156
-0.047888886 -0.049273796 0.023709582 0.027853431 -0.0039822254 0.009492549 0.039729387 -0.052370604
-0.052155666 0.017972315 0.0075540445 -0.046319727 0.0018606088 -0.008298454 -0.047014076 -0.043417532
0.009494513 -0.0013082995 0.026082737 -0.018437764 -0.03951384 -0.012301177 0.027540322 0.00515459
0.03194624 0.021852776 0.03458294 -0.019673979 -0.007658547 -0.02285472 0.033879455 -0.031631127
0.0070115793 -0.04976651 0.01349807 -0.0165788 -0.0379083 -0.0408952 -0.045485694 -0.055353627
0.010191231 0.0001253405 -0.0013871797 -0.053030856 -0.014791273 0.04686425 0.004282482 -0.02667577
0.02462042 -0.015854504 -0.02358542 -0.038402215 -0.02929333 0.0397033 -0.024453275 0.033537302
0.002293855 -0.057377614 -0.0007821076 -0.013852147 -0.04939886 -0.019926857 -0.034181874 -0.019458223
0.0035079755 -0.02324893 0.03974432 -0.04630157 0.011562837 -0.030141775 -0.013267896 -0.0065173637
-0.029723858 -0.0080491 -0.059685223 -0.050784763 0.0062685083 -0.012296388 -0.039278578 -0.020518476
0.03214554 0.024214009 0.016773878 0.024319246 -0.020662738 -0.039445803 -0.036875915 -0.051909603
0.0134365605 -0.012900477 -0.024507886 -0.025726637 -0.044011757 0.019263936 -0.04887232 0.032274976
-0.0039916676 -0.046556912 -0.05164972 -0.044980586 -0.03426435 -0.05684067 -0.012588865 -0.008093194
-0.027644055 0.031972196 -0.021392968 0.004384141 -0.040170666 -0.055719152 -0.01490336 0.003140237
-0.034830783 -0.04437197 0.03173482 0.0008506841 0.003802319 0.002965991 -0.042822264 -0.024891494
-0.0016789855 -0.018471375 -0.028681047 0.016252607 -0.03868261 -0.049087964 0.03131315 -0.049939387
-0.0607118 -0.0039801723 -0.0045749024 0.028543388 0.0049787736 0.03303769 -0.0029936512 -0.03859701
0.00027538254 -0.0050099697 -0.044171255 0.0098988535 -0.042501926 -0.0065411665 -0.0034351049 -0.030362425
0.036122117 0.026341686 0.03224266 -0.02856681 0.034850176 -0.029357955 -0.0077275867 -0.01348444
0.038862355 0.03810734 0.0026682978 0.02080544 -0.055357605 -0.026101243 0.016968828 -0.024457376
-0.05823444 0.030985141 -0.018437145 -0.020148365 -0.0021249861 -0.012609235 0.021730319 -0.015776878

std.constant11 f4 [64, 5, 5, 32]
00000000: 9877 07bc ab76 eb3c 5354 c33c 2824 743c
00000010: 5dc2 81bc 3790 cbbc fc61 cabb 6de5 853b
00000020: 8108 eebb fb7e 973b 08de 96bc 1f20 9cbc
00000030: fe81 21bd 30cc f13c 2132 bcbc 5db5 00bd
00000040: 505c b43c 3d66 0cbd 873e 223d d7ce 533c
00000050: 319e 2bbd c3a2 99bc 5ecb d93c abb0 c2bc
00000060: 9dc8 f0bc fcae f0bc 6c53 bd3c b557 cabb
00000070: 9a8a 153d 49f8 0c3d 7727 a8bc efd2 01bc
00000080: d46d f53c 18a1 cebc 5f2d 9bbc 11e2 30bd
00000090: fb79 74bb 1e64 2dbc 9009 683c bdcb 0abd
000000a0: f350 eb3c 6fd6 2e3c 459d d43c 7431 d13c
000000b0: 6509 dc3c 01f2 84bb ddb7 44bc b749 96bc
000000c0: dec9 3e3c 9fba 8b3c 3081 123d c65a d7bc
000000d0: 9000 903c 472c c53b 5bee 693c 28aa 6dbc
000000e0: a1de debc 79a5 e7ba 23a4 933c 3933 d6bb
000000f0: 38dc 273c b527 153d 15e2 e03a e930 0a3d
00000100: 3d9c 55bc 1118 10bd cd31 5d3c 304f ae3c
00000110: c7eb b3bc 7796 b4bc 2448 b3ba 00e7 1dbc
00000120: b140 72bc 30bc a33c 68fd b3ba 5979 a2bc
00000130: dcfb 5bbc c2e4 f43c f314 fa3c 1971 02bd
00000140: ec3c 5b3c f744 4ebc a7e5 f23c 1b51 0d3d
00000150: 5a85 58bc 3076 193c 92b8 513c ed0f bfbb
00000160: 1968 76ba 78a4 c1bc 9362 1b3d 70f7 0b3c
00000170: 2d2c efbc 4400 f2bc 8563 3dbc c50c a43c
00000180: 12c0 b4bc d5b8 db3c 8dc7 1c3d f267 f7bc
00000190: 8d97 1d3d 8bac b03c dabf fbbc d14a 88bc
000001a0: be0e 053d 0c97 b63c b7c9 f73c 9e0e 0bbd
000001b0: 4e0c ae3c 7b86 53bc 0829 1ebc 08df d23c
000001c0: b157 e0bc a67f 9b3c f164 933c 66a7 ed3b
000001d0: 3655 823c d825 ae3c 9b08 bdbb d916 8abc
000001e0: 9916 123c c6f2 d7bc 1a56 b23b b011 773b
000001f0: 53ae edbc 7153 acbc f49a 59bc d764 92bc
00000200: 7b57 cd3c d6ca fb3b 9b61 28bc 7609 f83c
00000210: c091 d43c 5620 8fbc 4281 ea3c f306 2a3b
00000220: dee1 b23a 21d1 98b9 8a10 6fbc ab5d 83bc
00000230: 9ecd 083d ceca 923c ff9e 013d c6d6 ed3b
00000240: dd28 f9bc 0802 9cbc d20e c2bb a7b5 013d
00000250: 0032 36bc e7ab 233c 677c a83b ccc4 9fba
00000260: accf 223d 9cd4 e73c b501 32bc ef46 e83c
00000270: 39c8 c83b 3ddc 823c 6ea8 c43c fce0 cabc
00000280: 4339 e63b 4253 893c 8a5a 083d 174e dfbc
00000290: 3c6e c43a 1531 e0bc dcf0 cc3c f61b e93b
000002a0: 1a2e 8cbc b83b 03bd 0771 e93c 146d 54bd
000002b0: 6b19 8f3c 9375 86bc b13f 5bbc f564 41bd
000002c0: 1dcc b93b 50c5 00bd 2249 0d3d 3799 64bc
000002d0: 2c4f 603c d736 8d3c d667 b0bc 0b37 ec3c
000002e0: a3f0 1f3d 2d94 803a a3e7 d33b 18d1 123c
000002f0: a198 d13c 3dcd 083d 77e0 c63b 43fb d43c
00000300: 2ba7 cebc 4868 c9bc ad56 9abc 4a7d 733b
00000310: 1b69 44bc f368 703c 7bc9 09bd 0efa debc
00000320: af91 2cbd 9640 8e3c 5f2a 283c 087b 4bbc
00000330: b6b4 10bd 727b 113d 73c0 533c d6db 8f3c
00000340: 746c cd3c 03c5 12bd 22fc a13c ba45 f83c
00000350: 0c47 993b 6ebd 81bb b2fc 12bd ca38 1bbd
00000360: f27f c9bc 9702 d7bc 93b9 8f3c 5446 483c
00000370: a744 aabc 0d40 96bb d377 183c 6cbd c2bb
00000380: 656d 663a b104 27bc 03a3 113c 4e3b 773a
00000390: b64d 25bc 8934 40ba 4217 e2bc b7f9 0e3d
000003a0: 8d2e acbc 0f85 87ba 71e3 893b 524f 44bd
000003b0: 9d9a 5dba 10a8 1a3d c5ee 79bc 6e10 40bc
000003c0: 94d8 793c fc75 a1ba 444d 843b 40ac e13c
000003d0: 80f6 3cbc 6214 8c3b 546e 53bd bf9d bebc
000003e0: aced d0bc d20f 013c aae3 9a3c 671a 853c
000003f0: 8026 91bc b72b 5b3b 07ff 05bd a817 0ebb
-0.0082682595 0.028743109 0.02384392 0.014901198 -0.01583975 -0.02484904 -0.0061762314 0.0040861876
-0.0072641973 0.0046232915 -0.01841642 -0.019058285 -0.03943061 0.02951631 -0.022973122 -0.03142296
0.022016674 -0.03427719 0.039610412 0.012927732 -0.04189891 -0.018754369 0.02658623 -0.023765882
-0.029392535 -0.029380314 0.023111068 -0.0061750063 0.036509134 0.03441647 -0.02052663 -0.007923826
0.029959597 -0.0252233 -0.018942533 -0.043184344 -0.0037304151 -0.010582952 0.014162436 -0.033885706
0.028725123 0.010671242 0.025953898 0.025536276 0.026859948 -0.0040571694 -0.012006727 -0.018345697
0.011644809 0.017056761 0.035767734 -0.026288401 0.017578393 0.006017241 0.01427802 -0.0145059
-0.027205767 -0.0017673216 0.018022602 -0.006536868 0.010245375 0.03641482 0.0017157221 0.03373805
-0.013037738 -0.0351792 0.013500643 0.021277994 -0.021963013 -0.022044403 -0.0013678116 -0.009637594
-0.014785931 0.019987196 -0.0013732137 -0.019833254 -0.013426747 0.029894236 0.030527567 -0.03184614
0.013381224 -0.012589685 0.029650522 0.034501176 -0.013215387 0.009366557 0.012800353 -0.005830756
-0.0009399667 -0.023637995 0.037935805 0.00854288 -0.02919587 -0.029541142 -0.011559372 0.02002562
-0.022064243 0.026821533 0.038276244 -0.030200932 0.03847461 0.02156665 -0.03073113 -0.016637238
0.032484762 0.022288822 0.030247552 -0.033949487 0.021246102 -0.012910481 -0.009653337 0.025741115
-0.027385565 0.018981766 0.017992469 0.0072526215 0.015909772 0.02125828 -0.005768848 -0.016856598
0.0089165205 -0.02636088 0.005442393 0.0037699752 -0.029013788 -0.021035882 -0.013281573 -0.01787035
0.025066128 0.007684092 -0.010277177 0.030277949 0.025948405 -0.017471474 0.028626088 0.0025944083
0.0013647636 -0.00029147512 -0.014591346 -0.016035875 0.033399217 0.01791897 0.03164577 0.007258269
-0.030414993 -0.019043937 -0.005922177 0.031667378 -0.011120319 0.009989715 0.005141783 -0.0012189387
0.039748833 0.028299622 -0.010864665 0.028354136 0.006127384 0.015974158 0.024006095 -0.024765484
0.007025869 0.016763333 0.03328947 -0.027258916 0.0014986466 -0.027367154 0.025017194 0.007113929
-0.017111827 -0.032039374 0.028496278 -0.051861838 0.017468175 -0.016413486 -0.013381884 -0.04721542
0.005670084 -0.031438172 0.034493573 -0.013952545 0.013690751 0.017238064 -0.021533888 0.02883484
0.03904785 0.0009809785 0.0064668222 0.008960985 0.025585474 0.033398855 0.0060692388 0.025998717
-0.025226196 -0.024585858 -0.018840158 0.0037153536 -0.01198795 0.014673459 -0.033639412 -0.027218845
-0.042131122 0.017364781 0.010264008 -0.01241947 -0.03532859 0.035518117 0.012924301 0.01756088
0.025076129 -0.035832416 0.019773547 0.030306686 0.004677659 -0.0039593494 -0.03588552 -0.037895955
-0.024597142 -0.026246352 0.017544543 0.012223799 -0.02078469 -0.004585272 0.009305912 -0.005942991
0.0008790105 -0.01019399 0.008888963 0.00094311393 -0.0100893285 -0.0007332047 -0.02759898 0.034906115
-0.02101829 -0.0010339337 0.0042080213 -0.04792721 -0.000845352 0.037757933 -0.015254681 -0.011722667
0.01524939 -0.0012318487 0.004037531 0.027547956 -0.01153338 0.0042748908 -0.05161889 -0.023268579
-0.025503956 0.007877307 0.018907387 0.016247941 -0.017718554 0.0033442804 -0.032713916 -0.002168158
