ml-models/all-lag200/deep-cnn.onnx (onnx, 284648 bytes, 8 tensors)

conv1.0.weight f4 [16, 1, 5, 5]
00000000: 6b0a 183d 34c2 853e b318 7b3d 654c d63c
00000010: dbca 4cbe 884e 123e cf55 cdbd a33a da3d
00000020: ecb3 ad3d cb04 003e 1a1c f7bd f9b8 673e
00000030: f114 453e 0a99 3f3d 02da 64bd c55b 7a3d
00000040: 2f74 27be cc16 4a3c ae60 043e dbb3 a83e
00000050: 4db3 263e 350a c73e 4188 353e 9780 843e
00000060: 8522 383e aae7 b83c 75a5 adbd 448b 6d3e
00000070: 5f8a 1bbd bf37 80be 86d7 a3be bd9d 0ebe
00000080: 8092 103e c711 ce3d a7e4 bfbc b9e5 223c
00000090: e1bf 75bd 350e 7cbe da3a 403e c0c9 c03d
000000a0: 4774 503e b392 9e3e d589 b53c 85d8 353d
000000b0: ac14 f93c b4cd b5bd 4000 4c3e bf6e 85bd
000000c0: 5f0c 123e 1d1f e4bc ad94 ef3d ffda 033e
000000d0: dccb 98bd 1dd4 463e 85c8 aabd ce5f 23bd
000000e0: fe46 98be 8d0c 36be 47c4 533e cdb2 41be
000000f0: 7de2 7a3e b67c 8cbe 6a74 3a3e ab05 4ebd
00000100: 2ae9 ebbd 019b e9be e095 2dbf cc6f 9d3e
00000110: a1fe e23e 18a9 dcbe 32a5 693e f650 283e
00000120: 1148 7d3d a96a 583e 1805 a03e ca10 babd
00000130: db3a 9fbd 9c79 58bd 2f99 9abe 1178 f83d
00000140: a9ea 3bbc e97a 6b3e 0ae8 21be b7cf 293e
00000150: 7575 a3bd e34b 923d d905 693c 3102 cc3c
00000160: eaa8 01be ed9f 9e3a 5eb9 07be 8171 a2bd
00000170: a565 19be 0c1f 65bd 92d3 013d e44b 613e
00000180: 412c 363d abfe 4b3b 22b9 243d fded 813e
00000190: e12e 19be 55d1 4e3d 1b8f 8fbe a8a3 a73e
000001a0: 367f 73be 3d8a 2ebd 31e5 17be b743 02be
000001b0: ea55 403d 15ac 8d3d accb 373e 830e 9e3e
000001c0: 3552 07be e454 033d e2d5 85be 41c2 d5be
000001d0: 1d61 dfbe 8002 413e a7da 813d 98fd f13d
000001e0: 80ae 9dbe a964 0dbe 7eba a2bd caf2 ac3e
000001f0: 6670 1dbe 6c07 b2bd 8fbd 58bd e79b 3c3e
00000200: 7eaf 7b3e 4699 793e d9b2 d73d acb7 a33e
00000210: b3c9 2bbd 8feb 17be c1e7 833e b08e 93be
00000220: d7f4 b3bd 08ae 91be 99fa 36bd 637c a3be
00000230: cf23 c3bd fa1f 7cbe ec5b c03d 8a0a 65be
00000240: fa76 893c 3409 7f3e d683 9abe 0575 f0bd
00000250: 7a7f 653d 13df 1c3e dd0d 11bc 3671 3b3e
00000260: cc3e 17bd c2f3 26be daab d5bd 996b 89bc
00000270: 44b5 3f3e 1d66 493e a885 4fbc 72f5 d8bd
00000280: 4291 86be 1349 533e d6fe fc3d 362b ec3d
00000290: 48f2 0dbe 3967 abbe 59fa ecbd 1e2b bf3e
000002a0: ff0f 773e 54b3 55be c601 3abe ee6d 2cbf
000002b0: 051f bc3d 20fc 0c3e 93ad 863c 6186 e4bd
000002c0: 3583 a8bc c37e e3bc 495e f5bc a9df 4ebe
000002d0: 7bc5 123e aea2 023c eaae 13bd bd79 a4be
000002e0: 1e8f 9ebe e532 34be 37a2 303e ddea b5be
000002f0: 0359 cebe 9ac5 17bc 131f 253e 2676 07bf
00000300: 16a3 f8be dc30 cb3e 26f6 7cbe 5c85 cc3e
00000310: 71a5 cd3e 7857 67be 2aa3 04be 4c07 11be
00000320: 9e5a be3c f5a1 3dbe b31b 233e efbb 833e
00000330: b26b 81be 5e1b 5c3d 1f24 423e 38e2 8dbd
00000340: 8271 64bd e7ea ddbd 69c7 043d 8c29 3c3e
00000350: 4726 d03d 99d6 83be a5c6 8b3e 898e 3c3d
00000360: 0b81 87be 3cbd b43e 3e79 5fbe d640 e83d
00000370: 4e06 cd3d f014 cf3e 4ced 1fbe b1bc 0e3e
00000380: 55c0 14be 109a 023e e6af 763e d8f4 bc3d
00000390: d8a9 173e a0b0 8a3d 722a 0bbe 7913 0b3d
000003a0: d2e3 f3be ce6f 41be f228 4dbe 88f4 8d3e
000003b0: 2338 53be 2146 793d 7015 06be 36c7 183e
000003c0: b7ba c73e 9f75 48be 232f 163e 9bb5 ebbd
000003d0: 3bcf 8a3e 540e c4bd 5c20 b33c 840f 89bc
000003e0: 8e84 42be 43f7 a9bd 33c2 80be 0338 813e
000003f0: e35a c53d 56b2 cc3d a2f5 1cbe 08a8 d5ba
0.03711931 0.26124728 0.061302852 0.026159475 -0.19999258 0.1428777 -0.10026132 0.10655715
0.08481583 0.12501828 -0.12065907 0.22629155 0.1924627 0.04677681 -0.05587197 0.061122674
-0.16352914 0.012334537 0.12927505 0.3294972 0.16279335 0.38874975 0.17727758 0.25879356
0.17981918 0.022571404 -0.08478824 0.23197657 -0.037973758 -0.2504253 -0.3200037 -0.1392736
0.14118385 0.100619845 -0.02342446 0.009942465 -0.059997443 -0.24614795 0.1877245 0.09413481
0.20356856 0.30971298 0.02216045 0.044395942 0.030405365 -0.088771254 0.1992197 -0.06515264
0.14262532 -0.027846867 0.116982795 0.12876509 -0.07460758 0.19416852 -0.08339027 -0.03988629
-0.29741663 -0.17778225 0.20680343 -0.18915863 0.24500461 -0.27438897 0.18208471 -0.050298374
-0.11519082 -0.4562607 -0.67806816 0.30749357 0.4433489 -0.43097758 0.22816923 0.16437134
0.061836306 0.21134438 0.31253886 -0.090852335 -0.07774898 -0.05285035 -0.30194995 0.12132276
-0.011469522 0.22996105 -0.15811172 0.16583143 -0.079813875 0.071433805 0.014222586 0.024903389
-0.12662092 0.0012102105 -0.13254306 -0.079318054 -0.1498018 -0.05593781 0.03169591 0.22001606
0.044475798 0.0031127136 0.04021562 0.25376883 -0.14959289 0.050492603 -0.28038868 0.32742047
-0.23778996 -0.042612303 -0.14833523 -0.12721144 0.046956934 0.06917588 0.17948788 0.30870447
-0.13214953 0.03206338 -0.26139742 -0.41749766 -0.4362878 0.1884861 0.06340533 0.11815947
-0.30797195 -0.1380793 -0.07945727 0.33778983 -0.15374908 -0.08692822 -0.052915152 0.18418847
0.24578664 0.24374875 0.10532159 0.31976068 -0.041940402 -0.14835952 0.25762752 -0.288198
-0.08786934 -0.28453088 -0.044672582 -0.31930837 -0.09528314 -0.24621573 0.09392533 -0.22367302
0.016780365 0.24905854 -0.30178708 -0.1174107 0.056029774 0.15319471 -0.008853403 0.18304905
-0.036925122 -0.16303924 -0.10433169 -0.01677494 0.18721491 0.1966786 -0.0126661435 -0.1059369
-0.26282698 0.20633344 0.123532936 0.11531679 -0.13861954 -0.3347719 -0.115711875 0.37337583
0.24127196 -0.2086919 -0.18164739 -0.6735524 0.09185604 0.13768053 0.016440189 -0.11158443
-0.020570377 -0.027770406 -0.029952185 -0.20202507 0.14333145 0.007973356 -0.036055483 -0.3212413
-0.30968565 -0.1759754 0.1724938 -0.3553075 -0.40302286 -0.0092634205 0.16125135 -0.52914655
-0.48561925 0.39685714 -0.24703273 0.39945495 0.40165284 -0.2259196 -0.12952867 -0.1416294
0.023236569 -0.18518813 0.15928535 0.2572932 -0.25277478 0.053737037 0.18959092 -0.069279134
-0.055772312 -0.1083582 0.032416735 0.18375224 0.10163551 -0.25749663 0.2729999 0.04603437
-0.2646564 0.35300624 -0.21823594 0.113404915 0.10010968 0.40445662 -0.15617865 0.13939168
-0.14526494 0.12754083 0.24090537 0.09226388 0.14810884 0.0677197 -0.1359041 0.033954117
-0.4763475 -0.18890306 -0.2003515 0.27725625 -0.20626883 0.060857896 -0.13094115 0.14919743
0.3900964 -0.19576119 0.14666419 -0.11509248 0.2711123 -0.095730454 0.021866016 -0.016731031
-0.18995878 -0.082991146 -0.25148162 0.25238046 0.09636476 0.099949524 -0.15328076 -0.0016300688

conv1.0.bias f4 [16]
00000000: ec13 4bbe 7789 953c 19b8 59bc 53b9 8c3d
00000010: 44ae e0ba 9dc4 3abd d49e 633d c492 47bc
00000020: 7122 e0bb 459c 833c 4336 11be 074a 7fbd
00000030: d38f 3fbc 2862 a539 0a6b 87bd c63d 8c3d
-0.19831818 0.018254025 -0.013288521 0.06871285 -0.0017141779 -0.04559766 0.055571392 -0.012180988
-0.0068400432 0.016065726 -0.14180855 -0.062326457 -0.011692005 0.00031544385 -0.06612213 0.0684772

conv2.0.weight f4 [32, 16, 5, 5]
00000000: 6388 36bc a413 8c3d 8825 5c3d 3c1f 1d3e
00000010: 5803 94be cedc 0cbd 6569 60bc dcee 8cbb
00000020: 25a5 bebc 270c 1f3e 90d9 623d 0739 38bd
00000030: cac1 17bc ae2e dfbb ac7e 3a3c 401b a6be
00000040: 3b9a a5bd 9d61 18bc cb5e 093e 3702 ac3c
00000050: 018c 5b3e 17e5 853e af39 1f3e 8934 443d
00000060: 3a52 0bbe 6140 f93c 97c0 b2bb d316 0abe
00000070: d22d 793a f9e8 c23c e8fc 713b 1018 c3bc
00000080: 5ac1 9a3d b76e 863c 5924 c43c 7bb0 57bd
00000090: 9e69 9d3c 7458 c03c 795d e8bd 8d91 c03d
000000a0: 26b2 983d dd90 2c3d 7dd9 dd3c 7d9c b0bd
000000b0: e11c 373d 9c68 aebd f5df 93bd a8d0 90bd
000000c0: 4af1 dd3a fc11 353d 136f 163e 0135 5e3c
000000d0: f1cb 0ebd e470 40bd 4086 7d3d 9a8e e73c
000000e0: b7ee c83d 3979 503b 0e8d 80bd b9aa acba
000000f0: aa6b 8dbd 2303 27bd c65c bd3c e846 f5bc
00000100: a347 c7bd 71e9 dfbd c510 0e3c f4e8 82bd
00000110: 656f e33d 3522 4bbe ee11 cebd 67c1 edbd
00000120: f175 0cbd 20a7 bb3c b359 2f3e d180 8b3d
00000130: b07c d23b 77ed 413d 07a6 c5bd 3c37 f6bc
00000140: 2f29 043e 4178 913b f22b cdbc fab9 7c3d
00000150: 6b08 70bd e9be 3e3d c69c d63d 4db8 5abd
00000160: 61c8 2bbd fe97 843c bdb4 bb3b 0c2f b0bd
00000170: 1bea b6bd 17c9 803d 92ac 19bc 2e7d ee3c
00000180: db09 f53b 9f7f 2bbd 0734 7e3c eaef 30bd
00000190: 6877 863c bbad 033d 25ca 40be 5e13 353e
000001a0: 3725 2bbe 58e1 9b3d 9823 5e3d 05f7 b1bc
000001b0: 436d 25bd 05ef 6ebd d92e e2bc 6377 8a3d
000001c0: 3071 3c3c ade6 5abb 16be f23d c2aa 003e
000001d0: 173d 873c 910d 3c3d 4653 5cbe 947f de3c
000001e0: ed96 4d3e fe15 c63d 055f d23c b303 3dbe
000001f0: 29bf eb3d d57f 0b3c 2cae 29be 4bbc d13d
00000200: 84c9 b6bc 8e31 59bd 7c95 573b 9a73 a73d
00000210: c8e5 403c 1eef bfbd 7524 a5bc 2405 f3bd
00000220: 3281 613d 320e f3bc 8e9c a4bd 6289 153c
00000230: e24a 4fbe bc96 8c3d 879e 71be d754 04be
00000240: db19 ca3d f61e 8abe e874 babc 55f9 2ebe
00000250: acf9 06bd b598 4abe e629 4d3c 584f 5ebd
00000260: 361b 8e3d fe32 12bd 5fcd b73c 2d7a a6bd
00000270: b71e 93bc be37 a53d 1461 023d 56a7 d2bd
00000280: f057 66bd 1e90 293d 9ab6 083b fb36 dabb
00000290: 2e8a 22bd 0a8c dd3a 6725 56bd 4a33 96bd
000002a0: 2fcb dabb e817 51bc 96ac d93d eccf 2fbd
000002b0: 463c f83c f346 60bc 81bd d53c 5d24 3dbd
000002c0: b080 763c b6dc b43d b989 c7bc 6969 a0bd
000002d0: 6d6a e139 d23d c83d 4a15 8fbd 174a 17bd
000002e0: a3a1 9b3d f5da 90bb 279f 463c 35fa 5d3c
000002f0: 4745 d2bc 3b3e bdbd 2c6b 3e3e cb7a 75bd
00000300: 012d 2f3e 993d 033e c865 813e e4bd fc3c
00000310: 5086 8e3d 1429 403c 9255 1e3e 7923 123e
00000320: 84de 173d 7636 533d 3438 503d 5048 423d
00000330: adc4 27be 8fa2 c73d 744c c43b 50c6 ac3d
00000340: d8d4 1e3e eac0 ab3c a001 babc 12e6 843d
00000350: 254f 00bd 5a00 02be cc3a 9cbd 87a6 3fbc
00000360: 2a8f 363c 3820 ee3b ad5c 89bb 0cde 293e
00000370: fd5e cc3d da34 633d a07a 02be 5337 ee3d
00000380: f71b 603e e53d 273d 1815 7fbd 02a3 6a3c
00000390: c4cd 06be d0c2 aabd 9677 da3d bff0 c23d
000003a0: d4b0 bb3c 2305 2dbd 39ac 1ebd 9e47 dbbc
000003b0: dd3f adbd 72b3 dcbd 804a 6c3d 66d2 0e3e
000003c0: 9dae 6d3d efa4 b9bb f0ea 2cbd aec4 c23c
000003d0: 8b8f 8a3b c47f 8ebc 330b 793d 218a c9bd
000003e0: 0674 653d d0a5 adbc 77df 05be 60bb 2abd
000003f0: 9427 cd3d b987 95bd 0e12 063e 2925 e9bd
-0.011140916 0.06839684 0.05374673 0.15343946 -0.289088 -0.034390263 -0.013697003 -0.004300935
-0.023272106 0.1553198 0.055383265 -0.04497626 -0.0092625115 -0.0068109846 0.01138274 -0.32442665
-0.08086058 -0.009300617 0.13415067 0.02099715 0.21440126 0.26151344 0.15549348 0.047901664
-0.13605586 0.030426206 -0.0054550874 -0.13485269 0.0009505424 0.02379273 0.0036924426 -0.023815185
0.0755641 0.016410215 0.023943113 -0.05265854 0.019215401 0.023479678 -0.113459535 0.094027616
0.07455854 0.04213034 0.027081246 -0.08623598 0.044705275 -0.085160464 -0.07220451 -0.07071048
0.0016932872 0.044206604 0.14690809 0.013562442 -0.034862462 -0.04698266 0.06189561 0.02826624
0.09811156 0.0031810536 -0.06276904 -0.0013173438 -0.06905301 -0.040774476 0.023115527 -0.029941037
-0.097304605 -0.10933197 0.00867099 -0.063920885 0.11105231 -0.19837268 -0.100620136 -0.11609154
-0.034292165 0.02290684 0.17124061 0.06811679 0.0064235553 0.047345605 -0.09650808 -0.030055635
0.12906335 0.004439384 -0.025045369 0.0617008 -0.058601778 0.046568785 0.10479121 -0.05339842
-0.041939143 0.016185757 0.005728333 -0.086027235 -0.08931371 0.06288355 -0.009379523 0.029112425
0.0074779815 -0.041869756 0.015515334 -0.04319755 0.01641436 0.032148104 -0.18827112 0.17683169
-0.16713415 0.0761134 0.054233164 -0.021724233 -0.040387403 -0.058333416 -0.02761023 0.067610525
0.011501595 -0.0033401654 0.11852662 0.12565139 0.016508622 0.045911375 -0.21516141 0.027160443
0.20077105 0.096721634 0.025680074 -0.18458442 0.1151107 0.008514364 -0.16570348 0.10240992
-0.022312887 -0.053025775 0.0032895496 0.08176346 0.011773534 -0.0937178 -0.020158986 -0.11866215
0.05505485 -0.029669855 -0.08037673 0.009126993 -0.2024341 0.06864688 -0.2359563 -0.12922989
0.09868213 -0.26976746 -0.022760823 -0.170873 -0.03295295 -0.19784816 0.012522196 -0.054274887
0.06938784 -0.03569316 0.022436796 -0.08128772 -0.017958982 0.080672726 0.031830862 -0.10285823
-0.056236207 0.041397206 0.0020860792 -0.006659386 -0.03968256 0.0016902697 -0.052281763 -0.07334001
-0.0066770534 -0.012762047 0.10628621 -0.0429229 0.030302178 -0.013688791 0.026091339 -0.046177257
0.01504533 0.0883116 -0.024357663 -0.078326054 0.00042994638 0.09777416 -0.069864824 -0.036935892
0.07599189 -0.004420633 0.012122906 0.013548424 -0.0256678 -0.09240385 0.1859557 -0.059931558
0.17107011 0.12816466 0.25272965 0.030852266 0.06959212 0.011728544 0.1546233 0.14271344
0.03707744 0.05156561 0.05083485 0.047432244 -0.1638362 0.097478025 0.0059905592 0.084362626
0.15510881 0.020966012 -0.022705853 0.06489195 -0.031325478 -0.12695447 -0.07628402 -0.011697418
0.011142531 0.0072670244 -0.004191956 0.1658861 0.09979055 0.055470325 -0.1274209 0.11631646
0.21885668 0.04083051 -0.062275976 0.014321091 -0.13164431 -0.08337939 0.106673405 0.09518575
0.022911467 -0.042241227 -0.038738463 -0.026767548 -0.084594466 -0.10776414 0.057688236 0.13947448
0.058027852 -0.0056654136 -0.04221624 0.023775425 0.0042285374 -0.017394908 0.060801696 -0.09840799
0.05601885 -0.02119723 -0.13073526 -0.0416826 0.100173146 -0.07301278 0.13092825 -0.11384041

conv2.0.bias f4 [32]
00000000: 009c 1b3c 3802 fcbc f615 d3bc 5f17 79bd
00000010: 896f 86bc 04a1 25bd 176a a2bc baa0 8f3c
00000020: 7b65 9b3d 7a21 743c ca58 aebc e07c ebbb
00000030: f18c 2fbd 73d4 7fbd 4d4c 483d ccf2 c2bb
00000040: 2c91 28bd 9d77 fa3c f062 2f3d dcdc 623c
00000050: a33a 03bd 73f1 48bd b39f 4d3d c842 25bd
00000060: 5db3 dabc 1771 34bc 0834 f23c 75e2 f5bc
00000070: 1014 813d 7a9e c23c b2d0 53bc 0389 293d
0.0094976425 -0.030762777 -0.025767308 -0.060813304 -0.016410606 -0.04043676 -0.019825978 0.017532695
0.07587715 0.01490056 -0.021282572 -0.007186517 -0.04285902 -0.062458467 0.04890089 -0.005949354
-0.04115407 0.030574614 0.042818964 0.013846602 -0.032038342 -0.04905839 0.05020113 -0.04034689
-0.026696855 -0.011013291 0.029565826 -0.03001521 0.06302655 0.023757208 -0.012928175 0.04139043

conv3.0.weight f4 [64, 32, 5, 5]
00000000: 26bc 203c c189 c9bd abfb 18bd 6a1a 223c
00000010: 62de bfbd 13e9 2cbd 80ba 29bd 9947 e1bc
00000020: 694d 263d f54f f0bd 40e9 b4bd ccde 1abd
00000030: 0387 073d 9f39 20bd becc c03c b0e5 a9bc
00000040: 263a bfbc c622 9abc 700e 2b3d d5d3 013d
00000050: eb5e f4bc d425 4d3c bb90 333c 3a44 e13c
00000060: 2f47 d83c 6102 5c3c 31d3 31bd 16da 12bd
00000070: d070 963d 99f1 05bc d636 00bd a0a7 06bc
00000080: 1804 0fbd 9e20 1e3d 7aaf 8bba b0ee 46bc
00000090: 9735 1b3d 6577 f2bc 870b 5f3d c343 fbbc
000000a0: 99e1 20bc 5c4f 45bc fb18 1abd ce31 5c3d
000000b0: b042 8fbd 5415 e63c 71c6 403d 2c89 a33c
000000c0: 1d03 8c3d 80e5 093d 6439 183d 72eb e73b
000000d0: 1a79 923c 105d f9bc 053b afbc a8ef c03c
000000e0: 32ae 8abd fce5 c0bc 18d3 cd3d b882 673b
000000f0: 5502 6ebc 35ae 83bd 6844 ecbd f676 b83b
00000100: 2fe7 c0bc 2f50 94bd 5853 50bd dfbc 02be
00000110: 20d8 663c 28a6 c3bc 6108 33bb 5ba1 acbc
00000120: 4415 e13c 630a 30bc 1504 eb3c 3705 4bbd
00000130: fd4c cbbc 25e5 80bd c2cb e6bc 3874 76bd
00000140: c4da 82bd e42d aabd 4c9c ebbc 9c00 8abd
00000150: c9ab a3bd 17be 77bd f6c7 a6bd 74a7 58bd
00000160: 184e 41bd 9b81 5ebd 0571 6dbd 8fa6 76bc
00000170: f09c 65bc 169d 643c a70c 48bd 1bb7 f9bb
00000180: 93ac 3cbc 3d31 10bd 4eb1 f2bc 467d ccbc
00000190: 3719 a53c 4096 223d 17af 8b3c 8db8 9d3c
000001a0: fa95 a13c 41df 053d 5014 7c3d c0f6 223d
000001b0: a923 8bbc 32d7 c53d 0bbc 6dbd 30a7 a8bb
000001c0: 10d4 54bd 63bb 403d 371c b13c f3df 8bbc
000001d0: e42d 82bc 9a93 07bd d4bb 03bc f1a5 2ebd
000001e0: 14fb 9cbc f6e4 2b3c 1477 df3b edaa 013d
000001f0: 5535 563b 531c e13c c0da d839 7f3e 3c3d
00000200: afd7 873d d24b ffbc 9513 dfbd a91d 60bd
00000210: c54c b23c 2c23 593b acc6 393b 7822 72bd
00000220: dde7 303d 74a5 a3ba 0c05 00bd 168c fe3c
00000230: 61d2 08bd aedc e3ba 25fd 15bd fc16 e4bb
00000240: cf0f ca3c b0ab 49bb 361c f5bb 74d0 d03c
00000250: 526a 8cbb cecd dcbc ef3d 87bb bd5d d13b
00000260: a422 333d d236 5a3c 78cc 4cbd 9e7f 73bc
00000270: 88c5 b4bc b613 5cbc 3f82 dc3b 074f 273c
00000280: 4ea9 f7bb 18a8 c9bc 6c39 acbc 56fa d23c
00000290: 1dfc 92bc 5ed2 af3c 1ce4 713c 5421 5b3c
000002a0: 5d85 1ebc cf1d 5abc 9469 a4bc edd2 a7bc
000002b0: 7c57 2cbb df76 92bc fd62 b93c 42b0 7dbc
000002c0: db53 32bd 4a9f 33bd ef78 b4bc 411e 67bd
000002d0: 68cd 1f3c 2283 c4bc 6d75 c2bc 2e84 a6bc
000002e0: 7713 35bd 2463 b43c 2287 1dbc 20fd 3dbd
000002f0: 9374 36bc 99c7 8e3c c76d 92bc 1ebb 85bb
00000300: 1079 46bd 68a3 12bc ce58 05bc 13b0 e33b
00000310: bd51 63bb 351b c6bc 6796 233d 3098 f23c
00000320: 1ca5 8c3d 30db 13bd c14e 61bc 4b1d 913d
00000330: d0b0 e6bb fe40 3e3c c45b 31bb 5b41 443d
00000340: 0361 bebb 1cf3 18bc e6fc 12bd 1cc0 693d
00000350: 7248 b8bc 0087 d9bc 6778 f23c 570e 28bd
00000360: 4f65 953c c693 08bd 2f13 173c cd0b 0cbd
00000370: cf49 003c 4614 10bc 9baa d23c 39e9 d13c
00000380: 969c 783c b390 c13b 4b20 503c 21a8 ae3c
00000390: 3c0b 45bc 6ef4 05bb 72f9 26bd 9c4f d7bb
000003a0: ff41 b73c 5532 d9bc 4494 803c d226 cebc
000003b0: 9562 b7ba f062 8dbc 32dc a9bc 666c 1bbc
000003c0: 958c 163d 036d 753c d927 e1ba 0f58 483d
000003d0: 9712 0d3d dcaa ff3c daa9 35bc 7c4c 13bc
000003e0: f33b 3abc 9b7b d53c ac6a bcbc e3eb b4bb
000003f0: 8d88 053d f226 553b 7bf2 8e3a 74e6 8f3b
0.009810483 -0.098407276 -0.037349384 0.009893993 -0.09368588 -0.042214464 -0.041437626 -0.02749996
0.040601168 -0.117340006 -0.088335514 -0.037810132 0.03308774 -0.03911745 0.023535129 -0.020739406
-0.023343157 -0.01881541 0.041761816 0.03169616 -0.029830417 0.012521226 0.010959799 0.027498353
0.02640113 0.013428302 -0.0434143 -0.035852514 0.07345736 -0.008175277 -0.031302296 -0.008218676
-0.034916013 0.038605325 -0.0010657154 -0.0121418685 0.037892904 -0.029597947 0.054454353 -0.03067196
-0.009819412 -0.0120428465 -0.03762148 0.053758435 -0.069951415 0.028086342 0.04706425 0.01996287
0.06836531 0.033666134 0.037164107 0.007077628 0.017880011 -0.030439883 -0.021390447 0.023551777
-0.06771506 -0.023547165 0.100500286 0.0035325717 -0.014526923 -0.06429712 -0.11536485 0.0056294156
-0.023547737 -0.07241856 -0.050860733 -0.12767361 0.014089614 -0.02388294 -0.0027318227 -0.021073034
0.02747596 -0.010744664 0.02868847 -0.04956552 -0.024816984 -0.06293706 -0.028173331 -0.06016943
-0.063893825 -0.08309534 -0.028761052 -0.067383975 -0.0799175 -0.06048402 -0.08143608 -0.05289407
-0.047193617 -0.05432282 -0.057969112 -0.015054359 -0.014014468 0.013953468 -0.04884019 -0.007620705
-0.011515754 -0.035203207 -0.029625561 -0.024962079 0.020153625 0.03969407 0.017051263 0.01925304
0.019724835 0.032683615 0.06154281 0.0397861 -0.016984778 0.09660186 -0.05804066 -0.0051468834
-0.05196005 0.047053706 0.0216199 -0.01707456 -0.015891023 -0.03309975 -0.008040387 -0.042638723
-0.019162692 0.0104916 0.006819615 0.03165715 0.0032685597 0.027479326 0.00041361712 0.04595804
0.06632935 -0.031164084 -0.10892407 -0.054715786 0.021765122 0.0033132536 0.0028347177 -0.059114903
0.043189872 -0.0012485222 -0.031254813 0.031072658 -0.033403758 -0.0017384493 -0.03661837 -0.0069607478
0.024665741 -0.00307725 -0.0074801696 0.025490023 -0.0042851353 -0.026953604 -0.004127256 0.0063893483
0.043734208 0.013318734 -0.049999684 -0.014861969 -0.022066846 -0.013432434 0.0067293937 0.010211713
-0.0075580245 -0.024616286 -0.021023475 0.025754135 -0.017942483 0.021462616 0.014763858 0.013374645
-0.009675351 -0.013312771 -0.020069875 -0.02048632 -0.0026297262 -0.017878948 0.02263021 -0.015483918
-0.043537002 -0.04385308 -0.022030322 -0.056425337 0.0097535625 -0.02398831 -0.023737634 -0.0203267
-0.044208016 0.02201993 -0.009614738 -0.046383977 -0.011136192 0.01742916 -0.017874612 -0.004081144
-0.048455298 -0.008950092 -0.0081388485 0.00694848 -0.003468617 -0.024182895 0.039938357 0.029613584
0.068674296 -0.036097705 -0.013751687 0.07085665 -0.0070401207 0.011612175 -0.0027062753 0.04791389
-0.0058099045 -0.009335306 -0.035885714 0.057067975 -0.022495482 -0.02655363 0.029598428 -0.0410293
0.018236784 -0.033344053 0.009220882 -0.03419094 0.007830097 -0.008793896 0.025716117 0.025623905
0.015174052 0.005907142 0.012703012 0.021320404 -0.012026604 -0.002043988 -0.040765233 -0.0065707695
0.022370337 -0.026513258 0.015695699 -0.025164995 -0.0013991172 -0.017259091 -0.02073488 -0.009486293
0.036755163 0.014979604 -0.0017178013 0.048912104 0.034441557 0.031209402 -0.011087859 -0.008990403
-0.011366832 0.026059916 -0.023000084 -0.005521284 0.032600928 0.0032524434 0.0010906005 0.004391486

conv3.0.bias f4 [64]
00000000: e900 e03c 497a 573d eb47 323d 7ea5 dd3c
00000010: f303 22bc 5a8d 5a3d 96fa 3d3d 992e 1bbd
00000020: 7837 41ba 431b 883c 408f a5bc f38b 1f3d
00000030: 3f6c 913b a1f0 6b3c 0f23 15bd efba 6fbc
00000040: de4e 073d 7656 853d 91ce 2a3b 36cf 8e3d
00000050: 3b47 643c 3703 ecbc a829 203d 8ec9 0dbc
00000060: af79 493d e077 833c 306b 85ba cee1 973c
00000070: 1f4a 0fbd 258d cbbc 4c07 4b3d 5a6c 523d
00000080: 6382 ca3c e46d bf3d 3b15 893d 2208 423d
00000090: 3a9a eebb 404b 00b8 fe58 673d 6654 933c
000000a0: e82e cd3c 483f 413d a51a 6b3b 453b 92bc
000000b0: 7b34 883c bab8 013d 4ab9 4abb ecd9 2e3d
000000c0: e953 563d 827a 583d 4431 5d3d 8923 133d
000000d0: 80ac 75bc f07a 113d 780a 443d 5b32 3c3b
000000e0: 9f7e 3c3d 0c69 3fbd 5047 13bd 26d4 c5b9
000000f0: c571 113d 61f2 3c3d a710 6fbc 3567 4a3d
0.027344184 0.052606855 0.043525618 0.027056452 -0.009888637 0.05335746 0.046381555 -0.037886236
-0.0007370631 0.016614562 -0.020209908 0.038951825 0.004437953 0.014400632 -0.036410388 -0.014631971
0.033034198 0.06510632 0.0026063065 0.06973116 0.013932998 -0.028810127 0.039102226 -0.008654011
0.049188312 0.016048372 -0.0010179039 0.01854029 -0.034982797 -0.024847576 0.049567506 0.051372863
0.024720376 0.09347132 0.066935025 0.047371037 -0.007281569 -3.058766e-05 0.056481354 0.01798458
0.02504678 0.04717949 0.0035874036 -0.017850528 0.016626587 0.03167031 -0.0030933195 0.042688295
0.052326117 0.052851208 0.05400206 0.03592256 -0.0149947405 0.035517633 0.047861546 0.0028716538
0.046019193 -0.04673104 -0.03595668 -0.0003773283 0.03550889 0.046129588 -0.014591373 0.049414832

out.weight f4 [2, 3136]
00000000: 8c65 623d 9c78 86bd 82dd 4e3c 69ab a33b
00000010: 0281 db3b 3db1 e8bc 9a69 673c 1159 40bc
00000020: 98fd dd3c aec0 563d 1d20 88bd c17a c8bc
00000030: ad65 c6bc 01f9 a33b 1cb6 a3bd 46a3 5f3d
00000040: f42d 073d 4387 36bd 0344 24bc 6c33 acbb
00000050: 37d1 233c c889 e23b 1f39 07bc 7ea3 8c3c
00000060: 101f 833b 7c42 a0bb f5c9 7d3b ac28 943c
00000070: 5712 903c 3768 d4bb 7d61 79bc caae 2dbc
00000080: f879 653c 9197 083c 4d81 093c 5aac 21bc
00000090: ad6b 6e3b 1bf7 ecba b425 8b3c 5d7b 7f3c
000000a0: 8ca9 a33b 2a89 cd3b 0ef1 bdba ce1c ea3b
000000b0: 326a 8abc 01b1 17bc 1041 943c f10d 46bc
000000c0: c364 ce3b ca90 ac3d 8213 7bbd 9706 393d
000000d0: cf16 283c cbb5 08bd e570 253b 6ecb 1b3b
000000e0: 7311 ebbc d9c4 da3c a0ea 813d 8174 0dbd
000000f0: 4414 d7bc 787a 31bd 363d 813c ef8f 1c3d
00000100: a92c 363d 1715 183d 8910 833c 7b81 63bd
00000110: 40b1 ebbb 4de0 143c effd fcbb d5b5 663b
00000120: 59ea 8dbc 52b3 5ebc 3d85 0ebc 89d8 853c
00000130: 53d8 243c 3619 22bc 38b4 f63b 2885 e03b
00000140: 3d4e 543c 5e06 a33b 67d3 773c dbcb 853c
00000150: 9022 cb3c 89a7 bc3b 00e0 0ebc 60e5 8d3b
00000160: ccf7 2f3b c010 72bc 3a0a 48bb 853e 573c
00000170: ba97 433c 86c0 7bbc a198 dc3b b59a 8dbc
00000180: 4a54 9d3c 6f76 92bb 33bf 0d3c 07ba d4bc
00000190: ce26 cbbc 1af5 42bb 8dde adbd 0755 ba3c
000001a0: 2df5 8d3d 3cae f6bd 3274 8abd 8c94 4a3e
000001b0: 3692 183d da3c 22be 2778 9bbd d83f c33b
000001c0: 37fe 073e 67d0 e4bc f3c4 71bd 691e 45bd
000001d0: b62d d33c 76d0 bebd 8781 4e3c e323 a6bd
000001e0: fbe2 073e 7d5a 37bd 2219 093d e97a b43d
000001f0: 420c f53c 214b 6e3c 84c7 333d 4598 c9bb
00000200: 48d8 1fbc 5179 183d 268a 0e3c 021e 9f3a
00000210: 71ea 53bc 296f d43c 5ba5 573d 265b bf3c
00000220: 33c6 b03c 40b8 403d e491 003d c8a4 0f3d
00000230: cb72 1c3d f93e 8b3b bd6d d73c 4f9d 80bb
00000240: 2b75 213c 6e99 8239 4417 42bc 7a0c 263a
00000250: e965 243e a59d f7bd 306b 0dbe 2762 72bd
00000260: 9bd0 b23d 72fa 943d f9a4 073e b150 13be
00000270: e5f9 3bbe dafa 1b3d 0b0b b23d a31a 8d3c
00000280: 6ca7 5a3c 7dff e93d a979 013d 47af e9bd
00000290: 9dcf ddbc 3e68 ec3d 6d0c 42bc c8d8 1dbe
000002a0: deb3 5ebb 8f68 15bc a83a 29bd b023 2c3b
000002b0: b1b2 6f3d 4146 893d 9b99 ad3d 76f8 f0bc
000002c0: 8699 1cbc 23e0 5c3c 71e9 083d c8a0 383c
000002d0: 8b6c ffbc 11b9 d7bd 24c1 97bb b6c9 68bc
000002e0: 5a1a 7cbc 9f99 313b 2d50 113d ced4 cdbb
000002f0: bd9e 0dbd 61df 71ba 907e 00bc b8c2 523c
00000300: 2b97 0abc bc83 1ab9 7a7e 3039 0a47 d13b
00000310: 2889 5dbc 1f37 a13b ef5b 1b3c 08e6 133c
00000320: af35 03bc bd65 853c 6980 3abc e39e 193c
00000330: 4a58 a03b 8fcb ab3c 3660 253c 9972 5d3b
00000340: 05fb 88bc 0daa 613c c185 493b cb22 81bc
00000350: 5650 6fbc f71b 583c 4c19 de3a a284 313c
00000360: d070 c83c 7779 573c 1f3e 9bba b24e 32bb
00000370: 3014 4c3b adc5 7d3c cb3f 04bc 287a 543c
00000380: 40c9 823c 7adf 48bb 19b3 a43a 72e4 873c
00000390: 9d53 b8ba aa66 28bb ea3f a93c 533f 273b
000003a0: a14a 6a3c 8e16 0337 f813 013b d2e3 2e3c
000003b0: 3c36 b43b 5705 37bc ae81 0d3c eec7 fb3b
000003c0: aa17 d93b d53e 8e3c aa37 70bc fedd 81bb
000003d0: 8b24 9d3a 0a80 a73d 6142 59bd 984e 0ebc
000003e0: 7880 083e af3d c13d 46a0 6abc d4cd 903c
000003f0: 2f52 623d c0ec 53bd 3274 063d 85db 953d
0.055272624 -0.06565973 0.012626054 0.004994799 0.0066987285 -0.028404826 0.0141242985 -0.011739985
0.027098462 0.052429847 -0.0664675 -0.024472596 -0.024218405 0.005004049 -0.07993719 0.05459907
0.03300281 -0.04456259 -0.010025981 -0.0052551534 0.009998611 0.0069133975 -0.008253365 0.017167803
0.0040015057 -0.004890738 0.0038725112 0.0180858 0.01758687 -0.00648215 -0.015220997 -0.010600755
0.01400613 0.0083369175 0.008392644 -0.009867752 0.0036380098 -0.0018079014 0.016985752 0.015593377
0.004994577 0.0062724547 -0.0014491396 0.007144547 -0.016896341 -0.00925851 0.01809743 -0.012088285
0.006298633 0.08426054 -0.0612979 0.0451723 0.010259344 -0.033376496 0.0025244292 0.0023772377
-0.028694844 0.026705192 0.06343579 -0.034534935 -0.02625478 -0.043329686 0.015776258 0.038223203
0.044476185 0.037129488 0.015999096 -0.055543404 -0.0071927607 0.009086681 -0.007720701 0.0035203595
-0.01732366 -0.013592558 -0.008698759 0.016338604 0.010061341 -0.009893706 0.007528808 0.006851811
0.012958107 0.0049751243 0.015126086 0.016332557 0.024796754 0.0057572764 -0.008720398 0.004330322
0.002685058 -0.014774501 -0.0030523674 0.013137464 0.01193803 -0.015365725 0.006732062 -0.017285684
0.019205231 -0.004469685 0.0086515425 -0.025967611 -0.024798777 -0.0029748143 -0.08489714 0.022745622
0.06931529 -0.12044951 -0.06760444 0.19783229 0.037248813 -0.15843526 -0.075912766 0.0059585385
0.13280569 -0.027931405 -0.059025716 -0.048124705 0.025778633 -0.093171045 0.012604124 -0.081123136
0.1327018 -0.04476403 0.033471234 0.08812506 0.029913072 0.014544279 0.043891445 -0.006152185
-0.009756155 0.03722507 0.008699929 0.001213968 -0.012934313 0.025931912 0.05264793 0.023358893
0.021578884 0.047050714 0.031389132 0.035069257 0.038195413 0.0042494503 0.026297444 -0.0039250026
0.009854595 0.00024909846 -0.011846367 0.00063342566 0.160545 -0.12090615 -0.1381042 -0.059175637
0.087311946 0.07274331 0.13246526 -0.1438625 -0.18357046 0.038081028 0.086935125 0.017224615
0.013345581 0.11425684 0.031610165 -0.114103846 -0.027076537 0.1154332 -0.011843783 -0.15414727
-0.003398172 -0.009119167 -0.041315705 0.0026266389 0.058520023 0.06702853 0.084765635 -0.02941535
-0.009558087 0.013481173 0.033425752 0.011268802 -0.031179687 -0.105333455 -0.0046311785 -0.014208248
-0.015387142 0.0027099622 0.035476852 -0.006281472 -0.034575213 -0.00092267065 -0.007842675 0.012863807
-0.008458893 -0.0001473566 0.00016831784 0.0063866423 -0.01352147 0.004919901 0.009482368 0.009027012
-0.008008405 0.016283864 -0.011383154 0.00937626 0.0048933374 0.020971088 0.010093739 0.003379023
-0.016721258 0.013773453 0.003074989 -0.01576366 -0.014606556 0.013190261 0.0016944795 0.010834845
0.024467856 0.013151518 -0.0011844075 -0.002720755 0.0031139962 0.015489024 -0.00807185 0.012968577
0.015965104 -0.003065078 0.0012565582 0.016588423 -0.0014063005 -0.0025695958 0.02066036 0.0025519922
0.0143000195 7.81346e-06 0.001969574 0.010674434 0.0054996293 -0.011170707 0.008636875 0.0076837456
0.0066251354 0.017363945 -0.014661709 -0.003963231 0.001198904 0.081787184 -0.05304182 -0.00868573
0.13330257 0.09435593 -0.014320439 0.017676271 0.055254158 -0.051739454 0.032825656 0.07317261

out.bias f4 [2]
00000000: 85fb 683d 4661 47bd
0.056880493 -0.04867675
