ml-models/all-lag200/saved_model.tflite (tflite, 286536 bytes, 8 tensors)

std.constant1 f4 [16]
0	0xbe4b13ec	-0.19831818
1	0x3c958977	0.018254025
2	0xbc59b819	-0.013288521
3	0x3d8cb953	0.06871285
4	0xbae0ae44	-0.0017141779
5	0xbd3ac49d	-0.04559766
6	0x3d639ed4	0.055571392
7	0xbc4792c4	-0.012180988
8	0xbbe02271	-0.0068400432
9	0x3c839c45	0.016065726
10	0xbe113643	-0.14180855
11	0xbd7f4a07	-0.062326457
12	0xbc3f8fd3	-0.011692005
13	0x39a56228	0.00031544385
14	0xbd876b0a	-0.06612213
15	0x3d8c3dc6	0.0684772

std.constant2 f4 [32]
0	0x3c1b9c00	0.0094976425
1	0xbcfc0238	-0.030762777
2	0xbcd315f6	-0.025767308
3	0xbd79175f	-0.060813304
4	0xbc866f89	-0.016410606
5	0xbd25a104	-0.04043676
6	0xbca26a17	-0.019825978
7	0x3c8fa0ba	0.017532695
8	0x3d9b657b	0.07587715
9	0x3c74217a	0.01490056
10	0xbcae58ca	-0.021282572
11	0xbbeb7ce0	-0.007186517
12	0xbd2f8cf1	-0.04285902
13	0xbd7fd473	-0.062458467
14	0x3d484c4d	0.04890089
15	0xbbc2f2cc	-0.005949354
16	0xbd28912c	-0.04115407
17	0x3cfa779d	0.030574614
18	0x3d2f62f0	0.042818964
19	0x3c62dcdc	0.013846602
20	0xbd033aa3	-0.032038342
21	0xbd48f173	-0.04905839
22	0x3d4d9fb3	0.05020113
23	0xbd2542c8	-0.04034689
24	0xbcdab35d	-0.026696855
25	0xbc347117	-0.011013291
26	0x3cf23408	0.029565826
27	0xbcf5e275	-0.03001521
28	0x3d811410	0.06302655
29	0x3cc29e7a	0.023757208
30	0xbc53d0b2	-0.012928175
31	0x3d298903	0.04139043

std.constant3 f4 [64]
0	0x3ce000e9	0.027344184
1	0x3d577a49	0.052606855
2	0x3d3247eb	0.043525618
3	0x3cdda57e	0.027056452
4	0xbc2203f3	-0.009888637
5	0x3d5a8d5a	0.05335746
6	0x3d3dfa96	0.046381555
7	0xbd1b2e99	-0.037886236
8	0xba413778	-0.0007370631
9	0x3c881b43	0.016614562
10	0xbca58f40	-0.020209908
11	0x3d1f8bf3	0.038951825
12	0x3b916c3f	0.004437953
13	0x3c6bf0a1	0.014400632
14	0xbd15230f	-0.036410388
15	0xbc6fbaef	-0.014631971
16	0x3d074ede	0.033034198
17	0x3d855676	0.06510632
18	0x3b2ace91	0.0026063065
19	0x3d8ecf36	0.06973116
20	0x3c64473b	0.013932998
21	0xbcec0337	-0.028810127
22	0x3d2029a8	0.039102226
23	0xbc0dc98e	-0.008654011
24	0x3d4979af	0.049188312
25	0x3c8377e0	0.016048372
26	0xba856b30	-0.0010179039
27	0x3c97e1ce	0.01854029
28	0xbd0f4a1f	-0.034982797
29	0xbccb8d25	-0.024847576
30	0x3d4b074c	0.049567506
31	0x3d526c5a	0.051372863
32	0x3cca8263	0.024720376
33	0x3dbf6de4	0.09347132
34	0x3d89153b	0.066935025
35	0x3d420822	0.047371037
36	0xbbee9a3a	-0.007281569
37	0xb8004b40	-3.058766e-05
38	0x3d6758fe	0.056481354
39	0x3c935466	0.01798458
40	0x3ccd2ee8	0.02504678
41	0x3d413f48	0.04717949
42	0x3b6b1aa5	0.0035874036
43	0xbc923b45	-0.017850528
44	0x3c88347b	0.016626587
45	0x3d01b8ba	0.03167031
46	0xbb4ab94a	-0.0030933195
47	0x3d2ed9ec	0.042688295
48	0x3d5653e9	0.052326117
49	0x3d587a82	0.052851208
50	0x3d5d3144	0.05400206
51	0x3d132389	0.03592256
52	0xbc75ac80	-0.0149947405
53	0x3d117af0	0.035517633
54	0x3d440a78	0.047861546
55	0x3b3c325b	0.0028716538
56	0x3d3c7e9f	0.046019193
57	0xbd3f690c	-0.04673104
58	0xbd134750	-0.03595668
59	0xb9c5d426	-0.0003773283
60	0x3d1171c5	0.03550889
61	0x3d3cf261	0.046129588
62	0xbc6f10a7	-0.014591373
63	0x3d4a6735	0.049414832

std.constant4 f4 [2]
0	0x3d68fb85	0.056880493
1	0xbd476146	-0.04867675

std.constant7 f4 [2, 3136]
0	0x3d62658c	0.055272624
1	0xbd86789c	-0.06565973
2	0x3c4edd82	0.012626054
3	0x3ba3ab69	0.004994799
4	0x3bdb8102	0.0066987285
5	0xbce8b13d	-0.028404826
6	0x3c67699a	0.0141242985
7	0xbc405911	-0.011739985
8	0x3cddfd98	0.027098462
9	0x3d56c0ae	0.052429847
10	0xbd88201d	-0.0664675
11	0xbcc87ac1	-0.024472596
12	0xbcc665ad	-0.024218405
13	0x3ba3f901	0.005004049
14	0xbda3b61c	-0.07993719
15	0x3d5fa346	0.05459907
16	0x3d072df4	0.03300281
17	0xbd368743	-0.04456259
18	0xbc244403	-0.010025981
19	0xbbac336c	-0.0052551534
20	0x3c23d137	0.009998611
21	0x3be289c8	0.0069133975
22	0xbc07391f	-0.008253365
23	0x3c8ca37e	0.017167803
24	0x3b831f10	0.0040015057
25	0xbba0427c	-0.004890738
26	0x3b7dc9f5	0.0038725112
27	0x3c9428ac	0.0180858
28	0x3c901257	0.01758687
29	0xbbd46837	-0.00648215
30	0xbc79617d	-0.015220997
31	0xbc2daeca	-0.010600755
32	0x3c6579f8	0.01400613
33	0x3c089791	0.0083369175
34	0x3c09814d	0.008392644
35	0xbc21ac5a	-0.009867752
36	0x3b6e6bad	0.0036380098
37	0xbaecf71b	-0.0018079014
38	0x3c8b25b4	0.016985752
39	0x3c7f7b5d	0.015593377
40	0x3ba3a98c	0.004994577
41	0x3bcd892a	0.0062724547
42	0xbabdf10e	-0.0014491396
43	0x3bea1cce	0.007144547
44	0xbc8a6a32	-0.016896341
45	0xbc17b101	-0.00925851
46	0x3c944110	0.01809743
47	0xbc460df1	-0.012088285
48	0x3bce64c3	0.006298633
49	0x3dac90ca	0.08426054
50	0xbd7b1382	-0.0612979
51	0x3d390697	0.0451723
52	0x3c2816cf	0.010259344
53	0xbd08b5cb	-0.033376496
54	0x3b2570e5	0.0025244292
55	0x3b1bcb6e	0.0023772377
56	0xbceb1173	-0.028694844
57	0x3cdac4d9	0.026705192
58	0x3d81eaa0	0.06343579
59	0xbd0d7481	-0.034534935
60	0xbcd71444	-0.02625478
61	0xbd317a78	-0.043329686
62	0x3c813d36	0.015776258
63	0x3d1c8fef	0.038223203
64	0x3d362ca9	0.044476185
65	0x3d181517	0.037129488
66	0x3c831089	0.015999096
67	0xbd63817b	-0.055543404
68	0xbbebb140	-0.0071927607
69	0x3c14e04d	0.009086681
70	0xbbfcfdef	-0.007720701
71	0x3b66b5d5	0.0035203595
72	0xbc8dea59	-0.01732366
73	0xbc5eb352	-0.013592558
74	0xbc0e853d	-0.008698759
75	0x3c85d889	0.016338604
76	0x3c24d853	0.010061341
77	0xbc221936	-0.009893706
78	0x3bf6b438	0.007528808
79	0x3be08528	0.006851811
80	0x3c544e3d	0.012958107
81	0x3ba3065e	0.0049751243
82	0x3c77d367	0.015126086
83	0x3c85cbdb	0.016332557
84	0x3ccb2290	0.024796754
85	0x3bbca789	0.0057572764
86	0xbc0ee000	-0.008720398
87	0x3b8de560	0.004330322
88	0x3b2ff7cc	0.002685058
89	0xbc7210c0	-0.014774501
90	0xbb480a3a	-0.0030523674
91	0x3c573e85	0.013137464
92	0x3c4397ba	0.01193803
93	0xbc7bc086	-0.015365725
94	0x3bdc98a1	0.006732062
95	0xbc8d9ab5	-0.017285684
96	0x3c9d544a	0.019205231
97	0xbb92766f	-0.004469685
98	0x3c0dbf33	0.0086515425
99	0xbcd4ba07	-0.025967611
100	0xbccb26ce	-0.024798777
101	0xbb42f51a	-0.0029748143
102	0xbdadde8d	-0.08489714
103	0x3cba5507	0.022745622
104	0x3d8df52d	0.06931529
105	0xbdf6ae3c	-0.12044951
106	0xbd8a7432	-0.06760444
107	0x3e4a948c	0.19783229
108	0x3d189236	0.037248813
109	0xbe223cda	-0.15843526
110	0xbd9b7827	-0.075912766
111	0x3bc33fd8	0.0059585385
112	0x3e07fe37	0.13280569
113	0xbce4d067	-0.027931405
114	0xbd71c4f3	-0.059025716
115	0xbd451e69	-0.048124705
116	0x3cd32db6	0.025778633
117	0xbdbed076	-0.093171045
118	0x3c4e8187	0.012604124
119	0xbda623e3	-0.081123136
120	0x3e07e2fb	0.1327018
121	0xbd375a7d	-0.04476403
122	0x3d091922	0.033471234
123	0x3db47ae9	0.08812506
124	0x3cf50c42	0.029913072
125	0x3c6e4b21	0.014544279
126	0x3d33c784	0.043891445
127	0xbbc99845	-0.006152185
128	0xbc1fd848	-0.009756155
129	0x3d187951	0.03722507
130	0x3c0e8a26	0.008699929
131	0x3a9f1e02	0.001213968
132	0xbc53ea71	-0.012934313
133	0x3cd46f29	0.025931912
134	0x3d57a55b	0.05264793
135	0x3cbf5b26	0.023358893
136	0x3cb0c633	0.021578884
137	0x3d40b840	0.047050714
138	0x3d0091e4	0.031389132
139	0x3d0fa4c8	0.035069257
140	0x3d1c72cb	0.038195413
141	0x3b8b3ef9	0.0042494503
142	0x3cd76dbd	0.026297444
143	0xbb809d4f	-0.0039250026
144	0x3c21752b	0.009854595
145	0x3982996e	0.00024909846
146	0xbc421744	-0.011846367
147	0x3a260c7a	0.00063342566
148	0x3e2465e9	0.160545
149	0xbdf79da5	-0.12090615
150	0xbe0d6b30	-0.1381042
151	0xbd726227	-0.059175637
152	0x3db2d09b	0.087311946
153	0x3d94fa72	0.07274331
154	0x3e07a4f9	0.13246526
155	0xbe1350b1	-0.1438625
156	0xbe3bf9e5	-0.18357046
157	0x3d1bfada	0.038081028
158	0x3db20b0b	0.086935125
159	0x3c8d1aa3	0.017224615
160	0x3c5aa76c	0.013345581
161	0x3de9ff7d	0.11425684
162	0x3d0179a9	0.031610165
163	0xbde9af47	-0.114103846
164	0xbcddcf9d	-0.027076537
165	0x3dec683e	0.1154332
166	0xbc420c6d	-0.011843783
167	0xbe1dd8c8	-0.15414727
168	0xbb5eb3de	-0.003398172
169	0xbc15688f	-0.009119167
170	0xbd293aa8	-0.041315705
171	0x3b2c23b0	0.0026266389
172	0x3d6fb2b1	0.058520023
173	0x3d894641	0.06702853
174	0x3dad999b	0.084765635
175	0xbcf0f876	-0.02941535
176	0xbc1c9986	-0.009558087
177	0x3c5ce023	0.013481173
178	0x3d08e971	0.033425752
179	0x3c38a0c8	0.011268802
180	0xbcff6c8b	-0.031179687
181	0xbdd7b911	-0.105333455
182	0xbb97c124	-0.0046311785
183	0xbc68c9b6	-0.014208248
184	0xbc7c1a5a	-0.015387142
185	0x3b31999f	0.0027099622
186	0x3d11502d	0.035476852
187	0xbbcdd4ce	-0.006281472
188	0xbd0d9ebd	-0.034575213
189	0xba71df61	-0.00092267065
190	0xbc007e90	-0.007842675
191	0x3c52c2b8	0.012863807
192	0xbc0a972b	-0.008458893
193	0xb91a83bc	-0.0001473566
194	0x39307e7a	0.00016831784
195	0x3bd1470a	0.0063866423
196	0xbc5d8928	-0.01352147
197	0x3ba1371f	0.004919901
198	0x3c1b5bef	0.009482368
199	0x3c13e608	0.009027012
200	0xbc0335af	-0.008008405
201	0x3c8565bd	0.016283864
202	0xbc3a8069	-0.011383154
203	0x3c199ee3	0.00937626
204	0x3ba0584a	0.0048933374
205	0x3cabcb8f	0.020971088
206	0x3c256036	0.010093739
207	0x3b5d7299	0.003379023
208	0xbc88fb05	-0.016721258
209	0x3c61aa0d	0.013773453
210	0x3b4985c1	0.003074989
211	0xbc8122cb	-0.01576366
212	0xbc6f5056	-0.014606556
213	0x3c581bf7	0.013190261
214	0x3ade194c	0.0016944795
215	0x3c3184a2	0.010834845
216	0x3cc870d0	0.024467856
217	0x3c577977	0.013151518
218	0xba9b3e1f	-0.0011844075
219	0xbb324eb2	-0.002720755
220	0x3b4c1430	0.0031139962
221	0x3c7dc5ad	0.015489024
222	0xbc043fcb	-0.00807185
223	0x3c547a28	0.012968577
224	0x3c82c940	0.015965104
225	0xbb48df7a	-0.003065078
226	0x3aa4b319	0.0012565582
227	0x3c87e472	0.016588423
228	0xbab8539d	-0.0014063005
229	0xbb2866aa	-0.0025695958
230	0x3ca93fea	0.02066036
231	0x3b273f53	0.0025519922
232	0x3c6a4aa1	0.0143000195
233	0x3703168e	7.81346e-06
234	0x3b0113f8	0.001969574
235	0x3c2ee3d2	0.010674434
236	0x3bb4363c	0.0054996293
237	0xbc370557	-0.011170707
238	0x3c0d81ae	0.008636875
239	0x3bfbc7ee	0.0076837456
240	0x3bd917aa	0.0066251354
241	0x3c8e3ed5	0.017363945
242	0xbc7037aa	-0.014661709
243	0xbb81ddfe	-0.003963231
244	0x3a9d248b	0.001198904
245	0x3da7800a	0.081787184
246	0xbd594261	-0.05304182
247	0xbc0e4e98	-0.00868573
248	0x3e088078	0.13330257
249	0x3dc13daf	0.09435593
250	0xbc6aa046	-0.014320439
251	0x3c90cdd4	0.017676271
252	0x3d62522f	0.055254158
253	0xbd53ecc0	-0.051739454
254	0x3d067432	0.032825656
255	0x3d95db85	0.07317261

std.constant8 f4 [16, 5, 5, 1]
0	0x3d180a6b	0.03711931
1	0x3e85c234	0.26124728
2	0x3d7b18b3	0.061302852
3	0x3cd64c65	0.026159475
4	0xbe4ccadb	-0.19999258
5	0x3e124e88	0.1428777
6	0xbdcd55cf	-0.10026132
7	0x3dda3aa3	0.10655715
8	0x3dadb3ec	0.08481583
9	0x3e0004cb	0.12501828
10	0xbdf71c1a	-0.12065907
11	0x3e67b8f9	0.22629155
12	0x3e4514f1	0.1924627
13	0x3d3f990a	0.04677681
14	0xbd64da02	-0.05587197
15	0x3d7a5bc5	0.061122674
16	0xbe27742f	-0.16352914
17	0x3c4a16cc	0.012334537
18	0x3e0460ae	0.12927505
19	0x3ea8b3db	0.3294972
20	0x3e26b34d	0.16279335
21	0x3ec70a35	0.38874975
22	0x3e358841	0.17727758
23	0x3e848097	0.25879356
24	0x3e382285	0.17981918
25	0x3cb8e7aa	0.022571404
26	0xbdada575	-0.08478824
27	0x3e6d8b44	0.23197657
28	0xbd1b8a5f	-0.037973758
29	0xbe8037bf	-0.2504253
30	0xbea3d786	-0.3200037
31	0xbe0e9dbd	-0.1392736
32	0x3e109280	0.14118385
33	0x3dce11c7	0.100619845
34	0xbcbfe4a7	-0.02342446
35	0x3c22e5b9	0.009942465
36	0xbd75bfe1	-0.059997443
37	0xbe7c0e35	-0.24614795
38	0x3e403ada	0.1877245
39	0x3dc0c9c0	0.09413481
40	0x3e507447	0.20356856
41	0x3e9e92b3	0.30971298
42	0x3cb589d5	0.02216045
43	0x3d35d885	0.044395942
44	0x3cf914ac	0.030405365
45	0xbdb5cdb4	-0.088771254
46	0x3e4c0040	0.1992197
47	0xbd856ebf	-0.06515264
48	0x3e120c5f	0.14262532
49	0xbce41f1d	-0.027846867
50	0x3def94ad	0.116982795
51	0x3e03daff	0.12876509
52	0xbd98cbdc	-0.07460758
53	0x3e46d41d	0.19416852
54	0xbdaac885	-0.08339027
55	0xbd235fce	-0.03988629
56	0xbe9846fe	-0.29741663
57	0xbe360c8d	-0.17778225
58	0x3e53c447	0.20680343
59	0xbe41b2cd	-0.18915863
60	0x3e7ae27d	0.24500461
61	0xbe8c7cb6	-0.27438897
62	0x3e3a746a	0.18208471
63	0xbd4e05ab	-0.050298374
64	0xbdebe92a	-0.11519082
65	0xbee99b01	-0.4562607
66	0xbf2d95e0	-0.67806816
67	0x3e9d6fcc	0.30749357
68	0x3ee2fea1	0.4433489
69	0xbedca918	-0.43097758
70	0x3e69a532	0.22816923
71	0x3e2850f6	0.16437134
72	0x3d7d4811	0.061836306
73	0x3e586aa9	0.21134438
74	0x3ea00518	0.31253886
75	0xbdba10ca	-0.090852335
76	0xbd9f3adb	-0.07774898
77	0xbd58799c	-0.05285035
78	0xbe9a992f	-0.30194995
79	0x3df87811	0.12132276
80	0xbc3beaa9	-0.011469522
81	0x3e6b7ae9	0.22996105
82	0xbe21e80a	-0.15811172
83	0x3e29cfb7	0.16583143
84	0xbda37575	-0.079813875
85	0x3d924be3	0.071433805
86	0x3c6905d9	0.014222586
87	0x3ccc0231	0.024903389
88	0xbe01a8ea	-0.12662092
89	0x3a9e9fed	0.0012102105
90	0xbe07b95e	-0.13254306
91	0xbda27181	-0.079318054
92	0xbe1965a5	-0.1498018
93	0xbd651f0c	-0.05593781
94	0x3d01d392	0.03169591
95	0x3e614be4	0.22001606
96	0x3d362c41	0.044475798
97	0x3b4bfeab	0.0031127136
98	0x3d24b922	0.04021562
99	0x3e81edfd	0.25376883
100	0xbe192ee1	-0.14959289
101	0x3d4ed155	0.050492603
102	0xbe8f8f1b	-0.28038868
103	0x3ea7a3a8	0.32742047
104	0xbe737f36	-0.23778996
105	0xbd2e8a3d	-0.042612303
106	0xbe17e531	-0.14833523
107	0xbe0243b7	-0.12721144
108	0x3d4055ea	0.046956934
109	0x3d8dac15	0.06917588
110	0x3e37cbac	0.17948788
111	0x3e9e0e83	0.30870447
112	0xbe075235	-0.13214953
113	0x3d0354e4	0.03206338
114	0xbe85d5e2	-0.26139742
115	0xbed5c241	-0.41749766
116	0xbedf611d	-0.4362878
117	0x3e410280	0.1884861
118	0x3d81daa7	0.06340533
119	0x3df1fd98	0.11815947
120	0xbe9dae80	-0.30797195
121	0xbe0d64a9	-0.1380793
122	0xbda2ba7e	-0.07945727
123	0x3eacf2ca	0.33778983
124	0xbe1d7066	-0.15374908
125	0xbdb2076c	-0.08692822
126	0xbd58bd8f	-0.052915152
127	0x3e3c9be7	0.18418847
128	0x3e7baf7e	0.24578664
129	0x3e799946	0.24374875
130	0x3dd7b2d9	0.10532159
131	0x3ea3b7ac	0.31976068
132	0xbd2bc9b3	-0.041940402
133	0xbe17eb8f	-0.14835952
134	0x3e83e7c1	0.25762752
135	0xbe938eb0	-0.288198
136	0xbdb3f4d7	-0.08786934
137	0xbe91ae08	-0.28453088
138	0xbd36fa99	-0.044672582
139	0xbea37c63	-0.31930837
140	0xbdc323cf	-0.09528314
141	0xbe7c1ffa	-0.24621573
142	0x3dc05bec	0.09392533
143	0xbe650a8a	-0.22367302
144	0x3c8976fa	0.016780365
145	0x3e7f0934	0.24905854
146	0xbe9a83d6	-0.30178708
147	0xbdf07505	-0.1174107
148	0x3d657f7a	0.056029774
149	0x3e1cdf13	0.15319471
150	0xbc110ddd	-0.008853403
151	0x3e3b7136	0.18304905
152	0xbd173ecc	-0.036925122
153	0xbe26f3c2	-0.16303924
154	0xbdd5abda	-0.10433169
155	0xbc896b99	-0.01677494
156	0x3e3fb544	0.18721491
157	0x3e49661d	0.1966786
158	0xbc4f85a8	-0.0126661435
159	0xbdd8f572	-0.1059369
160	0xbe869142	-0.26282698
161	0x3e534913	0.20633344
162	0x3dfcfed6	0.123532936
163	0x3dec2b36	0.11531679
164	0xbe0df248	-0.13861954
165	0xbeab6739	-0.3347719
166	0xbdecfa59	-0.115711875
167	0x3ebf2b1e	0.37337583
168	0x3e770fff	0.24127196
169	0xbe55b354	-0.2086919
170	0xbe3a01c6	-0.18164739
171	0xbf2c6dee	-0.6735524
172	0x3dbc1f05	0.09185604
173	0x3e0cfc20	0.13768053
174	0x3c86ad93	0.016440189
175	0xbde48661	-0.11158443
176	0xbca88335	-0.020570377
177	0xbce37ec3	-0.027770406
178	0xbcf55e49	-0.029952185
179	0xbe4edfa9	-0.20202507
180	0x3e12c57b	0.14333145
181	0x3c02a2ae	0.007973356
182	0xbd13aeea	-0.036055483
183	0xbea479bd	-0.3212413
184	0xbe9e8f1e	-0.30968565
185	0xbe3432e5	-0.1759754
186	0x3e30a237	0.1724938
187	0xbeb5eadd	-0.3553075
188	0xbece5903	-0.40302286
189	0xbc17c59a	-0.0092634205
190	0x3e251f13	0.16125135
191	0xbf077626	-0.52914655
192	0xbef8a316	-0.48561925
193	0x3ecb30dc	0.39685714
194	0xbe7cf626	-0.24703273
195	0x3ecc855c	0.39945495
196	0x3ecda571	0.40165284
197	0xbe675778	-0.2259196
198	0xbe04a32a	-0.12952867
199	0xbe11074c	-0.1416294
200	0x3cbe5a9e	0.023236569
201	0xbe3da1f5	-0.18518813
202	0x3e231bb3	0.15928535
203	0x3e83bbef	0.2572932
204	0xbe816bb2	-0.25277478
205	0x3d5c1b5e	0.053737037
206	0x3e42241f	0.18959092
207	0xbd8de238	-0.069279134
208	0xbd647182	-0.055772312
209	0xbdddeae7	-0.1083582
210	0x3d04c769	0.032416735
211	0x3e3c298c	0.18375224
212	0x3dd02647	0.10163551
213	0xbe83d699	-0.25749663
214	0x3e8bc6a5	0.2729999
215	0x3d3c8e89	0.04603437
216	0xbe87810b	-0.2646564
217	0x3eb4bd3c	0.35300624
218	0xbe5f793e	-0.21823594
219	0x3de840d6	0.113404915
220	0x3dcd064e	0.10010968
221	0x3ecf14f0	0.40445662
222	0xbe1fed4c	-0.15617865
223	0x3e0ebcb1	0.13939168
224	0xbe14c055	-0.14526494
225	0x3e029a10	0.12754083
226	0x3e76afe6	0.24090537
227	0x3dbcf4d8	0.09226388
228	0x3e17a9d8	0.14810884
229	0x3d8ab0a0	0.0677197
230	0xbe0b2a72	-0.1359041
231	0x3d0b1379	0.033954117
232	0xbef3e3d2	-0.4763475
233	0xbe416fce	-0.18890306
234	0xbe4d28f2	-0.2003515
235	0x3e8df488	0.27725625
236	0xbe533823	-0.20626883
237	0x3d794621	0.060857896
238	0xbe061570	-0.13094115
239	0x3e18c736	0.14919743
240	0x3ec7bab7	0.3900964
241	0xbe48759f	-0.19576119
242	0x3e162f23	0.14666419
243	0xbdebb59b	-0.11509248
244	0x3e8acf3b	0.2711123
245	0xbdc40e54	-0.095730454
246	0x3cb3205c	0.021866016
247	0xbc890f84	-0.016731031
248	0xbe42848e	-0.18995878
249	0xbda9f743	-0.082991146
250	0xbe80c233	-0.25148162
251	0x3e813803	0.25238046
252	0x3dc55ae3	0.09636476
253	0x3dccb256	0.099949524
254	0xbe1cf5a2	-0.15328076
255	0xbad5a808	-0.0016300688

std.constant9 f4 [32, 5, 5, 16]
0	0xbc368863	-0.011140916
1	0x3cf94061	0.030426206
2	0x3e166f13	0.14690809
3	0x3d8b80d1	0.06811679
4	0x3c867768	0.01641436
5	0x3c0b7fd5	0.008514364
6	0x3c4d29e6	0.012522196
7	0xbd3d245d	-0.046177257
8	0x3d17de84	0.03707744
9	0x3d273de5	0.04083051
10	0xbe05df77	-0.13073526
11	0x3d2e2326	0.04251399
12	0xbdce06bc	-0.10059878
13	0x3e12193b	0.14267437
14	0x3cd39409	0.025827425
15	0x3dc1e054	0.09466615
16	0x3d8c13a4	0.06839684
17	0xbbb2c097	-0.0054550874
18	0x3c5e3501	0.013562442
19	0x3bd27cb0	0.0064235553
20	0x3d03adbb	0.032148104
21	0xbe29ae2c	-0.16570348
22	0xbd5e4f58	-0.054274887
23	0x3c7680b0	0.01504533
24	0x3d533676	0.05156561
25	0xbd7f1518	-0.062275976
26	0xbd2abb60	-0.0416826
27	0x3d892bb3	0.06697788
28	0x3d100e6e	0.03517001
29	0x3ca61e47	0.02027811
30	0xbdd4a03d	-0.103821255
31	0xbd4e14ba	-0.050312735
32	0x3d5c2588	0.05374673
33	0xbe0a16d3	-0.13485269
34	0xbd0ecbf1	-0.034862462
35	0x3d41ed77	0.047345605
36	0xbe40ca25	-0.18827112
37	0x3dd1bc4b	0.10240992
38	0x3d8e1b36	0.06938784
39	0x3db4dcb6	0.0883116
40	0x3d503834	0.05083485
41	0x3c6aa302	0.014321091
42	0x3dcd2794	0.100173146
43	0x3d3bb352	0.04582531
44	0x3c44a3f8	0.012001984
45	0x3dc29399	0.09500808
46	0xbd335bb1	-0.043788616
47	0x3dda8319	0.10669536
48	0x3e1d1f3c	0.15343946
49	0x3a792dd2	0.0009505424
50	0xbd4070e4	-0.04698266
51	0xbdc5a607	-0.09650808
52	0x3e35135e	0.17683169
53	0xbcb6c984	-0.022312887
54	0xbd1232fe	-0.03569316
55	0xbcc789b9	-0.024357663
56	0x3d424850	0.047432244
57	0xbe06cdc4	-0.13164431
58	0xbd9587b9	-0.07301278
59	0x3d856026	0.065124795
60	0x3d5b4663	0.053533923
61	0x3d0204dc	0.031742916
62	0xbe01d172	-0.12677553
63	0xbbb2112a	-0.005434175
64	0xbe940358	-0.289088
65	0x3cc2e8f9	0.02379273
66	0x3d7d8640	0.06189561
67	0xbcf6373c	-0.030055635
68	0xbe2b2537	-0.16713415
69	0xbd59318e	-0.053025775
70	0x3cb7cd5f	0.022436796
71	0xbda06969	-0.078326054
72	0xbe27c4ad	-0.1638362
73	0xbdaac2d0	-0.08337939
74	0x3e06120e	0.13092825
75	0x3e073f16	0.13207659
76	0x3bbe94c4	0.005816074
77	0x3c3862a2	0.011253985
78	0xbd2705d9	-0.04077706
79	0xbdb1491d	-0.086565234
80	0xbd0cdcce	-0.034390263
81	0x3b71fce8	0.0036924426
82	0x3ce78e9a	0.02826624
83	0x3e04292f	0.12906335
84	0x3d9be158	0.0761134
85	0x3b57957c	0.0032895496
86	0xbda67a2d	-0.08128772
87	0x39e16a6d	0.00042994638
88	0x3dc7a28f	0.097478025
89	0x3dda7796	0.106673405
90	0xbde92529	-0.11384041
91	0xbe05ec84	-0.13078505
92	0x3df04ad2	0.11733021
93	0xbc5b2b1d	-0.013376978
94	0xbdbbd3a4	-0.091712266
95	0xbbda59f3	-0.006663555
96	0xbc606965	-0.013697003
97	0xbcc31810	-0.023815185
98	0x3dc8eeb7	0.09811156
99	0x3b917841	0.004439384
100	0x3d5e2398	0.054233164
101	0x3da7739a	0.08176346
102	0xbc931eb7	-0.017958982
103	0x3dc83dd2	0.09777416
104	0x3bc44c74	0.0059905592
105	0x3dc2f0bf	0.09518575
106	0x3dd7a355	0.105292
107	0x3ccd6c3e	0.025076028
108	0x3da1bf86	0.07897858
109	0xbd272d95	-0.040814955
110	0xbe0e8928	-0.13919508
111	0x3cdeddf7	0.02720545
112	0xbb8ceedc	-0.004300935
113	0x3d9ac15a	0.0755641
114	0x3b507939	0.0031810536
115	0xbccd2bf2	-0.025045369
116	0xbcb1f705	-0.021724233
117	0x3c40e5c8	0.011773534
118	0x3da537be	0.080672726
119	0xbd8f154a	-0.069864824
120	0x3dacc650	0.084362626
121	0x3cbbb0d4	0.022911467
122	0xbd694a67	-0.05695572
123	0xbd330dab	-0.043714207
124	0xbd2734af	-0.040821727
125	0xbdcb928d	-0.09940062
126	0x3e165a41	0.14682867
127	0x3d12a3be	0.035800688
128	0xbcbea525	-0.023272106
129	0x3c866eb7	0.016410215
130	0xbd808d0e	-0.06276904
131	0x3d7cb9fa	0.0617008
132	0xbd256d43	-0.040387403
133	0xbdbfef1e	-0.0937178
134	0x3d026114	0.031830862
135	0xbd174a17	-0.036935892
136	0x3e1ed4d8	0.15510881
137	0xbd2d0523	-0.042241227
138	0xbc7f3dac	-0.015578669
139	0xbd9670c8	-0.0734573
140	0x3d288d15	0.04115017
141	0x3c997b35	0.018735508
142	0xbdd61996	-0.10454099
143	0x3d9f0c40	0.077660084
144	0x3e1f0c27	0.1553198
145	0x3cc42459	0.023943113
146	0xbaacaab9	-0.0013173438
147	0xbd70086b	-0.058601778
148	0xbd6eef05	-0.058333416
149	0xbca52475	-0.020158986
150	0xbdd2a756	-0.10285823
151	0x3d9ba1a3	0.07599189
152	0x3cabc0ea	0.020966012
153	0xbd1eac39	-0.038738463
154	0x3e06214b	0.13098638
155	0x3d8e6e28	0.069546044
156	0xbdeb682d	-0.11494479
157	0x3dde99ac	0.10869154
158	0xbd577cd2	-0.052609272
159	0xbddab78d	-0.10679541
160	0x3d62d990	0.055383265
161	0xbd57b07b	-0.05265854
162	0xbd8d6baa	-0.06905301
163	0x3d3ebee9	0.046568785
164	0xbce22ed9	-0.02761023
165	0xbdf30524	-0.11866215
166	0xbd6657f0	-0.056236207
167	0xbb90daf5	-0.004420633
168	0xbcba01a0	-0.022705853
169	0xbcdb479e	-0.026767548
170	0x3c8847ff	0.016635893
171	0x3cbf56d5	0.023356834
172	0xbccba896	-0.024860661
173	0xbdbb6bf0	-0.09151447
174	0x3e07b8eb	0.13254134
175	0x3d77f6ac	0.06053798
176	0xbd383907	-0.04497626
177	0x3c9d699e	0.019215401
178	0xbd270323	-0.040774476
179	0x3dd69cc6	0.10479121
180	0x3d8a7763	0.067610525
181	0x3d618132	0.05505485
182	0x3d29901e	0.041397206
183	0x3c469f27	0.012122906
184	0x3d84e612	0.06489195
185	0xbdad3fdd	-0.084594466
186	0xbd04184d	-0.032249738
187	0x3dcd97eb	0.10038742
188	0xbd9a3e33	-0.07531395
189	0x3d6e63be	0.05820059
190	0x3ca85610	0.02054885
191	0x3cead03c	0.028663747
192	0xbc17c1ca	-0.0092625115
193	0x3cc05874	0.023479678
194	0x3cbd5cc6	0.023115527
195	0xbd5ab84d	-0.05339842
196	0x3c3c7130	0.011501595
197	0xbcf30e32	-0.029669855
198	0x3b08b69a	0.0020860792
199	0x3c5dfa35	0.013548424
200	0xbd004f25	-0.031325478
201	0xbddcb372	-0.10776414
202	0x3ca2ab32	0.019857023
203	0xbdb9f4e7	-0.090799145
204	0x3cc36477	0.023851616
205	0x3d7c9f3d	0.0616753
206	0xbcac5d6a	-0.021040637
207	0xbcf0c3cb	-0.029390236
208	0xbbdf2eae	-0.0068109846
209	0xbde85d79	-0.113459535
210	0xbcf546e8	-0.029941037
211	0xbd2bc861	-0.041939143
212	0xbb5ae6ad	-0.0033401654
213	0xbda49c8e	-0.08037673
214	0xbbda36fb	-0.006659386
215	0xbcd24547	-0.0256678
216	0xbe02005a	-0.12695447
217	0x3d6c4a80	0.057688236
218	0xbe24cba7	-0.16093312
219	0x3ca981a0	0.020691693
220	0x3dc73453	0.09726777
221	0x3d9acc6d	0.075585224
222	0xbda6e486	-0.08149056
223	0xbdca069f	-0.09864544
224	0x3c3a7eac	0.01138274
225	0x3dc0918d	0.094027616
226	0xbdc747a3	-0.097304605
227	0x3c8497fe	0.016185757
228	0x3df2be16	0.11852662
229	0x3c158962	0.009126993
230	0xbd228a2e	-0.03968256
231	0xbdbd3e3b	-0.09240385
232	0xbd9c3acc	-0.07628402
233	0x3e0ed266	0.13947448
234	0x3dc3ebe4	0.09566477
235	0xbdb2731c	-0.087133616
236	0xbdfa47f4	-0.12220755
237	0xbdf65a3a	-0.12028928
238	0xbda0617b	-0.07831093
239	0xbd1904ee	-0.037358217
240	0xbea61b40	-0.32442665
241	0x3d98b226	0.07455854
242	0xbddfe971	-0.10933197
243	0x3bbbb4bd	0.005728333
244	0x3e00aac2	0.12565139
245	0xbe4f4ae2	-0.2024341
246	0x3add8c0a	0.0016902697
247	0x3e3e6b2c	0.1859557
248	0xbc3fa687	-0.011697418
249	0x3d6dae9d	0.058027852
250	0xbdbc8305	-0.092046775
251	0xbd89c31f	-0.067266695
252	0x3dfc66ac	0.123242706
253	0x3e29d149	0.16583742
254	0xbda00b00	-0.07814598
255	0x3da736ec	0.081647724

std.constant10 f4 [64, 5, 5, 32]
0	0x3c20bc26	0.009810483
1	0x3c5c0261	0.013428302
2	0x3d183964	0.037164107
3	0xbd4b0537	-0.04956552
4	0x3ca51937	0.020153625
5	0x3ce11c53	0.027479326
6	0xbb873def	-0.004127256
7	0xbc7db042	-0.015483918
8	0x3d8ca51c	0.068674296
9	0x3bc190b3	0.005907142
10	0xbcbc6aac	-0.023000084
11	0x3dd0a91d	0.10188506
12	0x3cf827f1	0.030292483
13	0xbd04b9af	-0.032403644
14	0x3c2f44de	0.010697572
15	0xbcc9358a	-0.024561662
16	0xbd548ee8	-0.0518941
17	0x3bda35a1	0.006659225
18	0xbd1ceed2	-0.038313694
19	0x3ae7e9fc	0.0017693634
20	0xbc3ff181	-0.011715294
21	0xbdc41b59	-0.09575529
22	0x3cff39ad	0.031155432
23	0xbd589e38	-0.052885264
24	0x3d8bd6d2	0.06828083
25	0x3c727146	0.014797514
26	0x3da2dbe5	0.07952098
27	0xbc0f9b29	-0.00876502
28	0xbd23fce7	-0.04003611
29	0xbacb57a6	-0.0015513792
30	0xbcab3196	-0.020897668
31	0xbcebca63	-0.028783029
32	0xbdc989c1	-0.098407276
33	0xbd31d331	-0.0434143
34	0x3be7eb72	0.007077628
35	0xbccb4cfd	-0.024816984
36	0x3d229640	0.03969407
37	0x39d8dac0	0.00041361712
38	0x3bd15dbd	0.0063893483
39	0xbd3253db	-0.043537002
40	0xbd13db30	-0.036097705
41	0x3c50204b	0.012703012
42	0xbbb4ebe3	-0.005521284
43	0x3bd65d8c	0.0065419134
44	0x3c970d5d	0.01843899
45	0x3c96406b	0.018341264
46	0x3c9d4ed6	0.019202631
47	0xbc9dc2f8	-0.019258007
48	0xbcb32c42	-0.02187169
49	0x3d55db67	0.05221119
50	0x3c9b1c91	0.01893452
51	0x3d4f85ef	0.05066484
52	0x3c53bcdf	0.012923448
53	0xbd7c3ab9	-0.06157944
54	0x3d118899	0.03553066
55	0x3b97e164	0.004635023
56	0xbb068e88	-0.0020531733
57	0x3ce44fb5	0.027870039
58	0x3e0079b2	0.12546423
59	0x3c661163	0.014042231
60	0xbd155ab8	-0.03646347
61	0xbd975d08	-0.07390791
62	0x3ccdbdb9	0.02511488
63	0xbc8d6a69	-0.017262654
64	0xbd18fbab	-0.037349384
65	0xbd12da16	-0.035852514
66	0x3c92791a	0.017880011
67	0xbd80e525	-0.06293706
68	0x3c8baf17	0.017051263
69	0x3d3c3e7f	0.04595804
70	0x3d3322a4	0.043734208
71	0xbd339f4a	-0.04385308
72	0xbc614ec1	-0.013751687
73	0x3caea821	0.021320404
74	0x3d05888d	0.032600928
75	0x3d3c2640	0.045934916
76	0xbd3a6fbf	-0.045516726
77	0x3d50a18b	0.05093531
78	0x3d8181fa	0.06323619
79	0x3ccb9cc4	0.024855025
80	0x3d5759f5	0.052576024
81	0x3d11c197	0.035585012
82	0x3b054ebb	0.0020341116
83	0xbc60d869	-0.013723471
84	0x3a83b476	0.0010048288
85	0x3c9980ed	0.018738234
86	0xbe08bfae	-0.1335437
87	0xbc99fdde	-0.018797811
88	0x3b84562a	0.004038592
89	0xbd60d4b7	-0.05489036
90	0x3d2010bf	0.03907847
91	0xbce8b3b5	-0.028406003
92	0x3d1946ab	0.03742091
93	0xbd201cac	-0.039089844
94	0x3d9cc64e	0.07655011
95	0x3d48fca1	0.04906905
96	0x3c221a6a	0.009893993
97	0x3d9670d0	0.07345736
98	0xbcf95d10	-0.030439883
99	0xbce6cbc2	-0.028173331
100	0x3c9db88d	0.01925304
101	0x3d87d7af	0.06632935
102	0x3c5a36d2	0.013318734
103	0xbcb478ef	-0.022030322
104	0x3d911d4b	0.07085665
105	0xbc450b3c	-0.012026604
106	0x3b5526f2	0.0032524434
107	0x3c9b48f5	0.018955687
108	0x3d3e7e30	0.04650706
109	0xbdde3d3e	-0.10851525
110	0x3d1a178a	0.037620105
111	0xbd38c408	-0.045108825
112	0xbddc9b4f	-0.1077181
113	0x3bb1fa12	0.005431422
114	0xbc2e1c27	-0.010626829
115	0x3c088b4c	0.008333992
116	0xbc6ff68a	-0.014646182
117	0x3bba246d	0.005680612
118	0xbb1164ab	-0.0022185247
119	0xbc7473dd	-0.014920202
120	0xbd466354	-0.04843457
121	0x3bf8dc0b	0.0075945905
122	0x3dfb9a8d	0.122853376
123	0xbd045f0d	-0.03231721
124	0xbccd2158	-0.025040314
125	0x3ca498ea	0.020092446
126	0xbc1d00ba	-0.009582693
127	0x3cc8b7cb	0.024501702
128	0xbdbfde62	-0.09368588
129	0xbc05f199	-0.008175277
130	0xbcaf3b05	-0.021390447
131	0xbd767438	-0.06016943
132	0x3ca195fa	0.019724835
133	0xbcff4bd2	-0.031164084
134	0xbd4ccc78	-0.049999684
135	0xbd671e41	-0.056425337
136	0xbbe6b0d0	-0.0070401207
137	0xbb05f46e	-0.002043988
138	0x3a8ef27b	0.0010906005
139	0xbd19ea3f	-0.03757691
140	0xbe39cf02	-0.18145373
141	0xbe3644be	-0.1779966
142	0x3d56b221	0.05241597
143	0xbb8e2539	-0.0043379334
144	0xbe451ef4	-0.19250089
145	0x3c87d82e	0.016582575
146	0x3d1a9b99	0.037746046
147	0xbd498947	-0.049203184
148	0x3cff201d	0.031143242
149	0xbe039102	-0.12848285
150	0x3df4e883	0.119584106
151	0xbcdf3d63	-0.027250951
152	0x3da6ed14	0.08150688
153	0xbd05f13d	-0.032700766
154	0x3debe855	0.11518923
155	0xbc41a640	-0.011819422
156	0xbd5aba26	-0.05340018
157	0x3c918d26	0.0177675
158	0x3c71bfd9	0.014755213
159	0x3be4edb4	0.0069863442
160	0xbd2ce913	-0.042214464
161	0xbd0036d6	-0.031302296
162	0x3cc0efa8	0.023551777
163	0xbd82dac4	-0.063893825
164	0x3d05df41	0.032683615
165	0xbddf1395	-0.10892407
166	0xbc737f9e	-0.014861969
167	0x3c1fcd68	0.0097535625
168	0x3c3e40fe	0.011612175
169	0xbd26f972	-0.040765233
170	0x3b8fe674	0.004391486
171	0x3d957f43	0.07299664
172	0x3d9a6d3b	0.07540365
173	0xbad2045f	-0.0016023031
174	0x3a5776f6	0.00082193257
175	0x3c37a272	0.011208164
176	0xbbcc72bf	-0.0062392647
177	0x3ccea33e	0.025224324
178	0x3d02d232	0.03193874
179	0x3cbcf3b9	0.023065435
180	0xbc9a64ca	-0.018846888
181	0xbd8529ac	-0.06502089
182	0x3d04b947	0.032403257
183	0x3da0c5f9	0.0785026
184	0x3e234a01	0.15946199
185	0xbca59ed8	-0.020217344
186	0x3d5502bb	0.052004557
187	0xbc050458	-0.008118711
188	0xbd5e73d0	-0.054309666
189	0x3cb63834	0.022243597
190	0xbd0c0df4	-0.034192994
191	0xbc70b5b1	-0.014691756
192	0xbd29ba80	-0.041437626
193	0xbc06a7a0	-0.008218676
194	0xbd8aae32	-0.06771506
195	0xbdaa2de4	-0.08309534
196	0x3d7c1450	0.06154281
197	0xbd601da9	-0.054715786
198	0xbcb4c588	-0.022066846
199	0xbcc48322	-0.02398831
200	0xbb315bc4	-0.0027062753
201	0xbbd74f9c	-0.0065707695
202	0x3cbf3ec1	0.023345353
203	0x3d0020e8	0.03128138
204	0x3c84ae90	0.01619652
205	0x3d0651ae	0.03279274
206	0x3d0394ca	0.03212432
207	0x3ccc6d68	0.024954513
208	0x3cede9bc	0.029042117
209	0x3cea830a	0.028626937
210	0x3d01b32b	0.03166501
211	0x3c1f00a1	0.00970474
212	0xbd007a0c	-0.031366393
213	0xbd8172fa	-0.06320758
214	0x3bfc153a	0.00769296
215	0xbcb49622	-0.022044245
216	0x3ba2221e	0.0049479147
217	0xbd527aa1	-0.05138648
218	0x3d83e070	0.064392924
219	0xbcede28f	-0.029038696
220	0xbc4ede86	-0.012626296
221	0xbbf3f015	-0.0074443915
222	0x3d2cdcfa	0.042202927
223	0x3bbfd1d9	0.005853873
224	0xbce14799	-0.02749996
225	0xbd0f0418	-0.034916013
226	0xbcc0e5fc	-0.023547165
227	0xbceb9c4c	-0.028761052
228	0x3d22f6c0	0.0397861
229	0x3cb24cc5	0.021765122
230	0xbc5c13b6	-0.013432434
231	0xbcc2756d	-0.023737634
232	0x3d44415b	0.04791389
233	0x3cb741ff	0.022370337
234	0x3d00462a	0.031316914
235	0x3c22edee	0.009944422
236	0x3c1d8f14	0.009616632
237	0x3c1d5738	0.009603314
238	0xbd3e5bbc	-0.046474203
239	0x3d073bff	0.0330162
240	0xbc3b1c7f	-0.011420368
241	0xbc926547	-0.017870558
242	0x3c04b10e	0.008098854
243	0xbcbfb3fc	-0.023401253
244	0x3c29926a	0.010349849
245	0x3cb3ad2b	0.021933159
246	0xbdcc9168	-0.099886715
247	0xbd18947b	-0.037250977
248	0x3d216a72	0.039408155
249	0x3c38d686	0.011281615
250	0x3d5bd642	0.05367113
251	0x3c0b3131	0.008495615
252	0x3d47664c	0.048681542
253	0x3d0841f9	0.03326604
254	0x3e0eb641	0.13936712
255	0x3c1d9d00	0.009619951
