ml-models/polar-lag0/polar-window10-lag0-cnn.onnx (onnx, 284428 bytes, 8 tensors)

conv1.0.weight f4 [16, 1, 5, 5]
00000000: 2287 8abd c577 fdbc 4988 de3d 3e98 cdbd
00000010: 5540 e03d 5f9a babd 36bb 2abd 9d9e 443d
00000020: 225d 213d d069 0dbe bdf8 013e 49c5 bc3d
00000030: da95 a33d da73 3cbe 67fa 3e3e ba72 913d
00000040: 25a6 fabd 5ca4 273d dc37 fa3c a57f 393e
00000050: 7d6b 223e 433b ea3d dd96 21be 23da ee3d
00000060: 97fb 1fbe 0087 043e 7df0 243e 680f 93bd
00000070: dfdb c9bd ba69 273e d738 1c3e d065 81bd
00000080: 064b 19be 403f 1abe cb7c 31bd 345c 67bd
00000090: 25a5 283e 0904 88bd edd7 fcbd 46ff ac3d
000000a0: f5e3 2fbe a56b 403d 53e5 2ebc cb37 e5bd
000000b0: 9f9d 113d e38a 93bd 24ea 56bd b3ef 733d
000000c0: 33b5 48be 4e40 a83c 9f7a 103e 20cd 08be
000000d0: cafc 3d3e 828a 93bd 3190 19be 8da2 973d
000000e0: 9d00 a7bd e3e4 b03d 288b 21be efc7 ec3d
000000f0: e65a 553d 2a9d 223e 8b2e 1dbd 4d4a 393e
00000100: a675 493c 3f09 01be 5d7f 44bd c0d6 babd
00000110: 42b3 fa3d c0a3 8bbd 0efb e83d bbd0 eebd
00000120: b291 213e a978 4c3d 63b3 85bd de94 0d3e
00000130: 8ec4 1bbe ece8 223e 7d84 4ebe 63f3 f4ba
00000140: 84e2 123e b763 4d3d 0f90 d63d 9e48 013e
00000150: 0714 21bd 135d bfbd 2f9e 98be 6c4f 67be
00000160: c7d9 83be a7c6 1c3d b73a 203e a7e8 9c3d
00000170: 4c04 443e e104 583e 35a7 cf3b 8298 44be
00000180: 4a09 9fbd d6ca aabb c2bd 0c3e 96da 11bd
00000190: bfc2 983d bdc2 2b3e 8ed0 693d 8e8c 193e
000001a0: 599d 0f3e d6f5 17bb cb6d 003e 5fa5 0fbe
000001b0: c59f 063e 0e96 dd3c f405 e9bd a50c babd
000001c0: 6489 9b3d 6ea6 12be 6969 9a3d 84d9 e23d
000001d0: deaf 4bbe 2b1b 56be 8537 b7bd 96f7 efbd
000001e0: ff18 923d b999 8a3d efd1 113e 260d 2abe
000001f0: e591 1bbe e25a d9bd e0c3 5dbe 7d37 c83d
00000200: 1b6f 8ebd 3849 4bbe 91fe 733d 6ee7 473e
00000210: 7ef3 933c 190e 043e 3034 cebd d064 35bd
00000220: 2abd 07be 102d 5bbe dd82 4d3d 7f63 54bd
00000230: 1a74 22be cd05 39be 82c2 12bd 6517 fb3c
00000240: 69aa d83d 6b55 1d3e 5013 613c b75b 2c3e
00000250: 2404 9e3d 4e28 f13d 2587 d4bd 369a 0cbe
00000260: 4142 043e d02c 1abe fc9f ebbd c7ad b43c
00000270: 742d b83d ac0e cfbd 996e 223c f134 cf3d
00000280: c7a6 e8bd 52d0 e6bb 8f3b 18be cab6 70bd
00000290: a0e9 e33c b8b4 913d d21a c1bd d7a5 88bd
000002a0: 84fa dd3d 8522 843c b097 34be 97cf b9bd
000002b0: 97b5 4ebe cf79 a03d 777f ea3d bb82 65be
000002c0: aa6d d73c 5413 62bc a620 0e3e 4380 3ebe
000002d0: 85d2 13be 3e80 333e 657c c63d 0dd3 2e3e
000002e0: 9291 2e3e abbe 48be 33ff d03d 4758 0d3e
000002f0: 5461 b7bd 3a17 1abe d20e d63b f8b2 a3bd
00000300: 2211 fc3d 8774 d8bd b41d 75be 75f9 053e
00000310: c586 d8bc e7be 793d bf1e 30be 927b d7bd
00000320: 51d7 a03d af09 013d 840a ad3d 1d7b 11be
00000330: 0117 2d3c cbd0 5f3d b218 c7bd 7e00 8e3d
00000340: 3320 84bc e1df e3bd 7212 1b3e 38b4 2fbe
00000350: 1839 8abd e526 0bbd 750e d2bc d70d 263e
00000360: 6e36 9d3d ac82 1e3e d517 4fbe 7b06 4f3d
00000370: 0078 1dbd 27d5 823c 88d4 a03d e011 153e
00000380: 01ee 4dbe c7c8 87bd aa04 00be 4594 363d
00000390: 20a6 803d e12e b33d 6ac0 cebb d6a2 6ebd
000003a0: 0ba5 2abe 16cb 613d 9e7d 8bbd 7de1 3abe
000003b0: d2a4 0c3e 921a 4bbe f2d4 1cbd f4b5 c5bd
000003c0: 0b08 1c3d 73de 0f3e 5fd8 623e 071d d13d
000003d0: dc7a bb3d bbff 4d3e d2ff 36be f192 2abe
000003e0: 93e1 27be a8d8 a83d 894f 37be a2bc 2e3c
000003f0: fd27 3d3e 27b3 aebd 5a98 a4bd 5ecd 1dbe
-0.06764056 -0.0309409 0.10865838 -0.100388035 0.1094977 -0.09111475 -0.041682445 0.048002828
0.03939546 -0.13809896 0.12692542 0.09217317 0.07987566 -0.18403569 0.18650208 0.071019605
-0.12238721 0.04092823 0.030544214 0.18115099 0.15861316 0.114370845 -0.15780206 0.116627
-0.15623318 0.12942123 0.16107364 -0.07180673 -0.0985639 0.16348925 0.15256058 -0.06318247
-0.14970025 -0.1506319 -0.043331902 -0.056484416 0.16469248 -0.06641395 -0.12345872 0.08447127
-0.17176802 0.046977658 -0.010674792 -0.11192282 0.03555071 -0.07204225 -0.052469388 0.059554767
-0.19600372 0.020538475 0.14109276 -0.13359499 0.18553463 -0.07204153 -0.14996411 0.07404051
-0.08154414 0.08637407 -0.1577574 0.11561572 0.05208864 0.15880266 -0.038374465 0.1809475
0.012296116 -0.12601183 -0.047973026 -0.091229916 0.12241222 -0.06818342 0.1137601 -0.11660906
0.15778235 0.049919758 -0.06528356 0.1382632 -0.15211698 0.15909165 -0.20167728 -0.0018688258
0.14344221 0.050143924 0.10476696 0.12625358 -0.03932574 -0.093439244 -0.29808185 -0.22588891
-0.25752088 0.038275387 0.15647398 0.076615624 0.19142264 0.21095611 0.0063370713 -0.19198802
-0.077654436 -0.005212168 0.13744262 -0.03560885 0.0745902 0.16773506 0.05708366 0.14995024
0.14024867 -0.00231873 0.12541883 -0.14027928 0.13146885 0.02704909 -0.113780886 -0.09084443
0.075945646 -0.143213 0.07539637 0.11076644 -0.19891307 -0.20908801 -0.089461364 -0.11717145
0.07133674 0.067676015 0.1424024 -0.16606578 -0.15192373 -0.10613038 -0.21656752 0.097762085
-0.069547854 -0.1985215 0.059568945 0.19521877 0.018060442 0.12896003 -0.10068548 -0.044285595
-0.13255754 -0.21403909 0.05017363 -0.0518527 -0.15864602 -0.18068619 -0.03583003 0.030650804
0.10579378 0.15364616 0.013737515 0.16831861 0.077156335 0.11775266 -0.10377339 -0.13730702
0.12915899 -0.15056157 -0.11505124 0.02205552 0.089930445 -0.1011022 0.009914064 0.1011752
-0.11359935 -0.0070438767 -0.1486647 -0.05876807 0.027821362 0.071145475 -0.09428944 -0.066722564
0.10838798 0.016129741 -0.17635989 -0.09072798 -0.20186459 0.07835733 0.11450093 -0.22413151
0.02629741 -0.0137985535 0.13879642 -0.18603615 -0.14435776 0.1752939 0.09691695 0.17072697
0.17047718 -0.19603984 0.102049254 0.13803206 -0.08954111 -0.15047923 0.0065325284 -0.0799312
0.12307955 -0.10569101 -0.23937112 0.13083442 -0.02643145 0.060973074 -0.17199229 -0.10521616
0.07853568 0.031503376 0.08449271 -0.1420712 0.010564567 0.05464248 -0.09721507 0.069336876
-0.016128635 -0.11126686 0.15143755 -0.17158592 -0.06749171 -0.03397264 -0.02564166 0.16216217
0.07676397 0.15479535 -0.20223935 0.05054329 -0.03844452 0.01597078 0.07853037 0.145576
-0.20110323 -0.06630092 -0.12501779 0.044574995 0.06281686 0.08749176 -0.0063095586 -0.05826076
-0.16664521 0.05512532 -0.06811069 -0.1825008 0.13734749 -0.19834355 -0.038289018 -0.096538454
0.038093608 0.14049701 0.22152852 0.10210615 0.09154293 0.20117085 -0.17871025 -0.16657616
-0.16394643 0.08244449 -0.17901434 0.010665091 0.18472286 -0.08530264 -0.08036871 -0.15410373

conv1.0.bias f4 [16]
00000000: c604 53be 7fc3 533c fd26 31be db85 923c
00000010: ffe2 10bd ded7 2e3e f43b 343e cd0d d53d
00000020: 5ec8 263d d916 ce3d 6198 2e3e f748 3b3e
00000030: 91e6 3d3d e1ba 8bbd 579f d7bd d43e edbd
-0.2060729 0.012925028 -0.17300029 0.017886093 -0.03537273 0.17074534 0.17600995 0.10403023
0.04071843 0.100629516 0.17050315 0.18289553 0.046362463 -0.06822754 -0.105284385 -0.11584249

conv2.0.weight f4 [32, 16, 5, 5]
00000000: b8ae c1ba 0585 b13c 0ffd 29bd c7d3 4a3c
00000010: 708f a1bc e65e 66bd e2a7 49bc 1a2b 1ebd
00000020: 8ac1 da3c 8fc6 23bd a73e 863c 22cb 10bb
00000030: 53eb 71bc 103b ee3c c3f9 e53c 7ae4 3b3d
00000040: 9aa1 50b9 9a98 d2ba 00d6 9fbb 9a99 6d3c
00000050: 2dfb 483d 935d 223c fa96 9f3c 3317 b5ba
00000060: c8e4 223d 1ac7 21bb 0717 a43c 9a11 2f3b
00000070: 60e6 ed3c ab26 303d 3886 1bbd 9abd 67bc
00000080: 627d 86bd 8a78 edbc c7fa 9e3c e543 cebc
00000090: 0c26 38bd bd17 763b c8af 09bd d0c9 9bbc
000000a0: 77e8 153c c697 863c 4dc0 7b3c 3aaa 07bc
000000b0: 522e 3d3d 1310 cebc ef2a 3abd 7aad 303c
000000c0: 4304 c53c d222 39bd 8613 bdbb c3e1 bd3c
000000d0: d54e c8bc c099 e53b 1d84 943c cd71 4c3c
000000e0: f5cb 383d 38fa 05bd 4792 343c 1a66 67bc
000000f0: a07e 71bc fa66 fdbc 8fc2 9bbc ff5a 17bd
00000100: d74d b0bc 207a a23c c34c 0abd 36d6 6dbd
00000110: 354f 27bd 3fc0 493d f050 013d efc4 493d
00000120: 93ac 10bc 122f 35bd 803b 31bb c379 a03c
00000130: f8b0 c439 aa4f 21bd 5780 983c e713 2a3c
00000140: 33e5 02bd 4f71 17bd 777f 153c 331d 1bbd
00000150: 679e 983a 93c2 30bd 403c 34bc e209 a7bc
00000160: 67c7 87bc 93f9 0ebd 1dd4 93bd 34ac acbb
00000170: bcd5 d73b a0bd 263d 22a6 223d 23d0 02bd
00000180: 3325 b03c 0719 083d d36d 6ebc ea74 d43c
00000190: 96f5 8bbd fbe8 39ba 6c9d 32bd 60cd d83c
000001a0: 67b0 04bb 9360 68bd 7339 1ebd ca44 fcbc
000001b0: 4b60 3fbd cdda 4dbc f95c 7ebd 60f1 91bc
000001c0: d2ba 21bd 3360 9abb 0d31 c6bc 2f4d e6bc
000001d0: c0bc b83c a73d 80bb dd64 47bd 1346 683c
000001e0: db67 04bd 8dd4 873b e2da 31bd 83b8 fcbc
000001f0: 6a7f 99bc 1d54 7b3c d75c 8c3c 2097 5abd
00000200: e752 8e3c 402f f53c 8fc2 b0bb 3c6f 37bd
00000210: a834 a8bb 6f46 103d 204c 24bd 7bc1 103d
00000220: 7353 1dbd 1285 1cbb 37e1 94bc e0f0 97bc
00000230: 5054 bcbc 00ea 8bbb f7f3 57bd e7f6 e03b
00000240: 2d28 c73c 2730 b63b 733f 97bb 009c 6c3b
00000250: e32d 0c3d 472f f5bc ba4d efbc baa6 123d
00000260: 3d26 bc3c 770d 81bc 38ac 483d 2acd c9bc
00000270: fab5 333d e731 3c3c 13be 0a3d e07f 45bd
00000280: 6060 413c 975a 9abc 2d80 6b3c c75c bb3c
00000290: 9a7b 803a 6c80 d1bc 946b 80bd bac2 b93c
000002a0: 2dc6 bdbc caca 94bc 2a06 46bd 4d61 13bc
000002b0: cb83 24bd 8aec 85bc ba71 30bd 3371 173b
000002c0: 0053 cebc ad91 d9bc 678c c43b 9201 33bd
000002d0: edaa 4dbd eaa7 c2ba 9e30 94bd 536b fabc
000002e0: 77f7 303d 3ba6 a53c 1557 cb3c 944a 8abd
000002f0: 809b 8abc f2ec 4b3d f2cd 2fbd 70ab 0dbc
00000300: 39dc 8abd 2594 003d 9d48 12bd cd26 753c
00000310: a06c f0bc 807f 26bd fafc 463d 9339 e83c
00000320: 23f4 01bd 1287 86bd a49c c63c 5705 e23c
00000330: 823d 053d 32ef 8abd b8ff 42bd 99b0 66bd
00000340: 00ae 07bd aafe d9bc 6607 1ebd f153 7fbd
00000350: 8c3b 5bbd 4fb7 133d 8704 343c 3afa 31bd
00000360: e622 95bd fdf3 7e3a 6de8 333c b89e 37bd
00000370: c0dc 14bd 3a83 363c 7d97 3abd 6709 34bd
00000380: 78f8 4bbd 509d 87ba 658f 33bc e81c 0cbd
00000390: 63c4 b0bc 93fa 17bc 21e0 28bd d721 72bd
000003a0: 15a1 19bd fdab 9d3c 8809 393d ee65 25bd
000003b0: c77d 8fbd 56b3 efbc f2d5 33bd 6a0d 1e3d
000003c0: 59a6 77bb 2f41 3cbd 0710 27bc 2016 013d
000003d0: a86f 14bd 3038 d13c 95d5 4abd e00b 4cbc
000003e0: f725 0d3d 00cc bbbc da85 a4bb aa65 f0bc
000003f0: 350a 61bd df5c 33bd 0d54 b33c 8f29 a2bb
-0.0014776802 0.021669874 -0.0415011 0.012379593 -0.019721717 -0.056242846 -0.012308093 -0.038615324
0.026703615 -0.039984282 0.016387297 -0.0022093733 -0.014765578 0.029080898 0.028073197 0.04587219
-0.00019896627 -0.0016067207 -0.0048778057 0.0145019535 0.049067665 0.009910005 0.01948117 -0.0013816118
0.039768964 -0.0024685324 0.020030512 0.0026713372 0.029040515 0.043005627 -0.037969798 -0.014144326
-0.065668836 -0.028988142 0.01940669 -0.025178859 -0.04495816 0.003755077 -0.033614904 -0.01901713
0.009149662 0.016429793 0.015365672 -0.008280331 0.046186753 -0.02515415 -0.0454511 0.010783548
0.024049884 -0.045199223 -0.0057701496 0.02317894 -0.024451653 0.007006854 0.018129403 0.012478304
0.045116384 -0.03270933 0.011021203 -0.014123464 -0.014739662 -0.030932892 -0.019013671 -0.036952015
-0.021521492 0.019833624 -0.033764612 -0.058065616 -0.040847022 0.049255606 0.03157133 0.049260076
-0.008830207 -0.044234343 -0.0027043521 0.01958931 0.00037515885 -0.039382614 0.018615885 0.010380722
-0.031956863 -0.036973294 0.009124628 -0.037869643 0.0011643887 -0.04315431 -0.011000693 -0.020390455
-0.016574575 -0.03490598 -0.07218192 -0.0052695516 0.0065867584 0.040708184 0.039709218 -0.031936776
0.021502113 0.033226993 -0.014552551 0.025934655 -0.06833951 -0.0007091907 -0.04360716 0.026465118
-0.0020246746 -0.056732725 -0.038629007 -0.03079452 -0.04672269 -0.012564373 -0.062100384 -0.017815292
-0.039484806 -0.004711175 -0.024193311 -0.028112976 0.02255094 -0.0039135995 -0.048680175 0.014176863
-0.032325607 0.004145211 -0.043421634 -0.0308497 -0.018737514 0.015339878 0.017134113 -0.05336678
0.017373515 0.029929757 -0.005394287 -0.044783816 -0.0051332302 0.03522342 -0.04011166 0.035340767
-0.03840966 -0.0023883027 -0.018173797 -0.018547475 -0.022989422 -0.0042698383 -0.052722897 0.0068653706
0.02431115 0.0055599394 -0.004615718 0.0036103725 0.03422345 -0.02992977 -0.029211868 0.035803534
0.022967452 -0.01575349 0.048992366 -0.024633963 0.04387472 0.011486507 0.033872675 -0.048217654
0.011802763 -0.018842025 0.014373821 0.022871388 0.0009802461 -0.025573932 -0.06270519 0.02267586
-0.023165787 -0.018163104 -0.048345722 -0.008995366 -0.04016475 -0.016348142 -0.043077208 0.0023108243
-0.025186062 -0.026558721 0.0059981826 -0.04370267 -0.050211836 -0.0014851068 -0.072358355 -0.030568754
0.04320475 0.020220866 0.024821797 -0.06752506 -0.016919851 0.049786516 -0.042921014 -0.008646831
-0.067802854 0.03139128 -0.03571378 0.014962864 -0.029348671 -0.040648937 0.0485811 0.028347766
-0.031726968 -0.06568731 0.024244614 0.027590437 0.03252936 -0.06783904 -0.047607154 -0.05632076
-0.033124924 -0.026610691 -0.038581274 -0.062335912 -0.053523585 0.03606349 0.0109874075 -0.043451525
-0.07282047 0.0009725688 0.010980708 -0.0448291 -0.036343336 0.011139685 -0.045554627 -0.04395428
-0.049797505 -0.0010346565 -0.010959481 -0.034207255 -0.02157802 -0.00927605 -0.04122937 -0.059114303
-0.037507135 0.01924705 0.045175105 -0.04038041 -0.07006412 -0.029260319 -0.043905206 0.03858701
-0.003778836 -0.0459606 -0.010196692 0.03151524 -0.036239296 0.025539488 -0.049520094 -0.012454003
0.034460034 -0.022924423 -0.005020839 -0.029345352 -0.054941375 -0.04378974 0.021890664 -0.004948802

conv2.0.bias f4 [32]
00000000: 324f b7bb 8e14 2c3c e21a 4ebd ce5a abbd
00000010: cfa5 4abc 1b36 abbc afca ef3c 5584 9a3c
00000020: ebf0 adbc 761e 5bb8 ac6b bb3d 30bb 55bd
00000030: 1703 ac3d 32c7 c93c af4e 61bd f1d8 c8bd
00000040: fc88 0abc ee0e 5cbd 51e3 d2bb a80b 5fbb
00000050: 797c d2bb 79c2 6b3b 3490 493d e628 0f3d
00000060: 28a6 b33c 62ff 82bd 9202 8e3d a3bb 01bd
00000070: f798 483d 35a9 ca3c 4b09 3f3d 65e6 473d
-0.0055941576 0.0105029475 -0.050318606 -0.08366929 -0.012368633 -0.020899823 0.029271452 0.018861929
-0.021233043 -5.2242038e-05 0.09151396 -0.05218047 0.08399027 0.024631117 -0.05500668 -0.09807003
-0.008455511 -0.053725176 -0.0064357896 -0.0034034047 -0.0064235297 0.003597407 0.04920979 0.034951113
0.021929815 -0.06396367 0.06934084 -0.031673085 0.048974004 0.024738887 0.04663972 0.048803706

conv3.0.weight f4 [64, 32, 5, 5]
00000000: 0f63 803c 5293 7fbc 0cd8 7abb dcaf 0abd
00000010: 1d82 fc3c 4819 b4bc 2eee 983c 26ec 0a3c
00000020: efe5 0dbc edd3 0b3d e509 e9bb d2c0 cdbc
00000030: ceef 05bc f1c5 07bd ea4b 713c c5bf 89bc
00000040: a79a dbbc ed36 013d bb40 27bb 123e 03bd
00000050: 4c98 c73c cf6a a0bc ebb4 09bc 3c85 c4bc
00000060: 3649 afbc 350f bdbc e2b4 db3c 9071 9fbc
00000070: dafe a03c 0aa4 dabc 9f7f 7e3c 8791 e6bb
00000080: ce5a c13c dd16 bbbc b423 20bc 1850 de3c
00000090: 4975 ba3c 61df ebbc 1396 fabc 4634 443c
000000a0: e761 0d3d aa4b 6a3c e092 81bb dcbf a93c
000000b0: c96c fbbb e142 bcbc fe71 0a3b 3dbd 23bc
000000c0: d1f3 663c ee91 a33c 45c5 9f3c 950a 9b3c
000000d0: 17ef 3e3d b3c8 873d 8cb1 973d 6bda 28bc
000000e0: 328f 913d badf 99bc c7f0 8e3c 9077 49bb
000000f0: ef0e 91bc 43c1 0c3c a27f 2f3c 98a3 7f3c
00000100: 969b 8b3b 68ae 48bc a24c 13bd fd07 5b3c
00000110: e203 81bd bbe6 2d3d 3c10 af3b f6d1 91bc
00000120: 0a5b 2d3d 4e17 51bd be06 8c3b 1e4c cfbd
00000130: 9a13 8fbb 87af 6a3c 6d83 46bd 01bd 34be
00000140: 310d bdbc f6f3 41be c573 25be 0b11 45bd
00000150: 1b1f 383d a4f2 483c cbd7 aabd 713f e7bd
00000160: 7048 0cbe 73f9 7fbd e927 3dbe 2cc5 e1ba
00000170: fdef 0abe 920d b63c 170a 353d 2add e6bd
00000180: d8f3 4b3d 0bfb eabd 87e1 22be d221 7cbd
00000190: 1c9c 70bc 50fb d1bc fd08 10bc 273a d73b
000001a0: c396 3c3c 9062 80bc 6b86 9a3b 8f85 5dbc
000001b0: 3452 4d3c 186b 4b3b 75f5 0d3d 9a08 ccbb
000001c0: 9539 f33c dc05 17bc 39a7 b73c 4719 8ebc
000001d0: 9830 4a3c a466 1ebc e913 de3c f439 003d
000001e0: 75bc 44bc dcad 27bd f32e 8a3c 1ec0 11bb
000001f0: 687b 633c f5ae 1dbd d8a6 b1bc d12c 49bd
00000200: 7782 43bd bd47 c2bc f8c1 71bd 2e68 f3bc
00000210: 51f7 a0bc be00 e7bc 5606 073d 176a ec3b
00000220: 3038 1a3c 67cc 23bd 32a6 7c3b 25b7 67bb
00000230: b8dd 0cbd d055 d83c 7e50 f3bb 132c b4bc
00000240: cfbb 543c 2709 a83b 9859 063d 8581 17bc
00000250: 4c24 223c 2645 913b c39f 89bc 2bd1 763a
00000260: 1f35 0e3d 8087 113a 32b7 843a 3337 373d
00000270: 3266 333d 3577 de3c 6970 a53c e8d7 443d
00000280: 7818 89bc 6905 f33c 8412 7dbc b047 443d
00000290: 849a 843d d1b7 0bbc eb96 21bd 04fc 94bc
000002a0: 7193 98bc ab72 17bb 761b 103d 37ca 00bd
000002b0: e9fe 6a3b 216c 20bc 7311 923c 7df9 e73c
000002c0: c7c0 0fbd 78f9 a03c 1b40 45bc 9770 f6bb
000002d0: c80a 81bc 6586 9f3c 66d2 4c3c 041f d3bc
000002e0: 354e 2cbd e12f 8d3c 8e27 62bc 8609 15bd
000002f0: d5f3 f1bc c5d9 84bc 79b0 d0bc d19e a6bc
00000300: 5773 0dbd adfe 2ebd ef52 eebc 8bfb 0d3d
00000310: 540f fd3c 6e86 743c 0fee 293c 47e7 2ebd
00000320: 7716 01bd 1d38 893d f245 493d 8976 113d
00000330: 12a3 863d 2d89 663d ff96 5f3d c990 c13c
00000340: a167 1f3d ae65 213b cd88 833d 6bb8 9e3c
00000350: f2b3 6e3d 6d57 72bc bd48 333d e506 863d
00000360: 3ebc 3c3d dfd5 103d fc8d 3d3d 9038 22bd
00000370: 79be fc3c 376c b4bb 1d4d 313d 8cb3 083d
00000380: 67c8 85bc 585a e9bc 806c 97bc f67d a83c
00000390: 624f d4bc 8481 813a 56af 0d3d f0aa 103d
000003a0: 0320 843c d42c 043d f3c5 753d aadd e33c
000003b0: 4ed3 ffbc f6d4 efbc 935b b3bc e640 2abd
000003c0: 066e 83bc ac40 dbbc 3a4a 39bd 3ea4 a4bc
000003d0: eefb 8abd a3e3 5e3c e6ef a7bb 45cf ccbc
000003e0: 152c abba bb2e 553c 8314 98bd b6ea a1bd
000003f0: 0c8b 00bd f075 c0bd c0c7 f4b8 96a1 b4bc
0.015672235 -0.015599089 -0.0038275747 -0.03385912 0.030823762 -0.021984711 0.01866826 0.008479154
-0.0086607775 0.034137655 -0.007111775 -0.025116358 -0.00817485 -0.033147756 0.014727572 -0.016815076
-0.026807142 0.031546522 -0.002552076 -0.032041617 0.024364613 -0.01958218 -0.008404951 -0.023989312
-0.021397214 -0.02307854 0.02681965 -0.01946333 0.019652773 -0.026689548 0.015533357 -0.007036391
0.02360287 -0.02283805 -0.009774137 0.027137801 0.022761004 -0.028793039 -0.03058914 0.011975354
0.034517195 0.014300266 -0.0039542764 0.020721368 -0.0076728803 -0.02298111 0.0021125074 -0.009993848
0.014096216 0.019967046 0.019503245 0.018925944 0.046614733 0.06630077 0.07406911 -0.010305981
0.071073905 -0.018783439 0.017448796 -0.003074143 -0.017707316 0.008590999 0.010711582 0.015602969
0.0042604906 -0.012248613 -0.035961755 0.013368604 -0.06299569 0.04245637 0.0053425115 -0.017800312
0.04232315 -0.051047616 0.0042732647 -0.1012194 -0.0043663504 0.014324076 -0.04846518 -0.17650224
-0.02307758 -0.1894072 -0.16157444 -0.048111957 0.04495154 0.012264881 -0.083419405 -0.11291397
-0.13699508 -0.062493753 -0.18472256 -0.00172249 -0.13568111 0.022223268 0.044199076 -0.112726524
0.049793094 -0.11473664 -0.15906344 -0.06155569 -0.014685657 -0.02563253 -0.0087912055 0.0065682116
0.011510554 -0.015671998 0.004715731 -0.013520612 0.012531806 0.0031039175 0.034657914 -0.0062266113
0.029690543 -0.009217706 0.022418605 -0.017346038 0.012340687 -0.009668026 0.027109103 0.03130527
-0.012007822 -0.04093729 0.01686809 -0.0022239755 0.013884403 -0.03849693 -0.021686003 -0.049115006
-0.047731843 -0.023715848 -0.059022874 -0.029712763 -0.01964918 -0.028198596 0.032965027 0.0072147953
0.00941281 -0.039989855 0.0038551209 -0.0035356965 -0.034391135 0.026408106 -0.007425367 -0.021993672
0.01298423 0.005128044 0.032800287 -0.009247188 0.009896349 0.004433292 -0.016799813 0.0009415324
0.03471863 0.0005551502 0.0010125397 0.044730376 0.043798633 0.027156452 0.020195203 0.048057467
-0.0167353 0.029665666 -0.015446309 0.04791993 0.06474784 -0.008527712 -0.039450567 -0.018186577
-0.018624993 -0.002310912 0.03518244 -0.031442847 0.0035857505 -0.009791405 0.017830586 0.028317207
-0.035095956 0.019650206 -0.01203921 -0.007520746 -0.015752211 0.019473264 0.012501335 -0.025771625
-0.04206677 0.017234745 -0.013803376 -0.036386035 -0.029535213 -0.016217122 -0.025474774 -0.020339401
-0.034533825 -0.042723347 -0.02909228 0.03466372 0.030891098 0.014924629 0.010371699 -0.042701032
-0.031515565 0.06700156 0.04913897 0.035513435 0.06574072 0.056283165 0.05458736 0.02362861
0.038917188 0.0024627256 0.06422577 0.019375047 0.058277078 -0.014791352 0.04377054 0.06544284
0.04607796 0.035360213 0.046277985 -0.039604723 0.030852543 -0.0055060643 0.04328643 0.033374354
-0.01633091 -0.028485462 -0.018484354 0.020567875 -0.025916759 0.0009880518 0.03459104 0.03531927
0.016128546 0.032269314 0.060003232 0.027815659 -0.031228688 -0.029276352 -0.021894252 -0.0415658
-0.016043674 -0.026764236 -0.045236804 -0.020097848 -0.06786333 0.0136040775 -0.0051250337 -0.025001178
-0.0013059402 0.01301163 -0.07425787 -0.07906096 -0.031382605 -0.09397495 -0.00011672033 -0.022049706

conv3.0.bias f4 [64]
00000000: 9938 233d d163 fe3c 990c 983d 4f7c 823c
00000010: e06d c83c 90c1 efbb b734 44bd e414 4b3b
00000020: 72b6 0bbd e622 2d3c 2a66 253d b942 083d
00000030: 1793 6ebb 362d 223c 1baf 20bd c527 453d
00000040: 96f0 0c3d 2b43 7d3c 5032 b83b 528a febc
00000050: 7b97 4c3c 55f6 963d 1352 19bd 04bc f63c
00000060: 74c4 e93c cb30 20bc ed8b 563d 6b3a 533d
00000070: 6f04 453b 6811 c03d e2fb 493d a1ab 673d
00000080: 4a56 96bd 407f 1bbc a448 89bb c7c8 d0bc
00000090: d20e 8cbb 0257 f0bc c274 32bc c53a 18bd
000000a0: efe8 973c 860a b1bb cb96 d63c 1b52 dbbb
000000b0: fda8 2ebd 9471 57bd 102c 6f3d 3b85 33bd
000000c0: 1a46 333b 39b4 42bd 0a78 f33c 5b94 c53b
000000d0: 2ff9 29bc 6fff 3f3b f30e a4bc 424d edbc
000000e0: 6864 92bc ece6 7a3d d6d8 b6bd cd37 b2bc
000000f0: 6502 09bd f08f ae3d d037 163c 5e60 84bd
0.039848898 0.031053456 0.07424278 0.015928416 0.024466455 -0.0073167756 -0.047901835 0.0030987794
-0.03410954 0.0105674025 0.040380634 0.033266757 -0.003640359 0.009898474 -0.039229494 0.04813363
0.034409128 0.015457909 0.005621232 -0.031071816 0.012487288 0.07371203 -0.037431788 0.03011895
0.028536059 -0.009777258 0.052379537 0.051569384 0.0030062457 0.0937832 0.04931248 0.056560162
-0.07340677 -0.009490788 -0.0041895676 -0.025486363 -0.0042742277 -0.029338364 -0.010892095 -0.037165422
0.018543689 -0.005402866 0.02619495 -0.0066931373 -0.04264163 -0.05259855 0.05839163 -0.04382823
0.0027355016 -0.047535155 0.029720325 0.0060296482 -0.010374351 0.0029296537 -0.02002666 -0.028967503
-0.017870143 0.06125538 -0.08928077 -0.021755124 -0.03344955 0.08523548 0.00916858 -0.06463693

out.weight f4 [2, 3136]
00000000: 6c20 56bc ccaf 73bc 5c86 3e3d 5533 46bc
00000010: 2c09 6c3b bbf5 c73c 384a 8eba aa0c 333b
00000020: fb00 90bd 5602 b5bc 63c1 c53c 3dc3 b63d
00000030: bc99 323d 84fa 123d ecc6 49bc 846f 623d
00000040: 43e1 513c 5f6c 1e3c 80bb 3a3c 5722 91bc
00000050: dbce f1bc 2b8c 28bc 6623 cebb 5adc 443b
00000060: 6154 b13c cc98 3a3c b8b7 9cbb 4fcb e33c
00000070: 37b8 b63a 7f24 3ebb 786c 793c 2b2f 41b9
00000080: a6cf 8fbc 1261 4e3b a158 173c 83d5 cfbb
00000090: 7bae 13bd d398 9bb8 0b6b 763c 5296 e63c
000000a0: 9d67 1bbd 3a08 f33c b80a dc3a d43f f03a
000000b0: 7257 473c 0c87 6b3d 488e 503d 8182 f1bb
000000c0: e0a2 69bc 6d44 133c bbb0 03bc 21b8 57bd
000000d0: 7adf b7bd a859 65be f92b 4cbd 761d df3d
000000e0: bfd9 e13c 3136 2dbe e0f0 5fbe ccab 65be
000000f0: 8623 e0bd 0add b0bc 5051 13bc 0fc1 a23c
00000100: 8fde cf3c 8072 023c c6ad 63bd f019 28be
00000110: aa79 57be 4ec7 44be 0346 8c3c 0fb9 4dbd
00000120: 2811 8d3c b1fe 94ba a0c7 b1bd 634a 46be
00000130: d0b1 6bbe 8b91 03be 0e72 f4bd bf79 a7bd
00000140: 62f6 353c 3cd3 5d3d f7d6 7dbd f982 c23c
00000150: f82b 97be 1ed8 44be 2907 4cbc a4d9 f83c
00000160: 84db 313d f5c6 173d c7f6 973b 9797 4a3d
00000170: b8e0 7a3c 2884 2b3d bf2c b1bc 2d3f aebd
00000180: 0f50 c83d 70e3 e93d 7f2f b03d 9014 c0bb
00000190: 7e1a 2c3c 22c3 29bd f5f0 d93d e853 0b3e
000001a0: 4d5f b23d 72d5 c4bd 1723 d2bd 51d2 d43d
000001b0: c90c 153d 81d8 78bc 560f 883c a3c5 883d
000001c0: 54c4 dcbd 5d67 b6bd 6f0f e5bd d2b6 9abd
000001d0: f748 16bd 33c4 83bd e44d 3e3c 805f fcbd
000001e0: ae4e 56bd 3111 15be c828 7dbe 721b 72be
000001f0: 43f2 01be 48bd 62bc fe0b 0bbb 1f22 18bc
00000200: 0f86 9c3b d7c8 933c 390e 023d a3ee 403d
00000210: 264f 8e3d c288 8b3d 51aa 773d dae8 8a3d
00000220: 54dc 9c3d 3551 333c 7249 133d af4b 46bd
00000230: 7ada 123c 7317 553c f139 693d 9eac 8c3d
00000240: 4ac4 9c3d 0b17 b33d 6b47 aa3c d596 24bd
00000250: 3707 75bd d89a 28bc 81d7 353c bdb1 473a
00000260: 6b37 ef3c 22f4 a23d 8414 d03c c225 c2bc
00000270: 3a56 b0bb 28b8 703c bcf1 483c 2e84 8b3c
00000280: 0340 da3c a339 bb3d 65dd ae3c c87a c83c
00000290: 7f8b ce3c 498e 933c bb12 fb3c 14aa bd3c
000002a0: 675d 6f3d 1345 a23c b206 353c ec32 20bb
000002b0: d75f a53c 1951 1fbd f7da 44bd 714b 6abb
000002c0: c033 00bb 7220 efbc 3084 08bd 5f2c 4cbd
000002d0: fa12 45bd e5c3 bc3c a4cf 163b 8ea5 02bc
000002e0: c5ea 83bc 3822 d5bc d6fa 2bbd de4b 8ebd
000002f0: 3cea 88bb 5fc6 c73a 5af3 efbb 6e2c bfbb
00000300: 81ad 293d 80ce d33c 2887 38bd 7083 8ebd
00000310: d4ff d53a ed1d aabc 875e cbbc 290d 17bb
00000320: 445c dfbc eca5 25bc f650 65bb 655b d739
00000330: 1806 efbb 81c8 a6bb 1b0d 98bc de65 d53b
00000340: a020 803c 648f 0abd f393 1cbd 8076 14bc
00000350: 8bb2 443c 1574 9bbc a01f 33bc d0ef f6bc
00000360: 5a8e 13bd 74fb 50bc 9113 113c 8751 893b
00000370: 69df b8bb 78fd 413c d148 dfbc 4968 0dbd
00000380: 11bb 5dbb 5916 cdbc 9e20 083c 6c6f 593c
00000390: b068 92bc 8b10 843b e799 20bd 7454 c83a
000003a0: 005d b4bc c63c 173b 20f9 c8bc 24ad 8abc
000003b0: 65e9 423d 7f93 7ebd 0653 11bb a258 6c3c
000003c0: 06bc 84bb ab97 613d 991e 313d 2172 0a3d
000003d0: e69e adbc 2ec7 61bd 1355 1bbd 82db 13bd
000003e0: 4623 92bb 37c2 08bc 4c60 c53b 5a66 c73b
000003f0: a7cd ddbb 9651 e33b 6fc7 6bbc c6a9 a2bc
-0.013069253 -0.014873456 0.046514854 -0.012097199 0.003601621 0.024409166 -0.0010855859 0.002732078
-0.07031437 -0.02209584 0.024140066 0.089239575 0.043603644 0.03588344 -0.012315493 0.05528213
0.012810054 0.009669392 0.011397243 -0.01771657 -0.029517582 -0.010287325 -0.006290841 0.0030038566
0.02164668 0.011388969 -0.004782643 0.027806906 0.0013940398 -0.0029013453 0.015223615 -0.00018423486
-0.01755507 0.0031490964 0.009237439 -0.0063425913 -0.03605507 -7.419442e-05 0.0150401695 0.02814785
-0.03794061 0.029667009 0.0016787862 0.0018329569 0.012166845 0.057501838 0.05091694 -0.0073702936
-0.014260024 0.008988482 -0.008037741 -0.052665833 -0.08978172 -0.22397482 -0.049846623 0.10894291
0.02756965 -0.16915204 -0.2186923 -0.22428817 -0.109442756 -0.021589775 -0.008991554 0.019867448
0.025374679 0.007961869 -0.055585645 -0.16416144 -0.21042505 -0.19216654 0.017123228 -0.050225314
0.017220095 -0.0011367408 -0.086806536 -0.19364314 -0.23017049 -0.12848489 -0.11935817 -0.08177518
0.0111061055 0.054156527 -0.061972585 0.023744093 -0.29525733 -0.19223067 -0.012452879 0.030377217
0.043422237 0.037054975 0.0046375724 0.049460974 0.015312366 0.04187408 -0.021627782 -0.085081436
0.09780895 0.114203334 0.08602809 -0.0058618262 0.010504363 -0.04144586 0.10641662 0.13606226
0.087095834 -0.09611024 -0.10260599 0.10391677 0.036389146 -0.015188337 0.016608875 0.06678321
-0.10779634 -0.08906434 -0.11184584 -0.075544015 -0.03669068 -0.064339064 0.01161525 -0.12322903
-0.05232113 -0.14557339 -0.24722588 -0.23643282 -0.12690072 -0.0138390735 -0.0021216865 -0.009285479
0.004776723 0.018040104 0.031751845 0.04710258 0.0694869 0.06813194 0.06046516 0.06782694
0.07659212 0.010944654 0.035958715 -0.04841202 0.008963222 0.013006079 0.056940023 0.068688616
0.07654627 0.087446295 0.020786008 -0.040182907 -0.059821334 -0.010290824 0.011098743 0.00076177326
0.02920123 0.07956721 0.025400408 -0.023699645 -0.0053813728 0.014692344 0.012264665 0.017030802
0.026641851 0.09141853 0.021345804 0.02447261 0.025213001 0.018012183 0.03064858 0.023152389
0.058438685 0.019808328 0.01104896 -0.0024444414 0.020187302 -0.0388957 -0.048060384 -0.0035750533
-0.0019562095 -0.029190276 -0.03332919 -0.049847003 -0.0481138 0.023042629 0.0023011947 -0.007974042
-0.016103158 -0.026017293 -0.041987263 -0.06948064 -0.0041783135 0.0015241614 -0.007322711 -0.005834154
0.04142523 0.025855303 -0.04505077 -0.069586635 0.0016326853 -0.020766223 -0.024825348 -0.0023048616
-0.027265675 -0.01011036 -0.0034990883 0.0004107609 -0.0072944276 -0.00508982 -0.018560937 0.0065123877
0.015640557 -0.033828154 -0.038227033 -0.009061456 0.012005459 -0.01897625 -0.010932833 -0.030143648
-0.03602443 -0.012755264 0.008854763 0.004190627 -0.005641867 0.011840217 -0.027256401 -0.034523282
-0.0033833424 -0.02503507 0.008308558 0.013271194 -0.017872185 0.0040302924 -0.039209273 0.0015283958
-0.022017002 0.0023076995 -0.024532855 -0.016928263 0.047585864 -0.062152382 -0.002217473 0.014425429
-0.0040507345 0.055076282 0.04324207 0.033800248 -0.021193933 -0.055121593 -0.03792293 -0.03609801
-0.0044597713 -0.008347086 0.0060234424 0.0060851993 -0.0067689004 0.006937216 -0.01439081 -0.019856345

out.bias f4 [2]
00000000: 620a 9a3d 7f85 6ebd
0.075215116 -0.05823278
