ml-models/all-lag200?/cnn.onnx (onnx, 284428 bytes, 8 tensors)

conv1.0.weight f4 [16, 1, 5, 5]
000000 04 06 2e 3e e9 a4 97 3d 72 09 41 3e 5b e9 35 3b
       0.16994482 0.07404501 0.1885126 0.00277575
000010 f0 7c 45 bc 1b 0f 9d 3d 75 9b 24 3a 05 50 33 3d
       -0.012053713 0.07668897 0.00062792684 0.043777484
000020 00 a3 33 be 68 6c c3 bd c2 b7 53 3e 6f df 15 be
       -0.17542648 -0.09542161 0.20675567 -0.14636014
000030 5f 84 35 be ef 5d 0d bd f8 45 bb bd f0 1c 4d ba
       -0.17726277 -0.03451341 -0.09144205 -0.00078244414
000040 62 97 3c be a6 3c 56 3e 2a 56 58 3e 59 ed 0a 3e
       -0.18417123 0.20921573 0.21126619 0.13567103
000050 1b 3e 00 ba be d5 ca 3d bc 63 17 be e1 be cd 3c
       -0.0004892067 0.09904049 -0.1478414 0.025115432
000060 90 6c 04 be 69 e7 8a bd 5f 5c 3b 3e 80 cd 11 3d
       -0.12932038 -0.06782419 0.18296956 0.03559637
000070 79 2e 07 bd e2 15 6c be 5c 36 8b bd 3c f8 28 3e
       -0.033003304 -0.23055223 -0.067974776 0.16500944
000080 47 ec e4 bd 63 e8 24 3c a5 69 20 3e dd e8 06 3e
       -0.11177879 0.010065171 0.156653 0.13174768
000090 fd 78 9b bd c9 9a 80 3d 42 a5 f4 3c dc 27 3c be
       -0.07591436 0.06279523 0.029863957 -0.1837458
0000a0 f4 9e 42 bc 2c 65 4c bc 2a 12 3d 3d e1 22 3b 3c
       -0.011878718 -0.012475293 0.0461599 0.01142189
0000b0 4c 9b 64 3e f8 52 89 3d 4c fe 4b 3e bc a5 73 be
       0.22324866 0.06705278 0.19921225 -0.23793691
0000c0 b8 c3 80 bc 6f 0f 73 be 54 08 17 be 1b a6 1f 3d
       -0.015718326 -0.23736356 -0.1474927 0.03897677
0000d0 1b 77 5b bd 58 bf f8 bd b0 48 32 bc b6 a0 27 be
       -0.053580385 -0.12145871 -0.010881588 -0.163699
0000e0 b9 7a 58 bd 17 07 a3 bd 27 d0 63 bd 26 96 0e be
       -0.052851412 -0.07960337 -0.05561843 -0.13924465
0000f0 e8 19 c0 bc 85 23 0e be 2a 2d 61 be c7 e8 60 bc
       -0.023449853 -0.13880737 -0.21989885 -0.013727373
000100 d4 b1 82 3b ee 13 0d 3e fc c5 1c 3e 96 ba db 3d
       0.003988484 0.13777134 0.153099 0.10728948
000110 a6 7d ea 3d e2 44 8a bd 98 03 07 bd a8 ea c5 bb
       0.11449747 -0.067514196 -0.03296241 -0.006039936
000120 af 0c 0a 3e 25 6a 50 bd f1 ed 17 3e ff 0c 46 be
       0.13481401 -0.050882477 0.14836861 -0.19340895
000130 57 a7 9a bd bd 94 35 be 6e ea c1 bd f0 db 0a bd
       -0.07551449 -0.1773252 -0.09468542 -0.033901155
000140 27 91 f7 bd f4 c4 ef 3d 77 a5 16 3e 99 7b 9b bd
       -0.120882325 0.11707488 0.14711557 -0.07591934
000150 2a 83 70 bd 5a 6c 02 3e c0 4b 93 3d 79 bf 20 3e
       -0.058718838 0.12736645 0.071921825 0.15698041
000160 57 ed 2e 3e 00 6e eb 3c fa cd 6c 3d a6 2d d0 bd
       0.17082725 0.028738976 0.057813622 -0.10164957
000170 d4 7c 67 3d e2 ea 2f 3d 0c 9a 18 3e 07 75 c8 bd
       0.05651553 0.04294861 0.14902514 -0.09787946
000180 81 04 04 3e cd 23 6d be 4b e7 3f 3e 92 dc 40 be
       0.12892343 -0.23158188 0.18740575 -0.18834141
000190 95 77 93 bc 1a bf 87 3c de 62 13 bc 93 8f 71 3e
       -0.018001357 0.016570617 -0.00899574 0.23589925
0001a0 06 ef 61 3d fe 57 5c bd f0 e1 0f be 6e d6 49 be
       0.05515959 -0.053794853 -0.14051032 -0.19710705
0001b0 9e 0c 32 be 51 31 19 3e c2 27 f3 bd d5 f5 e2 3c
       -0.17387626 0.14960219 -0.118728176 0.027705112
0001c0 6f b8 16 be 70 56 1a be 12 fa 22 be e4 5b e0 3d
       -0.14718793 -0.15072036 -0.15915707 0.10955027
0001d0 e8 cb 69 bd 8a a5 33 be 19 02 6d 3c 5c 36 6e 3d
       -0.057079226 -0.17543617 0.014465832 0.05815731
0001e0 72 da 51 3e e3 4d 14 3d b8 0a 12 3e bc 82 07 be
       0.20493487 0.03620709 0.14261901 -0.13233465
0001f0 87 3d 6a 3e c9 74 d7 3c b7 43 7c 3e 26 74 c2 3d
       0.22875033 0.026300805 0.24635206 0.0949481
000200 a9 12 27 be e9 8c f4 3d 2d 6b ca bd b6 b2 bd 3c
       -0.16315712 0.11940939 -0.098837234 0.023156505
000210 a1 7a 3a be 45 6f 59 3e a0 66 02 be 80 52 99 bd
       -0.18210842 0.21233852 -0.12734461 -0.07486439
000220 78 b1 a4 be d6 7f 96 3e 3c 53 21 be ac 92 1a be
       -0.32166648 0.29394406 -0.15754408 -0.15095013
000230 74 8b c3 bd fc 29 e3 bd 01 f0 05 be 54 b9 65 be
       -0.09548083 -0.11091992 -0.13079835 -0.22433978
000240 30 f2 9a bd 41 43 0e 3e de 0c 7d be 20 67 90 bd
       -0.07565725 0.13892843 -0.2471194 -0.070509195
000250 b8 fa 58 3d 28 bf 86 3e 71 19 02 3e 98 be b4 3b
       0.05297348 0.26317716 0.12705018 0.0055158846
000260 84 d8 e4 bb 1f af 5f 3e 65 b5 18 3e 4a e4 b6 3d
       -0.0069838185 0.21844147 0.14912947 0.089302614
000270 5f 2b 98 3d 51 43 93 bd 03 46 17 be 58 21 e6 3d
       0.074301474 -0.07190574 -0.14772801 0.112368286
000280 c9 ab 2e be 19 2b 6c 3d 48 5b fa bd 96 ec 54 3d
       -0.17057718 0.05765829 -0.12224442 0.05198344
000290 bc ab 7c 3d a1 01 f4 3c ba da 9e 3e 8b a0 b1 bd
       0.061687216 0.029785933 0.3102625 -0.08673199
0002a0 aa bc 9c 3c 2b 59 71 3d 90 0f ed bd 45 93 92 be
       0.01913293 0.058922928 -0.11575234 -0.28627983
0002b0 06 f2 8e be e4 5f 37 3e 2f 27 02 be a2 5f b7 bd
       -0.27919024 0.17907673 -0.1271026 -0.089537874
0002c0 83 0d 61 be a3 f9 49 be fc 21 2f 3e fe f2 91 3e
       -0.2197781 -0.19724135 0.17102808 0.285057
0002d0 47 96 b0 bd 60 44 28 3e ff 3c 14 be a6 69 d3 3d
       -0.08622413 0.16432333 -0.14476393 0.10322885
0002e0 81 cf 51 be dd 62 ba 3d db 74 11 3d ce 4d ea 3d
       -0.20489313 0.09100888 0.035511833 0.11440621
0002f0 7e 63 df bd d3 5e 01 be 58 e4 2e be 65 5e 87 3e
       -0.109076485 -0.12633829 -0.17079294 0.26439205
000300 2b 21 33 3d fc 78 5e 3d 53 28 0a 3d 94 a7 45 3d
       0.043732803 0.0543146 0.033729862 0.048255518
000310 3c a2 d6 bc 4d 33 30 be 47 6e 35 be 78 59 7c 3d
       -0.026200406 -0.1720707 -0.17717849 0.06160876
000320 8c db bb bd 4c 19 a8 bd 61 aa 16 be 00 12 c8 3d
       -0.091727346 -0.0820795 -0.14713432 0.09769058
000330 52 16 2a 3d 92 9b 1b 3c 75 74 bf 3d da 99 20 be
       0.041525193 0.00949754 0.09348384 -0.1568369
000340 eb 92 08 be fb 7e 72 bd 7d 3d 3a be 4c e4 a4 3d
       -0.13337295 -0.05920313 -0.18187518 0.08051357
000350 ec 58 9f bd 0a 4a 84 bc 70 1b 0a 3d c6 24 99 bc
       -0.077806324 -0.016148586 0.033717573 -0.018694293
000360 2c e0 99 bc c3 e3 a9 3d e2 9d 7e 3d 96 d9 5e be
       -0.018783651 0.08295395 0.062162288 -0.2176269
000370 84 86 58 be 73 3d 6b be d0 72 10 3e 8d 28 85 be
       -0.21145064 -0.2297266 0.14106297 -0.260075
000380 c2 db 88 3d 35 45 12 be 47 85 d6 3d 63 40 64 3d
       0.066825405 -0.14284213 0.104746394 0.055725466
000390 9b f8 2e 3e 64 b6 d5 bd b4 6d e0 3d 8e ed b3 3d
       0.17087023 -0.10435179 0.10958424 0.08785544
0003a0 b9 e7 6f be 84 05 6a 3d 2c c2 11 3e 89 0e 62 be
       -0.23428239 0.057134166 0.14234227 -0.22075857
0003b0 43 f3 08 3d 0e 65 d4 bd a0 77 ab bd ff c0 f4 3d
       0.033435117 -0.10370837 -0.08372426 0.119508736
0003c0 7d d7 17 3e eb a5 c4 bd ef 9f 1e be 6a 50 3d 3d
       0.14828296 -0.09601959 -0.15490697 0.046219267
0003d0 88 80 23 be 8a eb 91 3d 16 e7 6b be d4 32 14 3e
       -0.15967 0.07125004 -0.23037371 0.14472514
0003e0 6d 15 10 3e 7a be 30 be ad 5e 49 be 18 19 ba bd
       0.14070673 -0.17260161 -0.19665022 -0.090868175
0003f0 d7 6f 03 3e 35 ac 11 be 86 46 39 bc 62 02 08 3e
       0.12835632 -0.14225848 -0.011308318 0.13282159

conv1.0.bias f4 [16]
000000 ba 2f 2a be f8 40 7b bc ab 72 a9 3d 3b d7 c6 bd
       -0.16619769 -0.015335314 0.08273824 -0.09709021
000010 40 5e 05 3e ab d8 29 3e 08 2d c9 bc 91 3b 23 3e
       0.13024235 0.16586559 -0.024557605 0.15940692
000020 9f ea d3 bd 0c aa 18 3e 85 cc 67 be 66 1b f1 3d
       -0.10347485 0.14908618 -0.22636612 0.11772804
000030 3c 19 c3 bc d1 48 48 bd 3c dc 0c 3e f6 e1 37 3e
       -0.023815744 -0.048897568 0.13755888 0.17957291

conv2.0.weight f4 [32, 16, 5, 5]
000000 ef e0 ff 3c 14 a5 1d bd 3e cc 66 bc a6 09 fa bc
       0.031235186 -0.03848751 -0.014086781 -0.030522179
000010 2d 89 e8 bc c4 f2 15 3d 41 3e 42 3c c4 5f 66 bd
       -0.028385723 0.036608472 0.011855663 -0.056243673
000020 02 5c 3c bd 41 bd 60 bc 72 f7 02 3d 88 66 d9 3a
       -0.045986183 -0.013716997 0.031974263 0.0016586343
000030 5a d8 17 bd c5 1d 73 bd c9 15 01 bd c6 e0 37 bc
       -0.037071563 -0.059354562 -0.031514917 -0.011223024
000040 6a c9 8e bd 58 13 82 3b 57 73 d8 bc 01 81 79 bd
       -0.069720104 0.003969591 -0.026422186 -0.060914043
000050 1a 7c c3 3c 53 29 82 bd 32 e5 60 bc e4 23 98 bd
       0.023862887 -0.06355538 -0.013726519 -0.074287206
000060 9e fb d4 ba 99 f1 84 bc 76 88 04 3d 61 d3 69 3c
       -0.0016249304 -0.016228484 0.0323567 0.014271588
000070 6c 7e 10 3b 83 e0 96 bc 0d aa 29 bb 1c 47 9d 3c
       0.002204801 -0.018417602 -0.0025888712 0.019198947
000080 ef 60 48 3c fe cd 50 3c 76 a0 e1 bb 0e 9b aa bc
       0.012230142 0.012744425 -0.0068855835 -0.020825889
000090 19 6c 2f bc 38 18 25 bc 4a e4 5e ba bf 5d ad bc
       -0.010706925 -0.010076575 -0.00085026457 -0.021162866
0000a0 e5 2b 45 3c bb 7c 16 bd ef 57 6f 3c c4 db 49 bd
       0.012034391 -0.036740046 0.014608367 -0.04928185
0000b0 ed 5c 0e bd 6a cd 37 bc c4 10 89 bd 89 98 5d bd
       -0.03475659 -0.011218408 -0.06692651 -0.054100547
0000c0 96 ea 44 bd 48 68 d7 bc d8 43 78 3c 06 12 31 bd
       -0.04807528 -0.026294842 0.015152894 -0.04323008
0000d0 36 fc 42 bd 16 ac a1 bd d7 8d 8a bd 8c 29 ae 3c
       -0.04760381 -0.07894151 -0.06765335 0.021260045
0000e0 d4 dc 1c bd ce 76 bd bd 5d 6e 73 bd 42 78 81 bd
       -0.038296536 -0.09251176 -0.059431423 -0.063217655
0000f0 d0 cc c6 bc 2d a4 51 bd 19 b4 98 bc 87 22 3e bd
       -0.024267584 -0.05118196 -0.018640565 -0.046419647
000100 b4 a3 7c bd e1 53 95 3c 47 86 89 3c 9d bc 83 bd
       -0.061679557 0.018228473 0.016787661 -0.064324595
000110 8f 5e 82 bd da 92 03 bd 39 46 02 bd 63 a9 6c 3b
       -0.06365692 -0.03212247 -0.03180525 0.0036111705
000120 a8 e0 30 bd f4 04 94 bd 18 f6 8f bc 9c dd 8d bc
       -0.043183 -0.07227507 -0.017573401 -0.017317586
000130 3d cf 84 bc 04 1b 84 bd 44 0a 62 bd aa 23 2d bd
       -0.0162121 -0.06450465 -0.05518557 -0.04227034
000140 32 0a 8c bd a4 7f 80 bd 10 b0 84 bd f5 61 8c bc
       -0.06837882 -0.062743455 -0.06478894 -0.017136553
000150 0a 02 08 3d c1 a5 00 3d d7 3d 9e bc 8c b3 bb 3c
       0.03320507 0.031408075 -0.019316597 0.022912763
000160 6b 41 06 bd 81 8d ca 3c ed 90 1f bd 6f 4c 98 bd
       -0.03277723 0.024725677 -0.03895657 -0.074364536
000170 95 de 73 bd e7 96 de 3c de cd 41 3d 3a 1d a8 bc
       -0.059538443 0.027171565 0.04731547 -0.020521749
000180 1e 46 03 bc 0a b0 91 bd 1d c5 82 3c 41 0d d2 bc
       -0.008012323 -0.07113655 0.015963132 -0.025641086
000190 16 3c ae bc 45 54 38 bd 35 97 2b 3d f6 69 1b 3c
       -0.021268886 -0.04500224 0.04189225 0.009485712
0001a0 26 d4 8a bd 40 59 f8 bc 1f 33 ee bc fd 11 44 bc
       -0.06778745 -0.030315995 -0.02907711 -0.011967179
0001b0 3f b0 8b ba 2e 9d 91 bd 90 b3 20 bb 80 a6 a6 bd
       -0.0010657384 -0.07110058 -0.002452109 -0.08137226
0001c0 cb ff da bb e6 50 9c bd b6 df 9a bd 0d e5 67 bd
       -0.006683325 -0.07632618 -0.07562201 -0.056614924
0001d0 65 2c d5 3c bf c6 35 bd 16 bd 65 bc 2d 7b 16 bd
       0.026022146 -0.044378992 -0.014022132 -0.036738563
0001e0 5a 4f a3 bd 0d d4 8d bd b1 71 a6 bb 1d cc 6a bd
       -0.079741195 -0.06925211 -0.005079471 -0.057323564
0001f0 d1 fb 9a 3c 63 81 93 bd 22 fb 0a 3d 64 5a d2 bc
       0.018918904 -0.07202413 0.033930905 -0.025677867
000200 29 6e 0d bd 28 08 a6 bb e1 08 a9 bc d1 39 b2 3d
       -0.034528885 -0.0050668903 -0.020634117 0.08702434
000210 49 57 69 bd 01 8b ca ba d6 7d 78 3b 28 b6 7b bb
       -0.056968007 -0.0015452803 0.00379168 -0.0038408134
000220 5a 26 bf 3c 54 13 86 bd 56 18 ab bb 4a 58 f2 3c
       0.023333717 -0.06546655 -0.005221407 0.029583115
000230 e0 2f 81 3c 38 fd 31 3d 53 09 94 bd 32 22 ac bb
       0.015769899 0.04345438 -0.07228341 -0.0052531
000240 54 c0 d2 bb f9 6a 21 bd 90 e7 5e 36 83 dd 0e bd
       -0.0064316187 -0.039408658 3.3215365e-06 -0.03487922
000250 a7 43 0d bd 66 b6 cd 3c 99 f7 19 bd 1c 54 a5 bb
       -0.034488346 0.025111388 -0.037589643 -0.005045427
000260 77 fc 29 bd 43 2e 8c bb f4 20 76 3c 63 b0 16 bd
       -0.041500535 -0.0042779758 0.015022505 -0.03678931
000270 0b d0 30 3b f7 ac 6b bd 4c dd 33 3d 35 9a 04 bd
       0.0026979472 -0.057538 0.043912217 -0.032373626
000280 85 07 a6 bc 79 16 5d bb 54 32 02 bd 88 23 88 bd
       -0.020267257 -0.0033735319 -0.031786278 -0.06647402
000290 dd 3d 0d bd f4 18 86 3c 5e f8 7b bd cb 7e 9e bd
       -0.034482826 0.01636932 -0.06151616 -0.077390276
0002a0 8b 94 4b 3c 49 8a 78 bb 9a 99 45 bd 36 77 aa bb
       0.012425552 -0.0037924221 -0.04824219 -0.0052021993
0002b0 fc 0b 96 bd 41 4a 83 bd 73 7a 34 bd 9c ab 5b bd
       -0.073265046 -0.06410647 -0.04406209 -0.053630456
0002c0 c5 10 6c bc 85 5c 86 bd 0b 23 2b 3a 13 18 e7 3b
       -0.014408295 -0.065606155 0.0006528354 0.0070524304
0002d0 2a 27 cc 3c 0b 40 4b bd 1b f5 a2 bd 49 87 9f bc
       0.024921019 -0.049621623 -0.079569064 -0.019473689
0002e0 d4 f9 97 bd 97 ca 4d bd 12 e4 1d bd e1 91 c6 bb
       -0.07420698 -0.050242033 -0.038547583 -0.0060598706
0002f0 39 1d 9b bd 24 9a 91 bb 59 cd 8a bc b7 fb fc bb
       -0.07573933 -0.004443424 -0.01694362 -0.0077204364
000300 17 dc 64 bc 83 c9 82 3c c5 be 9a bd b0 23 98 3c
       -0.013968489 0.015965229 -0.07555918 0.018571705
000310 bc ac 18 bc 7f 79 b7 3c b7 1a 1c bd 34 18 93 bd
       -0.009318527 0.022396801 -0.038111415 -0.07182351
000320 60 7e bb 3c 1a 81 66 bc 1a 3d c8 3c 63 70 96 3c
       0.022887409 -0.014068866 0.024443198 0.018364137
000330 6e 02 d0 3a c0 39 76 3c 93 db 6a 3c 3b 9a 9c bc
       0.0015869865 0.015028417 0.014334577 -0.019116512
000340 da 5c 92 bb 1a 38 b1 bb c6 a3 1e bd 43 05 40 bc
       -0.004466635 -0.005408299 -0.038730405 -0.0117200045
000350 76 74 f9 bc 5d 68 ab 3c 3c de 11 3c 47 09 ee bc
       -0.03045104 0.020923788 0.008903082 -0.029057158
000360 05 1e 39 3d aa cd 27 3d 3a c6 c5 3c 27 af fb 3c
       0.045194644 0.04096762 0.024142373 0.030723168
000370 e7 07 7c bb b0 eb f0 3c 73 ff f4 3c b3 43 2b bb
       -0.0038456859 0.02940926 0.029906964 -0.0026132881
000380 0d 89 55 bc ab 3f 75 bd 46 aa a6 bc e0 63 4f 3c
       -0.013033164 -0.05987517 -0.020344865 0.012658089
000390 9d 20 c3 ba 13 57 d7 3c d1 d8 b3 3c 35 4d 65 bd
       -0.0014887039 0.026286637 0.021953972 -0.055981833
0003a0 fb c3 9a bc 0d ba 7a bd 3c fc a0 bc aa c7 2c 3c
       -0.018892279 -0.061212588 -0.019651525 0.0105456505
0003b0 b1 ff f9 3b 6a 0a 8c bd 6e 96 88 bd 51 ef af bc
       0.0076293577 -0.06837924 -0.06669317 -0.02147642
0003c0 5f 36 f4 bb 8b ec 23 bd ed 50 f5 3a c7 70 35 bd
       -0.0074527706 -0.040020507 0.0018716134 -0.044297006
0003d0 03 2a a7 bc 6a 2e cc 3c 7d 00 f2 bc a0 03 89 bd
       -0.020405775 0.024924476 -0.029541248 -0.066901445
0003e0 c1 ca bb bb c1 f3 63 bd 42 92 36 3d 10 64 82 3c
       -0.0057309573 -0.055652384 0.044573076 0.015916854
0003f0 40 b7 27 3d e0 77 c0 bc c0 26 93 3b f8 fc 0a bd
       0.040946245 -0.02349466 0.0044907033 -0.033932656

conv2.0.bias f4 [32]
000000 de 9d f7 3a 55 45 a5 3d 0c f6 b3 39 d7 26 2b 3c
       0.0018891653 0.08069865 0.0003432486 0.010446272
000010 cb 99 03 bd c2 96 06 bb d2 b7 43 3b 44 9e 8b 3c
       -0.03212909 -0.0020536636 0.0029864204 0.01704324
000020 22 33 94 bb 7e 61 cf 3c 43 00 c0 3c 55 4d 87 bd
       -0.004522697 0.025315043 0.023437625 -0.06606547
000030 45 36 1c bd 21 83 4c 3a 29 51 5d 3c c2 5f d9 bc
       -0.038137693 0.0007801522 0.01350812 -0.026534919
000040 14 8a 14 3d f9 48 ac bc e5 f4 05 bd 64 b5 8a bd
       0.036264494 -0.02103089 -0.032704253 -0.06772879
000050 07 47 43 bd 4b ab 40 bd 1c 07 33 3d c0 6f 30 bc
       -0.04767516 -0.047038358 0.043707952 -0.010768831
000060 3d b2 57 3c 22 ec 46 3d 4d bf 2f bd 73 c8 05 bd
       0.013165054 0.048565038 -0.042907048 -0.032661866
000070 31 01 37 3c 4a b3 91 3c b0 3d 19 bd a6 ce 7d bc
       0.011169718 0.017785687 -0.037412345 -0.015491163

conv3.0.weight f4 [64, 32, 5, 5]
000000 43 c1 a2 3c 27 56 6f 3c a3 3e 02 bc 4d 2c 04 3b
       0.019867545 0.014607943 -0.007949504 0.0020168007
000010 8f 4f 14 3d 1b fc 49 3c 86 9b d2 3c 5a ab 6b bb
       0.036208685 0.012328173 0.025708925 -0.0035960288
000020 23 dc 67 3c 9b b9 32 3c 78 00 06 bd 71 2d 76 3c
       0.014151606 0.01090851 -0.03271529 0.0150254825
000030 d3 89 ed 3c 21 70 87 3c e1 b4 80 3c a2 9e 4c bc
       0.028996384 0.01653296 0.01571125 -0.012488993
000040 78 66 ad 3b b1 13 e8 3c d0 76 27 bd 60 61 02 bd
       0.0052917562 0.028329702 -0.040884793 -0.031831145
000050 89 b5 0a 3d 6a 43 ce bc 37 6b a7 3c a7 37 01 bd
       0.03386453 -0.02517863 0.020436866 -0.031547215
000060 b8 b6 82 bc 8e c6 0e bd ce 34 37 3c 08 be ee 3c
       -0.015956268 -0.034857325 0.011182023 0.029143348
000070 50 84 68 3c 1e 62 65 bc 1f a3 b8 3a 8d ff 88 3c
       0.014191702 -0.014000444 0.00140867 0.016723419
000080 32 40 a4 bc 78 cc ca bc 4c 75 b5 3c 34 3f 19 bd
       -0.020050142 -0.024755701 0.022150658 -0.03741379
000090 c3 69 9d 3c 81 b7 3c bc 1a 37 9b bc 0a fd e9 bc
       0.01921547 -0.01151836 -0.018947173 -0.028563041
0000a0 05 2c 55 bd 6e 50 1a bd 70 ac e8 bc 7e 2b 03 bd
       -0.052043933 -0.03767436 -0.028402537 -0.0320239
0000b0 df 3b c1 3c d8 13 da bb 78 ca 55 bc 2d 64 b1 bc
       0.02358812 -0.0066551976 -0.013048761 -0.021654213
0000c0 f3 17 36 bd 79 55 d4 3c c8 4c e0 bc 30 75 b3 bc
       -0.044456434 0.025919663 -0.027380362 -0.021906465
0000d0 ef 81 91 bc 30 6e 54 bb a6 bc 26 3c 77 dd bc 3b
       -0.017762152 -0.003241431 0.010176813 0.0057637054
0000e0 70 a7 0f bb 67 95 15 bd 36 86 d1 3c 08 1e 59 bb
       -0.002191987 -0.036519434 0.025576692 -0.0033129472
0000f0 e3 b6 28 bd a4 97 38 3c a7 dc 80 3c c5 b3 11 bc
       -0.04119004 0.011266623 0.015730215 -0.008892958
000100 61 c9 30 bc 66 6b 6d bd e9 86 c5 bb f9 65 2f bd
       -0.0107902 -0.05796375 -0.0060280454 -0.042821858
000110 69 b4 50 3c ee cf f8 3c 5c 80 37 bc f3 f4 da bb
       0.012738326 0.030372586 -0.011200037 -0.0066820323
000120 b8 d0 06 bd d0 86 ac 39 76 40 9c 3b fd 5a df 3c
       -0.032913893 0.0003290684 0.0047684265 0.027265066
000130 44 3e e6 3c f1 8e d2 ba 37 b2 94 bc 45 af 4b bb
       0.028105862 -0.0016064328 -0.018151386 -0.003107981
000140 99 52 ee bc c8 cb 6c 3c 5a d2 01 bd e8 53 ae 3c
       -0.02909212 0.014452882 -0.031694748 0.021280244
000150 92 86 9e bc ad a7 3b 3c 41 58 6d bc 84 7e a0 3a
       -0.019351278 0.011453551 -0.014486373 0.0012244736
000160 bb a2 87 3c c4 67 1a 3c f0 fd 06 3c 22 91 21 bc
       0.016557088 0.009424154 0.008239254 -0.0098612625
000170 7f 37 b7 bc 54 04 af 3c 3e 5a 90 3a 59 a8 1b 3c
       -0.02236533 0.021364368 0.0011013222 0.009500586
000180 d4 54 9c bb c0 70 55 3c c4 77 22 3b d7 2f 0f 3c
       -0.0047708545 0.01302737 0.0024790624 0.008739433
000190 a4 69 28 bc 8c cc 01 bd 7c ec 2d bd d9 db ad 3a
       -0.010279093 -0.03168921 -0.042461857 0.0013264372
0001a0 f1 69 62 3b 47 8c 1c bd 1d c1 96 bc e0 a6 c8 3c
       0.003454801 -0.038219716 -0.01840263 0.024493635
0001b0 e7 0d 12 bd bb f2 90 3c f5 40 77 3c 60 d7 1f bd
       -0.03565779 0.017693868 0.015091171 -0.039023757
0001c0 a4 a1 5e 3c 71 f6 1a 3c 20 e0 16 bd 77 98 96 3a
       0.013588343 0.00945817 -0.036834836 0.001148953
0001d0 fa e6 f2 bc df 8f 1d bd 12 15 11 3b e9 da 8e bc
       -0.029651154 -0.038467284 0.0022137803 -0.017438369
0001e0 ad 33 53 bc 0c 42 a7 bc b1 69 03 3b ac 5d 7c 3b
       -0.012890738 -0.020417236 0.002005201 0.0038507981
0001f0 67 cf 7f bc 5c 17 d4 bc 9e 04 17 3c e7 d5 f7 3c
       -0.015613413 -0.025890045 0.009217409 0.030253364
000200 f2 3d 0c 3c b7 68 70 bb 13 9d 88 3c c1 37 b1 3c
       0.008559691 -0.0036683509 0.016676461 0.02163303
000210 e2 98 0d 3c d4 f5 0c bd 6e 78 bb 3c c6 42 11 bd
       0.008642407 -0.034414127 0.022884574 -0.03546407
000220 6b 2e 1f bd 4e b3 95 3b d9 82 eb bc 97 92 ea bc
       -0.038862627 0.004568494 -0.028748916 -0.028634353
000230 71 c7 54 3b cc 70 56 3c a6 6c 8b 3c a8 d2 7a 3c
       0.003246751 0.013088416 0.017019581 0.015309013
000240 b5 a7 de 39 4e 31 c7 3c f1 18 96 bc cc ba 0d bd
       0.0004246809 0.024315502 -0.01832244 -0.03460197
000250 86 73 9d bb a1 40 70 3c 19 6e e0 bc 00 93 29 bd
       -0.004805031 0.014663846 -0.027396249 -0.041399956
000260 c7 6f 1f bd ff 08 39 bc e5 b2 01 bd ab 65 2a bd
       -0.03892496 -0.011293649 -0.031664748 -0.041600864
000270 67 51 fc bc 1f ee 00 bc 48 c8 19 bc 21 88 ed bc
       -0.030800534 -0.0078692725 -0.00938613 -0.028995575
000280 fa 48 48 3b 4f 58 f2 bb 3c f0 c6 bc 3c 75 5f bc
       0.0030561076 -0.007395781 -0.024284475 -0.013638791
000290 28 00 87 bb e5 33 0c 39 ba 22 bf bc 12 90 2d bd
       -0.0041198917 0.00013370773 -0.023331989 -0.042373724
0002a0 64 9a a8 bc e3 19 fa bc a8 77 9d 3c 91 42 32 bd
       -0.020581432 -0.030529922 0.019222096 -0.043520514
0002b0 ab 9d b0 3c 8e f9 a5 3c 62 f4 ea b7 73 4e 39 bc
       0.021559557 0.020260599 -2.8008773e-05 -0.011310208
0002c0 ca a3 15 bc f7 93 6f bc 6c 22 22 3b ab a6 d5 bc
       -0.009133289 -0.01462268 0.0024739755 -0.02608045
0002d0 6e d4 a7 bc e9 b8 c6 bc 88 b7 b3 bc 77 9c b3 3b
       -0.020487037 -0.024258094 -0.0219381 0.0054812985
0002e0 56 7a 6a bc 30 95 74 3c ce cd fe bc 65 b3 28 bd
       -0.014311394 0.014928147 -0.031103995 -0.04118671
0002f0 a0 e6 ae 3c f8 82 d0 ba ed 04 b5 bc 4b 67 61 bc
       0.021350205 -0.0015908172 -0.022097075 -0.013757537
000300 c6 9a 19 3c 76 01 93 3c d5 53 49 bc c3 5c 08 bd
       0.00937528 0.017945033 -0.0122880535 -0.03329159
000310 91 b9 38 bd 84 ef 37 3c 13 6d 48 3c d1 d0 82 bb
       -0.045098845 0.011226539 0.012233037 -0.003992178
000320 48 fa 8a 3c 0e c5 f8 3a c1 d7 da bc bc 1b 0c bd
       0.016965047 0.0018979625 -0.026714208 -0.034206137
000330 96 1b 1c bd 99 61 d9 bc 43 5e e1 bb 4d c2 85 3b
       -0.038112246 -0.026535796 -0.006877692 0.0040820003
000340 e3 50 a0 bc 31 47 95 3c 7b e9 3a 3c 44 79 37 bb
       -0.01956982 0.018222423 0.011408205 -0.0027995864
000350 c3 7f b6 3c bc 7a a1 bc bf 05 eb 3c 05 be 91 3c
       0.022277718 -0.019711845 0.028689263 0.017790804
000360 75 af 77 bb 2b 29 73 3c 5b 9a f4 bb 5b e2 cc 3c
       -0.003779379 0.014841358 -0.0074646897 0.025010278
000370 0d 9f a0 bc 96 e0 0d bc b9 3a 12 bc 0c 96 d0 3c
       -0.019607091 -0.0086595025 -0.008925133 0.025462173
000380 c5 fd 75 bc 81 32 93 3c d0 f7 98 3b 78 fe 5e bc
       -0.015014117 0.017968418 0.0046682134 -0.013610475
000390 76 75 79 bb 63 c7 2c bc 3d 17 05 bd 7d e6 11 bd
       -0.0038064397 -0.010545584 -0.032492865 -0.0356202
0003a0 4b 5b 12 bd 9b ad 5a 3c 99 5c 02 3c eb f5 96 bc
       -0.035731595 0.013347055 0.007956647 -0.01842781
0003b0 cd 9c 3a bc ab 7e 69 3c 4c 16 a5 3c c7 dc 7d 3c
       -0.011389923 0.014251391 0.020152234 0.015494532
0003c0 b3 91 1f bc b6 8d 87 bb e6 4f de bc 96 48 74 3c
       -0.009739327 -0.0041367663 -0.027137708 0.014909884
0003d0 38 4f 77 bc 05 c8 59 bd 10 82 4c bd 68 f2 b7 3c
       -0.015094571 -0.05316927 -0.049928725 0.022454455
0003e0 3a f8 36 3c e3 f8 60 3c db 96 e0 bc 0b ce 2f 3c
       0.01116758 0.013731214 -0.027415683 0.010730277
0003f0 70 59 3f bc 74 65 00 3c 13 58 78 3c 14 ee 6e bc
       -0.011679038 0.007836688 0.015157717 -0.014583129

conv3.0.bias f4 [64]
000000 07 7e 63 bc 84 22 32 bb 9a f3 f5 bc 2b 12 09 ba
       -0.013885028 -0.0027181217 -0.030023385 -0.00052288425
000010 d9 a6 33 3d 1a 8c 75 3d 8b a6 25 3d 03 12 03 3c
       0.04386029 0.059948064 0.04044203 0.0079999
000020 03 4e d8 ba 9c 79 8b bc a0 b5 8d 3d 94 a5 35 3d
       -0.0016502741 -0.017025761 0.06919408 0.04434736
000030 01 f0 31 bd 40 0f 15 3d 76 e2 70 bc 91 77 0a bd
       -0.043441776 0.036391497 -0.01470243 -0.033805434
000040 cb 5d ab 3c b7 eb f7 3c 9d 48 e3 3c 0d ac ea 3c
       0.020918747 0.030263765 0.027744586 0.028646493
000050 ef 1b 1b 3d 06 b6 85 3d 2c d2 82 bb 4d 94 be bc
       0.037868436 0.06528859 -0.0039923396 -0.023264075
000060 39 48 9c 3c 4c 75 51 3d 9e 24 f7 bc 2f bd 3a 3d
       0.019077407 0.051137254 -0.030168828 0.045590576
000070 4c 18 26 bd d4 ba 0a 3d d0 1e 64 3d 89 ae f1 bb
       -0.040550515 0.03386958 0.055693448 -0.0073755425
000080 aa 87 59 3d d1 f3 06 3d 94 6f 05 bc 65 02 c8 3c
       0.053107895 0.032947365 -0.008144278 0.024415204
000090 7f 9c c4 3d 36 2f 1b bd 69 3f 15 3c 48 4c 61 3d
       0.09600162 -0.03788682 0.009109356 0.055004388
0000a0 ae 49 8a 3d 60 43 ca 3c 6d 5e 01 bd 8f 5b 15 bd
       0.067523345 0.02469033 -0.031584192 -0.03646427
0000b0 51 77 b1 3c 88 55 d3 bc d3 23 fc bc ae 65 e2 bc
       0.02166334 -0.02579762 -0.030778801 -0.027636375
0000c0 07 bd fd ba 3e 26 0d 3d 52 c3 1a 3c 15 9b f6 3b
       -0.0019358703 0.0344603 0.009445982 0.0075258114
0000d0 d7 18 01 3d 54 03 78 3c 9b e9 cc 3c 2d d5 15 3d
       0.03151783 0.015137512 0.025013736 0.036580253
0000e0 b9 a0 2e 3d 3e 47 34 bb 36 ca 94 3c 1f 07 18 bd
       0.042633746 -0.0027508284 0.018162828 -0.037116166
0000f0 c2 0b 4e 3c c4 b0 26 bd d8 ca 0e bd 71 ab 5a 3d
       0.0125760455 -0.04069592 -0.034861416 0.053386156

out.weight f4 [2, 3136]
000000 82 05 62 bb 23 85 6f 3c 6e f5 d5 bb 4a ed 6e 3b
       -0.0034488146 0.014619145 -0.0065295016 0.0036457353
000010 13 42 c6 ba 11 a8 03 3d 8f cb 0d bb 78 fd 80 bb
       -0.0015125893 0.032142702 -0.0021636223 -0.003936466
000020 81 93 7d bb 81 9c f3 ba 0a 6c 81 3c e5 bd 59 bb
       -0.0038692656 -0.001858607 0.015798587 -0.0033224758
000030 2f 9c a5 3c 4f 3e 57 bc 2d e1 0c 3c 74 ac 87 3c
       0.020216076 -0.013137414 0.008598608 0.016561724
000040 26 71 82 3c 83 1d 5c 3c a3 2b 22 3c 52 41 0a 3d
       0.015923094 0.0134347705 0.009898099 0.0337537
000050 6c 7e 33 3c e1 24 18 3c 21 59 d3 bb 4a 09 04 3b
       0.010955434 0.009286136 -0.006449834 0.0020147138
000060 dc cf 0e 3b 57 0d 21 bc b1 ef 5d 3b f8 fb fe bc
       0.0021791374 -0.009829841 0.003386479 -0.031126007
000070 3a a2 88 3b 8a a6 a2 bb 89 e9 39 bc 87 4d ad 3b
       0.0041697295 -0.0049637007 -0.011347183 0.005288783
000080 64 8b c0 3c df d2 b2 3b b6 8c 2b bb 45 5c aa 3b
       0.023503967 0.0054572667 -0.00261764 0.0051989877
000090 c5 0d b0 bb 25 dd 12 bc 53 f2 14 3b a6 00 71 bb
       -0.005372735 -0.008963858 0.0022727444 -0.0036774068
0000a0 70 c9 cd bb cc 78 44 3c d9 da cb 3a 9a 19 9d bb
       -0.0062801167 0.011991691 0.0015552893 -0.0047943117
0000b0 d7 2b 02 bc 1b ec e7 bb e8 9f ec 3b 70 c5 0d bc
       -0.007945023 -0.0070777065 0.0072212107 -0.00865303
0000c0 95 6d 82 3c 64 b0 27 3c be 00 ac bc ed 84 a4 bd
       0.015921393 0.010234926 -0.020996448 -0.08033166
0000d0 3f 82 06 bd 56 c6 b6 3b e6 2e 8f bd 2d 0f ec bd
       -0.032839056 0.0055778427 -0.06991367 -0.11526332
0000e0 5e a0 91 bc a7 1d 69 bd f9 97 c2 bc 72 f4 3f bc
       -0.017776664 -0.056913044 -0.023754107 -0.011715995
0000f0 c9 57 c1 3b 95 fa 72 bd 58 0a 78 bd 36 42 4a bc
       0.0059003574 -0.059321005 -0.06055674 -0.0123448875
000100 bd 87 3a bd 95 17 13 bd 1f d0 bc 3b 8a c4 ca bc
       -0.045539606 -0.03591116 0.0057621147 -0.02475192
000110 e8 a8 d9 bc c0 29 0b bd bc d6 a8 bc 8e 32 98 bd
       -0.026569799 -0.033975363 -0.020610206 -0.074315175
000120 ba 88 4c ba fb 01 31 3d f2 bb 30 bc 71 04 37 bd
       -0.0007802356 0.04321478 -0.010786997 -0.04468197
000130 c3 3a 4f bd 5e dd 91 bd 07 57 f9 bc 12 f4 7b 3d
       -0.05059315 -0.071223006 -0.030437006 0.06151206
000140 38 29 a4 3d 48 a4 00 3d e7 5e 4a bd 90 d8 07 bd
       0.08015674 0.03140667 -0.049406912 -0.033165514
000150 8a 14 74 bd c7 66 8e bc c8 dc a5 3d 28 2c a4 3d
       -0.0595899 -0.017382992 0.08098751 0.08016235
000160 42 57 6d 3c b0 3d 2e bd af 4d 14 bb a4 00 4b bd
       0.014486136 -0.0425393 -0.002262931 -0.049561158
000170 cc 4f 49 3d 5a 86 fa 3d 28 ff 54 3d 1c 91 5f bd
       0.049148366 0.12232657 0.05200115 -0.054581746
000180 f9 b7 94 3c 87 1e 0f 3c 9a d5 c2 3c 38 16 25 bc
       0.018154131 0.008735306 0.023783494 -0.010076098
000190 00 8b 81 3b a3 f4 40 3c d7 96 98 3b 6e 4c 36 3c
       0.0039533377 0.011777076 0.0046566534 0.011126621
0001a0 f8 db ee 3b e1 c4 9f 3c 9c 87 3a 3b 37 40 37 bb
       0.007289406 0.019503059 0.0028462177 -0.002796186
0001b0 7a 00 12 bc 8e 4c 77 bc ee 98 4e 3b 1c 12 80 bb
       -0.008911246 -0.015093936 0.0031524259 -0.003908409
0001c0 e1 86 e5 3b f4 9a 9f 3b b7 0d 36 39 a5 ee 12 bc
       0.007004604 0.004870767 0.00017361982 -0.00896803
0001d0 7c 9c f2 3b a7 7b 79 bb 3c 82 a8 bb ed 97 26 bb
       0.0074039083 -0.0038068087 -0.0051424783 -0.0025420145
0001e0 04 3b ab 3a 47 a3 85 3c 6e 2c 64 3c 33 ad 30 3c
       0.0013063853 0.016313208 0.0139266085 0.010783481
0001f0 6a 96 f1 bb 37 ec d4 3b c1 bb 31 3b de 59 1a bc
       -0.007372667 0.0064978856 0.0027119967 -0.00942084
000200 2a ba 81 bb 5a fc e0 bb a5 cf 5f bb 67 f4 2d bc
       -0.00395896 -0.00686602 -0.0034150865 -0.010617352
000210 37 59 08 3b d3 13 3c 3c 0a ea fb bb b8 e8 62 bc
       0.002080513 0.011479336 -0.0076878117 -0.01384943
000220 d3 dd 39 bc 43 6d 63 bc 3c 0b cc bb bc 5d 18 3c
       -0.011344391 -0.0138810305 -0.006226925 0.009299692
000230 5e 0c 54 bc 0b 00 09 bd 6e c3 e9 ba 4a 87 2d ba
       -0.012942402 -0.033447307 -0.0017834732 -0.0006619586
000240 2b e4 81 bc 80 99 0f bc 85 af 94 3c 79 90 e1 bc
       -0.01585587 -0.008764625 0.0181501 -0.02753471
000250 02 cd 0b 3d ba 7f 8c 3c 7a f1 9f bc e8 25 47 bc
       0.034131058 0.017150749 -0.019524325 -0.012155034
000260 be ac 42 3c fe 11 c2 bc 5e 68 8c bd 2b 71 93 bc
       0.011882005 -0.02369022 -0.06855844 -0.017998299
000270 66 77 bb 3c d1 f4 aa 3b 6c d7 95 bc de ed 10 bd
       0.022884082 0.0052171727 -0.018291198 -0.035383098
000280 c5 52 e8 bc e5 3c a6 bc 0c 30 e3 3c ac 68 02 bb
       -0.02835978 -0.020292709 0.027732871 -0.0019898815
000290 e1 f3 ff bc 64 c3 bb bc 5a 5f 2a bd 76 64 12 bd
       -0.03124422 -0.022920318 -0.04159484 -0.03574034
0002a0 ca 60 8a bc d1 25 60 3c ef 25 d4 bc 86 3f 76 bc
       -0.016891856 0.013680891 -0.025896994 -0.015029794
0002b0 45 8d 51 39 0e a7 a6 3c 31 10 5d 3c 68 ef 64 3c
       0.0001998442 0.02034333 0.01349263 0.0139730945
0002c0 9f 1d 95 3c 95 04 6c 3c 6a 52 e4 3a 93 89 1a 3d
       0.018202601 0.014405389 0.0017419581 0.037728857
0002d0 58 1c f5 bb eb 9f 09 bc a3 7b 02 3d ff cc 50 bd
       -0.0074801855 -0.008399944 0.03185619 -0.05097675
0002e0 df de 84 bb 64 51 f2 3c 28 17 7f 3c 8b 0a 88 3c
       -0.0040548886 0.029579826 0.015569486 0.01660659
0002f0 22 c5 e2 bc 01 b6 a0 bc 64 36 51 bd ba 36 8e bb
       -0.02768189 -0.019618036 -0.05107726 -0.00434002
000300 8e e9 45 3d 14 81 91 3d ae 26 13 bc 2d 24 53 bd
       0.04831844 0.07104698 -0.00898139 -0.05154817
000310 fc 07 df 3d d3 82 dd bc b7 d4 4f 3b cb e2 ee bd
       0.10890195 -0.02703992 0.0031712481 -0.11664351
000320 58 eb 39 3d aa 04 42 bc 21 15 7e bc 01 c6 b9 3d
       0.045390457 -0.011841932 -0.015507967 0.090709694
000330 82 be ad 3d c8 24 d1 bb c8 d0 1e 3d f9 c8 22 bd
       0.08483602 -0.0063825585 0.038773328 -0.039742444
000340 ba f4 c8 bd 3b f7 4f bc e9 4a 5c 3d a4 dd 8e 3c
       -0.09812303 -0.012693222 0.053782377 0.01743967
000350 13 57 0a bb b8 0c fa bc d0 f3 0e be eb bb 9c 3c
       -0.002110903 -0.030523643 -0.13960195 0.019132575
000360 61 80 e6 bc 57 b3 13 3d 06 81 8b 3a b1 d9 7a 3d
       -0.028137388 0.036059704 0.001064331 0.061242763
000370 1d f2 0c bd 08 34 fd bd e0 0f 24 3c 12 ef 51 3c
       -0.034410585 -0.1236344 0.0100135505 0.012813346
000380 fc 08 24 3e 4d c8 a9 bc 27 2a 81 bd c2 df 9f 3d
       0.16019052 -0.020725394 -0.06306868 0.0780635
000390 81 04 93 3b be 30 3d 3c 80 2e ca bc 1a 46 0c be
       0.004486621 0.011547266 -0.024680376 -0.13698617
0003a0 89 55 ae 3d 4b d6 a8 bd c7 e0 c0 3d f5 18 02 3d
       0.08512408 -0.08243998 0.09417873 0.031762082
0003b0 e0 39 6a 3c 01 cd 52 bb d6 34 48 be c9 aa de 3d
       0.014296025 -0.003216565 -0.19551405 0.108724184
0003c0 6c d3 18 be 7a 08 35 3e f8 a1 ef bc 24 99 a3 bc
       -0.14924401 0.17679015 -0.029252037 -0.019970484
0003d0 7c 28 15 3c 99 48 2a bc 48 95 a1 bc e6 f4 c3 3d
       0.0091038905 -0.010393285 -0.019724503 0.09568195
0003e0 d2 8e 28 bd 63 d2 b3 bc a5 44 b4 3d 4c 8b 21 3d
       -0.04115183 -0.021950906 0.088021554 0.039439484
0003f0 20 76 40 3b 5c 70 03 bd b5 37 86 3c 7b 4c b8 3c
       0.0029367283 -0.032089576 0.016383985 0.022497406

out.bias f4 [2]
000000 78 d0 9d 3b 7c ef 82 bb
       0.004816111 -0.003995834
