ml-models/polar-lag200/polar-window10-lag200-cnn.onnx (onnx, 284428 bytes, 8 tensors)

conv1.0.weight f4 [16, 1, 5, 5]
00000000: c813 593d 58c3 b1bc ef5d 98bd 2c6c 0fbe
00000010: d279 9a3d 56dc d3bd a21e 25be a0c2 4ebe
00000020: 9513 a13d 987d 0a3e 1c92 053e 535a af3d
00000030: 47eb eb3c d591 d13d f738 07bd ea1d 213d
00000040: e4c7 c53d b634 71bc 0dd9 83bd 3754 51be
00000050: 1077 e73d 8b8d f13d 3d30 2fbe ed12 003d
00000060: e67d 12bd b79e 7cbd fbb1 9dbd 790a 613d
00000070: 230d c2bc 4524 bbbb 295f 853d 8124 813d
00000080: 335e 0bbe d293 1ebe 16dd 29be 7452 623e
00000090: e62c 393e 523e 153d 1f23 eebb 26ce 493e
000000a0: b471 efba 64c2 333e 5e32 b13d 6336 05bd
000000b0: ea05 e93d 218e 2dbe 7861 0d3e 07c0 1ebd
000000c0: b162 dcbc 7cae cbbd 67ac 60be 9af8 083e
000000d0: 0848 a1bd 8811 37be f790 69be 258c 113e
000000e0: 1ae3 4a3e f0db dc3c 3983 233e 400d 0c3e
000000f0: 0513 223e bf94 433d 57ce 39be b58b 03be
00000100: 1e3f 21bd 3be6 80be 4cde e5bc f432 1d3c
00000110: ab52 3bbe fc9c a33d 5222 c23d 3026 7e3c
00000120: ad99 2b3e eec6 113e 3719 e23c 3190 583d
00000130: 0396 a83d 5741 793d 09bb 5dba f236 fd3c
00000140: 147a 10be 16d4 bf3d da15 8cbd cab9 39bd
00000150: 4b12 50be 6e15 69bd 862f e03d 01e1 49be
00000160: cfa3 8f3d aaa0 073a 7da8 e53d 0b8f efbd
00000170: 61e7 eabd 22c2 3ebd 8769 4dbd e848 07be
00000180: db1f 18be 1c7b 783d 45a3 e7bd c19b 373e
00000190: 3567 ccbd de46 3fbd bf67 0cbd 142b 84bd
000001a0: 7b8c 5e3e b4d0 95bd 1949 c5bd 3da8 18bd
000001b0: 3836 c7bd a75b 9d3d 3677 eabc 6191 f9bd
000001c0: dad9 c9bd 03ca fe3d 7052 4a3d 1fda 0a3e
000001d0: 2616 1d3d ed58 73bd 916a 343e 7a85 4b3e
000001e0: 5fad 36be ef74 b1bd 6e42 e53c 8ebe af3d
000001f0: 00fd bd3c 9aef f33d 8b2b 8cbc 065f 0ebe
00000200: da00 fa3c 4e06 5a3e a12e c43d c8cd bc3c
00000210: 6c04 4abe f6de e0bd db34 acbd 3cf1 35be
00000220: bd86 663d cf43 2dbe b284 9abd f2c6 a2bd
00000230: f820 023e c673 133e 9e2a 99bd 0bba c53d
00000240: cc54 a33d dd00 ee3d 8dc7 50bd e611 b0bd
00000250: 4fa4 77bc 17cd 3b3e 4461 d1bd d821 5cbd
00000260: cd38 9ebd 9867 e8bd 4abf 503e ffb3 7ebd
00000270: 094a 403d fc91 30be b558 26be ce24 debd
00000280: faa8 7dbd aaee be3d 21ba 2dbe 8200 853b
00000290: c141 15bd 0ddb 5dbd 3f26 423e e9c2 33be
000002a0: ad88 26be 2bdd da3d b63d acbd 3763 193e
000002b0: fcce 0d3c c2f9 223e 42da f3bd 4d9e c9bd
000002c0: c942 7ebe ed14 4bbe 6599 243d 1b65 103e
000002d0: e92f 8ebd a991 fc3d eeef 50bd b3d5 25be
000002e0: 3090 ebbd b28a fe3d 87d6 53be 6157 3a3e
000002f0: aac8 bc3d 5663 88be 0744 53bd 4f45 8bbd
00000300: 04ea 053e b6a1 1dbe 97de c7bd 84db 4d3e
00000310: f1ec 47bd 2c2c 0abe 1000 adbd d5bc 01bd
00000320: 93e1 48bc 15f4 3dbc 2aa2 2ebe 152a a13d
00000330: ed02 2bbe a7c6 09bb a771 4e3e 5b30 883d
00000340: 08f5 4c3e 9d18 3c3e 989c 043e 65b9 d83c
00000350: e492 69be 6608 063d 985d a33d f4b3 cf3d
00000360: f9ee 2abd a710 37be 4b92 bfbd 4db4 b93b
00000370: f14b 0b3e 350d bfbd 5808 8abd 3b08 4c3d
00000380: ab56 033d 6734 443d 95c6 bebd e198 67be
00000390: 3538 34bc 9bc8 043e 998e da3d 6010 81be
000003a0: 0fff fe3d 0267 1cbb 2e35 85bc 5f86 34be
000003b0: 17ea 80be 7dbf 6a3d f29e 003e da3a 0a3e
000003c0: 23a5 5abe b757 033e 1568 1dbe ad06 85bd
000003d0: 559a 94be 8851 71be ec55 bfbc 1151 113e
000003e0: b288 923d bad5 01be cd87 32be 398c 293e
000003f0: 4030 013e e609 4d3e 7969 0a3e 984d 4dbe
0.05299738 -0.021699592 -0.074397914 -0.14006108 0.07542767 -0.1034476 -0.16124967 -0.20191431
0.07865063 0.13524473 0.13044018 0.0856215 0.028798712 0.102328934 -0.03301331 0.03933517
0.09657267 -0.01472204 -0.064378835 -0.20442282 0.11302006 0.11794575 -0.17108245 0.03126805
-0.035764597 -0.0616748 -0.07699963 0.054941628 -0.023687905 -0.005711111 0.06512291 0.06305791
-0.13610153 -0.15486076 -0.16588244 0.22101766 0.18083534 0.036436386 -0.0072673704 0.19707546
-0.0018268139 0.17554623 0.08652185 -0.03252257 0.11378081 -0.16948749 0.13806713 -0.03875735
-0.026902528 -0.0994539 -0.21940766 0.13376084 -0.07875067 -0.17877781 -0.22809206 0.14213617
0.19813195 0.026960343 0.15968026 0.1367693 0.15827568 0.047749277 -0.18145119 -0.12846263
-0.039366834 -0.25175652 -0.028060101 0.009594668 -0.18293254 0.07988927 0.09479202 0.015512034
0.16757841 0.14236042 0.027599914 0.052871887 0.082317375 0.06085333 -0.00084583514 0.030909989
-0.14109069 0.09366624 -0.06840105 -0.045343198 -0.20319478 -0.056905203 0.109465644 -0.19714738
0.07013666 0.0005173782 0.11213777 -0.11697205 -0.11469913 -0.04657186 -0.050149467 -0.13211405
-0.14855902 0.06066428 -0.11310438 0.17930509 -0.09980623 -0.046698444 -0.034278627 -0.06453529
0.21733277 -0.073151976 -0.09633083 -0.03726982 -0.09727138 0.07683497 -0.028621297 -0.12185932
-0.09856005 0.124408744 0.049395025 0.13559769 0.0383512 -0.059410978 0.17618777 0.19875136
-0.17839573 -0.086648814 0.027985778 0.08581267 0.023191929 0.11910935 -0.017110607 -0.13903436
0.030517984 0.21291468 0.09579206 0.023047343 -0.1972825 -0.109800264 -0.08408519 -0.17767805
0.05628084 -0.16920398 -0.07544841 -0.07948102 0.12707889 0.14399633 -0.07478832 0.096546255
0.07975158 0.116212584 -0.050971556 -0.08597164 -0.015114858 0.18339954 -0.1022363 -0.053743213
-0.07725678 -0.11347884 0.20385471 -0.062183376 0.046945605 -0.17243189 -0.16244777 -0.10846864
-0.061928727 0.09322865 -0.16965534 0.0040588984 -0.03643966 -0.05416398 0.18959902 -0.17554821
-0.16263075 0.10686716 -0.08410208 0.14979254 0.008655306 0.15915588 -0.11906864 -0.098446466
-0.24830164 -0.19832201 0.04018535 0.14101069 -0.06942732 0.1233247 -0.051010065 -0.16194801
-0.11502111 0.12428798 -0.20687304 0.18197395 0.09217961 -0.26638287 -0.051578548 -0.06800329
0.13077551 -0.15393719 -0.097592525 0.2010327 -0.04880995 -0.13493413 -0.084472775 -0.031674225
-0.012260812 -0.011593838 -0.17054048 0.07869355 -0.16700335 -0.0021022947 0.20160542 0.06649848
0.20015347 0.18368764 0.12950361 0.02645559 -0.2280994 0.032722853 0.07976836 0.10141745
-0.04173181 -0.17877446 -0.09354075 0.0056672455 0.13603188 -0.09328691 -0.06739873 0.049812537
0.032065075 0.047901537 -0.0931522 -0.22616912 -0.010999729 0.1296715 0.106717296 -0.25207806
0.12450992 -0.0023865108 -0.01626071 -0.17629384 -0.25178596 0.057311524 0.12560633 0.13499013
-0.21352057 0.1282643 -0.15371735 -0.06495414 -0.29023996 -0.23566258 -0.0233564 0.1419108
0.07154979 -0.12679186 -0.17434616 0.16557397 0.12616062 0.20023307 0.13516797 -0.20049131

conv1.0.bias f4 [16]
00000000: 80a0 233d c097 38be 50f7 07bc fba6 1e3e
00000010: 84b3 e0bc 90d4 15bd 6b8a 0b3d b077 0f3e
00000020: f40c 2fbe c145 b03d d9f1 57be 7d88 f13d
00000030: 952d 7a3d fd62 8ebc 4f01 de3c 380d 24be
0.039947987 -0.18026638 -0.00829871 0.15493385 -0.02742935 -0.03657967 0.034067553 0.14010501
-0.17094785 0.086070545 -0.21088351 0.11793611 0.061078627 -0.017381186 0.027100233 -0.16020668

conv2.0.weight f4 [32, 16, 5, 5]
00000000: f5f6 55bc 903a c2bb 6d57 033d 2dde 08bd
00000010: d6a1 27bd 55d1 9a3c e466 24bd fb2c 553d
00000020: ee60 e3bc 75a1 43bd 0c1c f43c 4ba0 e13c
00000030: 2491 e23c fdde 1f3c bca3 273d ffcb 80bd
00000040: 78db 77bb b1ab 02bd 4b0f 013d 52f4 acbc
00000050: 91a3 3d3d 0652 ddbc d88e 033d 2085 353c
00000060: a4d8 353d 3356 81bc 1cbb 80bd 3399 4fbd
00000070: 2b16 9fbd 75ce 71bc 30e0 48bd 0ab1 05bc
00000080: 0bd8 0c3c bf07 ebbd 4c5a cfbd 20c9 cebd
00000090: 9ab4 f4bd d814 d5bc dee1 01be 9c17 6f3c
000000a0: 5650 04be c98a 66bd ad37 72bd 2a29 04be
000000b0: 2062 51bd 4290 c9bd 3001 07be 7624 05bc
000000c0: d84f 08be c7d3 82bd 97d5 4fbd b2e3 07bd
000000d0: 0d48 3abd 5b6e a83b 65c0 6cbc 1f92 933c
000000e0: 185d acbc 7320 2c3c ebe7 473c dafe 8dbb
000000f0: 2085 85bc 918f e4bc 49a3 67bc 407b f8bb
00000100: 21e5 12bd 30b5 67bc 984d 933b 8854 88bc
00000110: c3a0 e0bb 8c92 76bd 9e78 0b3d 8d19 503c
00000120: 1882 963b 5b30 97bd de6f 02bd 7ec1 8a3b
00000130: b10c d4bc fd28 97bd b108 f7bc 246c 81bd
00000140: 3042 86bc 8d26 1c3d b2f4 313d 1bf9 febc
00000150: d40c b4bd ed1d acbb 46ed 163c 5e72 063d
00000160: 9da7 0a3d 40ca 00bd 7103 c03c dc96 bb3c
00000170: 7dbc c0bd a21a 063d a8bc 803c 1c0b 0ebd
00000180: 1f71 98bd c988 9ebc c625 f9bb 3ab5 c6bb
00000190: e749 acbc 5458 2f3c 2f50 2dbd fe98 59bd
000001a0: e499 6e3d 83dd dabc c359 6dbd b494 cbbc
000001b0: 0944 a5bd dc6d d1bd bd06 74bd 0fa2 a13c
000001c0: b9b8 3dbd 69e3 123c a1d5 7dbb 352e 3c3d
000001d0: 8134 ef3c 59bd b6bb 94df 6bbd 64ea 06bd
000001e0: c92a 093d 6c32 673d b270 b0bd c1c6 3ebd
000001f0: fb54 46bd 1259 44bd b05b 4a3d aa2f 2ebd
00000200: 8669 d5bc 9791 d0bd 5f6d 1abc 7d93 febd
00000210: 5acf b9bc 8ea3 cdbd c278 8fbd 1275 fabd
00000220: 78b0 6bbd bd3d dfbd 92e3 e1bc 643e 4dbd
00000230: ac2c 7fbd bc98 c1bb ad46 b0bd aff4 67bd
00000240: c593 8fbd b8b8 643e 01ff 343e 32c5 d9bd
00000250: f04e a9bd 7aa6 b1bd 3962 eebc b9ca 9fbd
00000260: af86 b5bc fab0 46bd 27cd 853c 171d a83c
00000270: 3804 e43c af52 ccbb cdf3 5cbc fd0c ddbc
00000280: 5a9b 163d f47d 523d ebfc 64bc 30e1 55bd
00000290: 181e 1e3d b709 6e3d 43e4 09bc 64fa f33c
000002a0: 8b67 383d a396 17bb f43a 88bd 0be4 05bb
000002b0: 7a72 ccbb 6eae 333d f882 6ebd 62bd d1bb
000002c0: 430c 9c3c 2c7b 00bc 3a24 c6bb bac7 bfbc
000002d0: 86ee 86bc ba94 e3bc dd7d 283d 068f 7d3c
000002e0: 405a febc 70c1 5f3b a445 00bd a4ac 553d
000002f0: 5db5 21bb 67a9 22bb 2f20 32bc 87aa 1ebd
00000300: 04d3 c13d f1ee 103d 6b1f 4bbd a1db 49bd
00000310: 762e fd3b b63c a73d 239d 553d 222e 1bbd
00000320: 1759 79bd 001e 12bd b51c ee3c b94d 23bd
00000330: 0c35 0e3d 5a48 08bc dbe8 703b c03d 233d
00000340: 9f76 873b bcba abbc 7119 d5bc 0b59 4bbd
00000350: ab76 29bc 5182 f2bc f38b 59bd de70 77bd
00000360: 070d f13a 3822 053d d944 1bbc c47d a3b9
00000370: 1be3 a2bc f840 053c bef1 e8bc 19ea c03c
00000380: 5c24 383c a037 a73d 09d8 163d c5db d03c
00000390: 0102 45bd 726a f8bc cc48 c43c 1fb8 0e3d
000003a0: 28ed ed3c 21e2 433d 1973 c4bc d68b 203d
000003b0: ad58 5fbc 86e2 8bbc b947 503d 2af3 1fbd
000003c0: fdd2 e73b 65fa 0cbd 2a17 6dbc 2b93 4d3d
000003d0: 292d 043d bd72 40bb 899d 2ebd d29a 763c
000003e0: 63ad dbbb 7e57 113c b022 deba 1373 3bbc
000003f0: 8844 a1bc 7edc 9bbd f97f fdbc 34d0 1dbb
-0.013059367 -0.0059273914 0.032065798 -0.03341501 -0.040925823 0.018898645 -0.040137187 0.05204485
-0.02775618 -0.0477614 0.02979853 0.027542254 0.027657099 0.009757754 0.040927634 -0.06288909
-0.0037820023 -0.03190202 0.031508725 -0.021112595 0.046298567 -0.02701665 0.03211865 0.011079103
0.044396058 -0.015788173 -0.06285688 -0.05068321 -0.077679 -0.014758696 -0.049041927 -0.008159885
0.0085964305 -0.11476087 -0.10124645 -0.10096955 -0.119485095 -0.026010916 -0.12683818 0.014593031
-0.1292127 -0.0562847 -0.059135128 -0.12906328 -0.05111897 -0.09841968 -0.13184047 -0.008126369
-0.13311708 -0.063880496 -0.050740805 -0.03317613 -0.04547887 0.0051401085 -0.014450167 0.018014012
-0.021040484 0.010505783 0.01220129 -0.004333359 -0.01629883 -0.027900489 -0.014138051 -0.007583052
-0.035863046 -0.01414232 0.004495334 -0.01664187 -0.006855102 -0.06019835 0.034050576 0.012701404
0.004593145 -0.0738227 -0.031844966 0.004234492 -0.025884958 -0.07380865 -0.030155512 -0.06319454
-0.016388983 0.038122702 0.04344625 -0.031124642 -0.08791509 -0.005252591 0.009211844 0.032823913
0.033851255 -0.03144288 0.023439141 0.022899084 -0.09410951 0.032740243 0.015714958 -0.034678563
-0.07443451 -0.019352334 -0.00760338 -0.0060640844 -0.021031333 0.010702211 -0.042312797 -0.05312442
0.05825223 -0.026716953 -0.05794693 -0.02485118 -0.08069617 -0.10226032 -0.05957674 0.019730596
-0.046318743 0.008965352 -0.003873207 0.045942504 0.02919984 -0.005576771 -0.057586268 -0.032938376
0.03348807 0.05644457 -0.08615245 -0.046576265 -0.048420887 -0.047936507 0.049403846 -0.042525925
-0.026051294 -0.10184019 -0.00942549 -0.12430475 -0.02268188 -0.10040961 -0.070054546 -0.12229361
-0.05754134 -0.109004475 -0.027574334 -0.05010833 -0.06229846 -0.0059081 -0.0860723 -0.056629833
-0.07010607 0.2233609 0.17675401 -0.10633315 -0.08267009 -0.08674331 -0.02909957 -0.07802338
-0.022158949 -0.04850862 0.016333176 0.020521684 0.027834043 -0.0062354426 -0.013485861 -0.026983732
0.03676925 0.05138965 -0.013976316 -0.05221671 0.03860292 0.058114734 -0.008416238 0.029782481
0.04502062 -0.0023130558 -0.066518694 -0.0020430114 -0.0062392326 0.04386752 -0.05823037 -0.00640075
0.019048816 -0.007841866 -0.006046799 -0.023410667 -0.016471159 -0.02778088 0.041135658 0.015475994
-0.031048894 0.0034142397 -0.031316414 0.052166596 -0.0024674751 -0.002482021 -0.010871931 -0.038736846
0.09464076 0.035384122 -0.04959051 -0.04928172 0.007726486 0.081658766 0.05215181 -0.037885793
-0.06087598 -0.03567314 0.029066423 -0.039869044 0.03471856 -0.008318031 0.0036759886 0.03985381
0.004134014 -0.020963065 -0.026013108 -0.049645465 -0.010343234 -0.029603155 -0.05311198 -0.060410373
0.0018390723 0.032503337 -0.009476864 -0.00031183485 -0.019883683 0.008133166 -0.028435584 0.023549126
0.0112391375 0.081649065 0.03682712 0.02549542 -0.048097614 -0.030324195 0.023960494 0.03484356
0.029043749 0.047823075 -0.023980664 0.039195858 -0.013631982 -0.017075788 0.05084965 -0.03905026
0.0070747123 -0.034418482 -0.014470855 0.05018918 0.03226963 -0.0029365264 -0.042630706 0.0150515605
-0.006704019 0.008870957 -0.0016947594 -0.01144101 -0.019685999 -0.07610415 -0.030944811 -0.0024080398

conv2.0.bias f4 [32]
00000000: 7d08 05bd 8f01 c0bc 2552 81ba 6257 113d
00000010: f6b7 1a3c 8baa dbbc 783f a7bb e109 a03d
00000020: 1290 babd 0b7f 343d 39a6 453c 04a2 523d
00000030: 825a 763d ca0d 77bc 9261 a23c cb68 2fbd
00000040: 8ee8 aabd 0114 403d 3632 a5bd a097 fb3c
00000050: fb7a 8d3d abc5 873d e488 4b3d ec63 593d
00000060: ee69 4bbc 828a a23d d26f 51bd 0fda 90bb
00000070: f67b b7bb 2546 783c efba 063d a871 58bd
-0.0324788 -0.023438243 -0.00098664 0.035483725 0.009443274 -0.02681472 -0.0051040016 0.07814384
-0.091095105 0.04406647 0.012063556 0.05142404 0.06014491 -0.015078971 0.019821916 -0.042824548
-0.083451375 0.046894077 -0.080662176 0.030711949 0.06908222 0.06629499 0.049691096 0.05307381
-0.012415392 0.079365745 -0.05113203 -0.004420526 -0.005599494 0.0151534425 0.032893118 -0.052842766

conv3.0.weight f4 [64, 32, 5, 5]
00000000: 3579 a5bc de14 41bc 8abb 033d 67ed 9f3c
00000010: fc29 343c ee95 35ba 1090 b0bc a1a5 a3bb
00000020: 8c1c 583b 7608 b6bc ec79 24bd 6175 983c
00000030: cc91 0abc fc5a f83b c83e f4bc cc64 d8b9
00000040: 7bcc 0ebd 3feb 20bd d9df 983c e48a df3c
00000050: 02af 29b9 48bb a63c 4e61 d0bc f6ee 3c3c
00000060: a1c1 553b 697c 9e3c ef09 833b 7dbe 90bc
00000070: 0046 93bc 4240 2abc f250 1f3c 4f80 123c
00000080: 848e 29bd fa39 5b3c 60df 45ba 8ecf fb3d
00000090: 2d19 903d 4428 09bd aa01 aabd d2e6 29bc
000000a0: 59c0 3b3d a869 023d abbb 93bc 126f 68bd
000000b0: d063 14bd 1ced b73b 45a6 cfbc 6bf2 95bd
000000c0: 554c 4ebd 3a6d 3d3b 3716 7b3d d027 c5bc
000000d0: e20f 17bc e473 70bb 9ba6 163d b098 42bb
000000e0: 6549 bebc 6810 25bd 8383 bdb9 449e c53c
000000f0: cfeb 43bc 4427 03bd 7ffc 60bd ed1a 873b
00000100: 45e8 7cba 12a4 603d a23d 433d 6626 3bbc
00000110: e79c 0d3d 9d45 d2bc 7556 f63c 3f83 d43c
00000120: 8083 db3b 5097 2f3d 37e3 eb3b 66fd 833c
00000130: f02c aabd 2833 97bd 94b6 99bd 55a1 853d
00000140: 0cb4 8a3c 4a00 adbc 6f61 60bc 9f85 1abd
00000150: f931 c2bd 4be3 63ba c8bc d6bc cce1 3bbd
00000160: 714a 67bd 0db2 1fbc f876 51ba daff b83c
00000170: 99eb cebc 65a9 13bd 3c1a c2bd fbde 073c
00000180: 53d3 7abd fbe7 5cbc b525 0e3d 1437 a7bc
00000190: 15d2 babd 0e21 cb3d 0e24 d9bd d46f 1c3c
000001a0: 0025 f33c 63e8 a7bc 2cc1 c6bd d878 bbbc
000001b0: d1b9 2f3d 54bb 383d ebb8 ad3c 28c8 bfbd
000001c0: f2d7 01bd b8bd 603d e87e 703d ea12 863c
000001d0: 418e 6cbc af4d cebc ddfc c33b 6690 67bc
000001e0: 3ba8 053d 1e77 f539 a690 093d 9fa7 5c3d
000001f0: d71f f83c 9d01 37bb 039c 643c 91a3 edbb
00000200: 63c7 c03c e8b5 8d3c dd60 d6bc ba67 fa3b
00000210: 6a72 d8bc 4ac7 a5bc 6b3c afbb fb21 3b3d
00000220: b1d8 7f3c 45ca adbc 4706 243c 388e 673c
00000230: 7124 51bc 47c9 b5b9 63af 15bd 3557 bbbc
00000240: 8fa5 05bd c45a 09bd 7636 efbc c393 8dbb
00000250: 5500 e9bc 6d9c e2bc 0f96 e6bc 8651 873c
00000260: 34f4 bf3c 726d 78bc 477f 9fbc 0822 393d
00000270: 58e6 9d3d e0d1 49bd 0496 a5bc 15c3 abbc
00000280: 3c34 923c 4249 593d 4175 6c3d e600 d53c
00000290: 5682 bb3c ff52 b5bc 2b7a 013d fd1b 26bc
000002a0: e18c aabc 75dc 4dbd 1f1a 7dbc d3c2 983c
000002b0: b31a f43b 76eb 483d 70f7 c33c e5bf 853a
000002c0: 4343 b1bb d357 d0bc e6fa f83b 52da 8fbb
000002d0: 0b11 263c 435d 083d 7403 15bd b496 35bc
000002e0: 8b50 36bc c206 0b3d 921f 843b 1e29 82bc
000002f0: 2592 163c 194f e1bc 9b90 693c c570 e9bc
00000300: c05a 243c dadf adbc bee8 ac3c 54f2 b63c
00000310: aefb ce3c 773f db3b 0ba3 0c3c e27a 213d
00000320: a2bd a4bd 7094 723c ddee eb3c 0a1a 20bb
00000330: a334 363d d2dc 9abd e574 59bd 6e2d 9bbd
00000340: 688e 76bd 43c8 96bd 3a47 dfbc 8697 39bd
00000350: 6e85 15bc d477 4bbd aed2 c2bc a372 cfbc
00000360: 397b c2bd a8ec 32bd 149c 4f3c c816 46bc
00000370: 1b9c 29bd ec98 8fbc 92c1 22bd 1781 08bd
00000380: fc70 1fbd 2839 5ebc c1cf fb3a 8bb4 bd3d
00000390: 80bb f93c 66bb 533c ef0d 073d c2a8 af3d
000003a0: df3f 7a3d a2ce e539 3d86 1c3c ee34 523d
000003b0: 1966 efba 9c4d 17bc 4e74 863a d4c7 32bd
000003c0: 6ffe 09bb da4a 21bd a159 2fbd ba4c d23a
000003d0: 36c5 5a3d a833 87bd 9374 79bd 9aef bd3c
000003e0: 6184 61bc 4ebc c9bc de1a a23b fd59 c5bc
000003f0: 357c 45bd 6e87 c13c 27a5 8dbc 2892 a43d
-0.020199398 -0.01178476 0.032161273 0.019522382 0.010996338 -0.00069269433 -0.02155307 -0.0049941097
0.0032976 -0.022220831 -0.040155336 0.018610658 -0.008457612 0.0075792056 -0.029815093 -0.0004127383
-0.034862977 -0.03928685 0.018661426 0.027287908 -0.00016182291 0.020352975 -0.025437023 0.011531582
0.0032616633 0.019346433 0.003998987 -0.017668957 -0.017977715 -0.010391297 0.009723889 0.008941724
-0.04139568 0.013380522 -0.0007548239 0.12295447 0.07036052 -0.033485666 -0.08301099 -0.010369973
0.045837734 0.031839043 -0.018033823 -0.05674655 -0.036228 0.0056129824 -0.025347838 -0.07321628
-0.050365765 0.0028904215 0.061300483 -0.024066836 -0.009220095 -0.003669017 0.03677998 -0.002969306
-0.023228357 -0.04029885 -0.00036146873 0.024123318 -0.011958077 -0.03201987 -0.0549283 0.004123083
-0.0009647648 0.05484397 0.0476662 -0.011422729 0.03457346 -0.02566796 0.030070523 0.02594149
0.0066990256 0.042868912 0.007198717 0.01611204 -0.083093524 -0.07382804 -0.07505527 0.06524912
0.016931556 -0.021118302 -0.013695105 -0.037725087 -0.09482188 -0.0008693232 -0.026213065 -0.045869634
-0.056467477 -0.00974704 -0.0007990445 0.022582937 -0.025258826 -0.03605022 -0.0947766 0.008292909
-0.06123669 -0.013483043 0.03470393 -0.020412005 -0.09122101 0.09918414 -0.1060258 0.009548146
0.029680729 -0.020496553 -0.09704813 -0.022884771 0.042901818 0.045100525 0.02120634 -0.09364349
-0.031700082 0.05486843 0.058714777 0.01636644 -0.014438213 -0.025183527 0.0059810714 -0.014133548
0.03263114 0.0004681879 0.033585213 0.053870793 0.03028862 -0.0027924546 0.013953212 -0.0072521647
0.023532575 0.017298654 -0.026169235 0.0076417597 -0.026421744 -0.02023663 -0.0053477786 0.045686703
0.015615628 -0.021214614 0.010011262 0.014133029 -0.012765036 -0.00034672974 -0.036544215 -0.022868732
-0.032628592 -0.033533826 -0.029200774 -0.004320593 -0.028442541 -0.02766248 -0.028147725 0.016518366
0.023431875 -0.015162813 -0.01946987 0.04519847 0.0770995 -0.049272418 -0.020213135 -0.020967046
0.017847173 0.05304838 0.05772901 0.026001405 0.022889297 -0.022134302 0.03161065 -0.010138509
-0.02081913 -0.050259072 -0.015448122 0.018647587 0.007449472 0.049052678 0.023921698 0.0010204284
-0.0054096295 -0.025432503 0.007598269 -0.0043900395 0.010135899 0.033292066 -0.036380246 -0.011083294
-0.011127601 0.03394199 0.004032084 -0.015888747 0.009190117 -0.027503537 0.014255668 -0.028496156
0.010031402 -0.021224905 0.021107074 0.022332348 0.025266495 0.006690915 0.008583794 0.03942383
-0.08043982 0.014805898 0.028800422 -0.0024429583 0.044483792 -0.075616494 -0.053089995 -0.075770244
-0.060194403 -0.07362416 -0.027255643 -0.04531052 -0.00912605 -0.049674824 -0.0237821 -0.025323218
-0.09496159 -0.043682724 0.012671489 -0.012090392 -0.04140864 -0.017528974 -0.039735384 -0.033326235
-0.03892611 -0.013563432 0.0019211696 0.092629515 0.030484915 0.012923097 0.032972272 0.0857711
0.06109607 0.00043832237 0.009553489 0.05132001 -0.001826468 -0.009234812 0.001025805 -0.043647602
-0.0021056195 -0.039378025 -0.042810086 0.0016044595 0.05341073 -0.066016495 -0.06090219 0.02318554
-0.013764472 -0.024625923 0.0049470505 -0.024090761 -0.048214156 0.023624148 -0.017290665 0.080356896

conv3.0.bias f4 [64]
00000000: 76b8 7a3d f519 68bc 3f61 f13c 5781 9e3d
00000010: 1cc6 9a3d 01e1 b43d a16e 6bbb 8faf cebc
00000020: 7514 213d f308 883d 3511 303d cdbf 0a3d
00000030: d8e9 2b3d d632 38bd e853 843d a6b4 9439
00000040: 0b29 1abd 99f7 c4bc 08ca 383d e36f 9b3c
00000050: 2cf9 d63c f2dc 3a3d 83a1 dbbc c796 e4bc
00000060: 113c 24bd 877c 1cbd 610c 603c f35d c23d
00000070: 357d 333d 58ca 723d 038c b93d af92 0a3d
00000080: 81ec b8bc 62b4 f43c 12b6 123d 2220 593d
00000090: b37d 0f3d ff89 1b3d 2fa0 59bd adc3 2b3d
000000a0: 92f6 12bd 56cc 213d ac2f 413d 06b7 793d
000000b0: 1067 40bd 9d49 d53c 4bfc 073d 4bec 2f3c
000000c0: 6973 32bc 653e 703d ce44 663d 596f 9bbc
000000d0: ca41 a43d e168 3c3d e635 893d 7c1f 2d3d
000000e0: c8a0 083d 94a2 643d 0dd9 f7bc 4e94 653d
000000f0: fa0e b43d fcdc 18bd c5b1 153d 0d31 173d
0.061211072 -0.014166345 0.029465316 0.07739513 0.075573176 0.088319786 -0.0035924094 -0.025230197
0.03932615 0.06642332 0.04298516 0.03387432 0.041971058 -0.044970356 0.06461316 0.00028363353
-0.037636798 -0.024043845 0.045114547 0.01897425 0.026241861 0.045620866 -0.026810413 -0.027903927
-0.040096346 -0.038204696 0.013674826 0.09490576 0.04382058 0.059275 0.09059908 0.033831295
-0.022573711 0.02987117 0.035818167 0.05300916 0.035031985 0.0379734 -0.05313128 0.041934658
-0.03587968 0.03950151 0.047164604 0.06096556 -0.046973288 0.026036078 0.03319959 0.010737489
-0.010891774 0.058653254 0.05621796 -0.018973993 0.08020361 0.045998458 0.066997334 0.042266354
0.033356458 0.05581911 -0.030254865 0.056049637 0.08791919 -0.037320122 0.036546487 0.036912013

out.weight f4 [2, 3136]
00000000: a3d1 be3c 2f65 173c b93f 773c 1eec 9dbc
00000010: fd6b eebb 2567 e3bb 2b12 22bb a6ef 9a3c
00000020: 6ae3 fa3b 50a4 9f3a 2179 9ebc e017 613c
00000030: dda7 3ebb 90ec 9cbc 08ad 063d e64f 773d
00000040: b540 203b aa58 e73c 3cf5 86ba aeed 86bd
00000050: 9d3b 73bd 752d 573c a791 b2bd 2b76 99bc
00000060: 2a2a ad3c 9381 c2bc 5943 f4bb 8251 1cbc
00000070: db60 023d 3ef8 8b3d 8c86 543d 039f 2d3c
00000080: fcbc 1a3d 7919 273d 282f 5e3d c49d fabc
00000090: 2712 b8bc 5775 3cbd 3ff7 a8bc 387e 373d
000000a0: a089 a23d ea3b 183d 99c9 0e3c 7585 6dbd
000000b0: d22b fdbd 87a1 0dbe 8eae e5bd c59b 063d
000000c0: 6eb7 a03d 71b9 b1bb b3e1 943c 873a 0c3c
000000d0: ae4b 7f3c e244 87bc 6756 0ebc c816 563b
000000e0: 28e2 333c 685e 7d3b 5afe 2f3b ff2d 8b3c
000000f0: 3836 813c 80bd 95ba 659e 99bb ee78 e2bb
00000100: 0a4a 3b3b 8c59 e0bb bdaf 81bc 2a3c 5c3c
00000110: 0a21 8e3c fa08 0b3c 936c 0d3a 2fda c5bb
00000120: 0be6 a7bc cd89 0ebc 7839 903c 9986 1a3c
00000130: fe2c ddbb 210c 023c dbb7 ab3c e622 e73b
00000140: 113c 533c b240 50bb 3b29 133c 9c89 3d3b
00000150: a00c b5bb 6e99 d3bb 2a26 6cb9 a11a 5a3c
00000160: aef9 b0bb ef78 2fbc 414e 593b 2e06 4ebd
00000170: 19e0 1dbd 39b6 dabc 1b2b 8abc 3c10 c13c
00000180: e7fd 4f3c 41b1 973c 5aff 70bd cd2e bc3c
00000190: 4e7b 03bd 0f68 bcbd 56d7 393c d6e3 653c
000001a0: b620 8e3c 36f8 b73c 57e5 6b3d bc60 aa3d
000001b0: 8dc1 313d 0c55 fc3c 5588 a2bc 6160 a3bc
000001c0: 33b1 90bc b5de 9cbc 20c2 d6bd ea95 04be
000001d0: 84b7 88bd 20e5 c2ba c84e 8e3d acab 433c
000001e0: 3900 60bd 2038 a2bc 24ab 653d 2834 c43d
000001f0: 3206 833d 0cd4 153d c86a 99bd 0851 44be
00000200: 51fa bbbd ca3b 01bd 1e46 a03d 22ae ac3d
00000210: b542 80bb b7be b93d f6bb 133d 9617 efbd
00000220: 7138 153d 99bb 763d 7795 b73c a317 dd3c
00000230: b652 0cbd 1c7d 333c 4428 3dbb 66e8 73bb
00000240: 1973 3c3c b94e a9bd b24a 91bd 2030 00bd
00000250: ec44 89bd 1fde fabd d1c3 a03d 5542 253e
00000260: 6b17 843d ab64 c03d 6528 debc e34e fabc
00000270: 240b 71ba 753c 113e 2a3f da3d 3fb2 a23c
00000280: 6c3c 9abd 5f23 c13c 4b3f 50bd 93d6 5cbc
00000290: 3c9a 8a3d 6ce6 4dba 18ed 95be 268d aabe
000002a0: 7c3d 9039 beaf b53c 0d46 d13d 5b88 3d3d
000002b0: a2a2 b03d aafe f2bd 0dd5 123e 408b 3f3d
000002c0: 5d20 133d 85ba e8bd 5ef3 61bd 600b 66be
000002d0: 8179 28be ec21 90bd a870 673c 897a 073d
000002e0: c3cd 713d 67d5 8a3d b77d 4cbe d06e 14be
000002f0: 7849 073c 91fc 5f3d dbe7 363d 0aa3 ab3d
00000300: 8e0e f7bc 43ff 38be 8a7e 1ebe 999b 91bc
00000310: 868c c23d dac1 b73d 86ab 023d 735a 5a3c
00000320: 9fe3 613c 2074 3bbd 0672 a13c ebac aa3d
00000330: cafa 573d 063c 263d 5285 e83c f96d ea3c
00000340: 41bb b63c ecea ac3c c69d 263d 102d 423c
00000350: 2fc7 82bd d51b 39bd eb59 80bb 2725 cbbc
00000360: 69c1 a1bb 5ac9 30ba 04f9 a4bc d8f8 663d
00000370: 5136 e43c 3dc4 0d3d 54f5 2dbd 6fca dabb
00000380: 1485 c1bd 2eef 5fbe 2257 cfbd dde9 bdbd
00000390: 411a debb 8b94 833d 2d6e 423d 34ff a2bc
000003a0: 9f5e 81bc fe54 143e d446 ef3d 07d7 34bd
000003b0: 6475 cfbd e5f2 9cbd dce4 0dbe 3637 36be
000003c0: c680 1abe ad39 b3bd f4e7 f23c 97ca 6a3d
000003d0: 49e6 863d f416 903d e114 a93d 028d 7f3d
000003e0: ad12 253d 9d5b 823d da20 1b3d 98a6 cd3c
000003f0: 9703 9f3d 28fc ba3d 450e 153c 18de f73c
0.023293322 0.009240433 0.015090876 -0.019277629 -0.007276057 -0.006939786 -0.0024730067 0.018913101
0.0076565044 0.0012179706 -0.019344868 0.013738602 -0.0029091754 -0.01915577 0.03287986 0.06037893
0.002445263 0.02824052 -0.0010296474 -0.065883026 -0.059383024 0.013133396 -0.08719187 -0.018733105
0.02113827 -0.023743426 -0.0074543175 -0.009540917 0.03183065 0.06834458 0.051886126 0.010596993
0.037777886 0.040795777 0.05424419 -0.030592807 -0.022469593 -0.04601034 -0.020625709 0.044798106
0.07936406 0.037166514 0.008715057 -0.057988603 -0.12361874 -0.13831149 -0.11214934 0.032863397
0.078474864 -0.0054237177 0.018174028 0.008558876 0.015582008 -0.016512338 -0.008687592 0.0032667387
0.010979213 0.0038661007 0.0026854486 0.016989706 0.015772924 -0.0011424273 -0.0046880716 -0.0069113886
0.0028578066 -0.0068466123 -0.015830869 0.013442079 0.017349739 0.008486027 0.0005394902 -0.0060379724
-0.020495435 -0.008699846 0.017605528 0.009431505 -0.0067497483 0.007937462 0.020961693 0.0070537208
0.012892739 -0.0031776843 0.008981998 0.0028921133 -0.0055251867 -0.006457499 -0.00022520931 0.013312013
-0.005400858 -0.010709985 0.0033158215 -0.050298862 -0.038543794 -0.026698219 -0.016866257 0.023567311
0.012694812 0.018517138 -0.058837272 0.022971535 -0.032100014 -0.09199535 0.011342844 0.014031371
0.017349582 0.022457223 0.057591762 0.08319232 0.043397475 0.030802272 -0.019840399 -0.019943418
-0.01766262 -0.019149164 -0.10486245 -0.12947813 -0.06675628 -0.001486931 0.0694862 0.011942785
-0.054687712 -0.019802153 0.056071416 0.095802605 0.06397666 0.036579177 -0.0749107 -0.19171536
-0.091786034 -0.03155116 0.07825874 0.08431651 -0.003914202 0.09069579 0.036067925 -0.116744205
0.03643078 0.0602375 0.022410138 0.02698881 -0.034258567 0.010955121 -0.0028863112 -0.0037217378
0.011502051 -0.08266968 -0.07094325 -0.031295896 -0.06702599 -0.122493975 0.07849849 0.16138585
0.06449779 0.09394201 -0.027118871 -0.030555194 -0.00091950805 0.14183219 0.10656579 0.019860385
-0.07531056 0.023576437 -0.05084161 -0.013478893 0.06767699 -0.0007854465 -0.2928245 -0.33310813
0.0002751163 0.022178527 0.10218439 0.046272617 0.0862477 -0.118649796 0.14339085 0.04676366
0.035919536 -0.11363701 -0.055163734 -0.22465277 -0.164526 -0.0703772 0.01412598 0.033075843
0.05903412 0.067789845 -0.19969831 -0.14495397 0.008257262 0.054684225 0.04465471 0.083807066
-0.030158307 -0.18066125 -0.15477958 -0.01777439 0.09499459 0.08972521 0.03190186 0.013327229
0.013787179 -0.045765042 0.01970769 0.08333763 0.052729405 0.040584587 0.028383885 0.028616892
0.022306086 0.021108113 0.04067781 0.011851564 -0.063856475 -0.04519256 -0.003916969 -0.024797989
-0.0049363864 -0.0006743871 -0.020138271 0.05638966 0.027857931 0.034610976 -0.04247029 -0.006676964
-0.09449211 -0.21868584 -0.10124041 -0.092731215 -0.006778032 0.06424817 0.047468353 -0.019897081
-0.01579219 0.14485547 0.11683431 -0.04415038 -0.10129812 -0.07663516 -0.13856834 -0.17794499
-0.15088186 -0.08751235 0.02965162 0.05732211 0.06586892 0.07035628 0.082559355 0.062390335
0.040301014 0.0636513 0.037873127 0.025103852 0.077643566 0.09130126 0.00909764 0.03025727

out.bias f4 [2]
00000000: 7d9b 6f3d b924 d6bc
0.058497895 -0.026140558
